bearings/outdated/old/jup/Model/model_3.pth (torch, 431206 bytes, 14 tensors)

layer1.0.weight f4 [64, 1, 9]
0	0x3e745fa5	0.2386461
1	0xbd90f1a8	-0.07077342
2	0x3e961138	0.29310012
3	0xbc33301b	-0.010936762
4	0x3e8a6db1	0.27036813
5	0xbe4f5855	-0.2024854
6	0x3e6d9bbf	0.23203944
7	0xbde23294	-0.11044803
8	0x3e83695c	0.2566632
9	0xbeba375e	-0.36370367
10	0x3e2780e7	0.16357766
11	0xbe2c033d	-0.1679811
12	0xbcaa32f2	-0.020776246
13	0x3d5e2d44	0.054242387
14	0xbd53c1e4	-0.05169858
15	0x3e895bfb	0.26827988
16	0xbe7d7893	-0.24753027
17	0x3e9edf30	0.31029654
18	0xbe81c2bf	-0.25343892
19	0x3ce4ce1b	0.02793031
20	0xbdc0e051	-0.09417785
21	0xbe2d22c4	-0.16907793
22	0x3e4362c1	0.1908064
23	0xbe87f85f	-0.2655668
24	0x3ddad79c	0.106856555
25	0xbed0aaf2	-0.4075542
26	0x3e79b3c7	0.24384986
27	0xbe64466f	-0.22292493
28	0x3e5795ac	0.21053189
29	0xbd7e140b	-0.062030833
30	0x3e4ffbff	0.20310973
31	0xbe861a5e	-0.26191992
32	0x3db8029e	0.08984874
33	0xbe1d52a6	-0.15363559
34	0x3e8ddbaf	0.27706668
35	0xbdb50b0e	-0.08839999
36	0xbe909bc6	-0.28243846
37	0xbd424f06	-0.047438644
38	0x3e8021a2	0.2502566
39	0xbe1725a6	-0.14760455
40	0x3e33c77a	0.17556563
41	0xbe16719c	-0.14691776
42	0x3e3a501d	0.18194623
43	0xbe711c37	-0.2354592
44	0xbe882d32	-0.2659698
45	0xbe825bf1	-0.2546077
46	0x3e930e57	0.28721878
47	0xbe21e837	-0.15811239
48	0x3d904b3e	0.07045601
49	0x3a4d8024	0.0007839224
50	0xbdd5cb32	-0.10439147
51	0x3e0c4082	0.13696483
52	0xbe8dd5ff	-0.2770233
53	0x3e8775ca	0.26457053
54	0x3e6bea4e	0.23038599
55	0xbd6a8ea9	-0.057264958
56	0xbe611017	-0.21978794
57	0xbe9fb643	-0.31193742
58	0x3e12c12d	0.14331503
59	0x3e61318a	0.21991554
60	0x3dc06e5c	0.093960494
61	0xbe9c4a72	-0.30525547
62	0xbe89fea6	-0.26952094
63	0x3e825790	0.2545743
64	0x3d8b57df	0.068038695
65	0xbdbe1328	-0.092809975
66	0xbd0f83c3	-0.035037767
67	0xbeaf325c	-0.3421811
68	0x3e10f344	0.14155298
69	0xbe98dfc5	-0.29858223
70	0x3df4f2ae	0.1196035
71	0xbea74a72	-0.32673985
72	0x3ea707d8	0.32623172
73	0x3e1bb60d	0.15206166
74	0xbe8efd95	-0.27927843
75	0xbe89560a	-0.26823455
76	0x3e97d51e	0.29654783
77	0x3e8ca3ff	0.2746887
78	0xbdb14c25	-0.086571015
79	0xbe3067df	-0.17227124
80	0x3e1a0f35	0.15044864
81	0x3dbb5968	0.09147912
82	0xbe1dbf83	-0.15405087
83	0x3ddc2648	0.10749489
84	0x3c43c8b2	0.011949705
85	0xbd84caec	-0.06484017
86	0xbcd33dde	-0.025786337
87	0x3e431e56	0.19054541
88	0xbe856871	-0.26056245
89	0x3e1a235e	0.15052554
90	0xbe22bbcc	-0.15891951
91	0x3e9b9c2a	0.3039258
92	0xbeb561f2	-0.3542629
93	0x3e8c0455	0.27347055
94	0xbdf59983	-0.11992171
95	0xbd9e16ff	-0.0771923
96	0x3e61ff17	0.22069965
97	0xbe80da45	-0.25166526
98	0x3e154a7d	0.14579196
99	0xbeba3625	-0.36369434
100	0x3e5d70e4	0.21625096
101	0x3dcb11e5	0.099155225
102	0x3ea95787	0.3307459
103	0xbe78ac17	-0.24284397
104	0x3c0e6f23	0.008693489
105	0xbe8f21b2	-0.27955395
106	0x3ec22d90	0.37925386
107	0xbdfb03b0	-0.12256563
108	0x3dd76444	0.10517171
109	0x3e6c88b3	0.23099022
110	0x3c84d68d	0.016215587
111	0xbe99afea	-0.30017024
112	0xbe43143a	-0.19050685
113	0x3ea49fd5	0.32153192
114	0x3e73aed3	0.23797159
115	0xbddd9a26	-0.10820417
116	0xbe847d15	-0.2587668
117	0x3e91a9e4	0.2844993
118	0x3e2b4ae5	0.16727789
119	0xbc966cbe	-0.0183624
120	0xbbd84cb1	-0.006600939
121	0xbdbd541f	-0.092445605
122	0x3d9bba22	0.076038614
123	0x3e926fb8	0.2860086
124	0x3ea3dc67	0.3200409
125	0xbe218a71	-0.15775467
126	0xbda6aade	-0.08138059
127	0xbe16ee19	-0.14739265
128	0xbe635136	-0.22198948
129	0xbe54b59c	-0.20772403
130	0xbe899c58	-0.26877093
131	0xbe81392f	-0.2523894
132	0xbe2d1e5b	-0.16906111
133	0xbe17fc56	-0.14842352
134	0xbe04aff4	-0.12957746
135	0x3d907d63	0.070551656
136	0x3e98d84c	0.2985252
137	0x3d65b0ba	0.056076743
138	0x3e4b371e	0.19845244
139	0xbd17d8c9	-0.037071977
140	0x3d9c344c	0.07627162
141	0xbe357f3f	-0.17724322
142	0xbdbde015	-0.09271256
143	0xbecce33b	-0.40017113
144	0x3e239f91	0.15978839
145	0x3eb0f08c	0.34558523
146	0x3e587426	0.21138057
147	0x3e13786d	0.14401408
148	0xbe2ecc7d	-0.17070194
149	0xbe084dfd	-0.13311
150	0xbd573a93	-0.052546095
151	0x3e1ade50	0.15123868
152	0xbeb789d7	-0.3584735
153	0x3e4e7666	0.20162353
154	0xbe976cfe	-0.29575342
155	0x3e1ca0bf	0.15295695
156	0xbd66bfc0	-0.05633521
157	0x3d2486b7	0.040167537
158	0xbd068793	-0.032844137
159	0x3df64797	0.120253734
160	0xbeaa2b89	-0.3323634
161	0x3eb0fe84	0.3456918
162	0x3e5f109f	0.21783684
163	0xbe95f4f5	-0.2928845
164	0x3da910f6	0.08255188
165	0x3e3f937c	0.18708605
166	0xbe9af8a6	-0.3026783
167	0x3e45b485	0.19307144
168	0x3d26e232	0.04074306
169	0xbe6f60a3	-0.23376708
170	0x3e4a6cd3	0.19768076
171	0xbe4c30e4	-0.19940525
172	0xbd7fdf53	-0.062468838
173	0x3e516628	0.20449126
174	0x3e5f242f	0.21791147
175	0xbe66a244	-0.22522837
176	0x3cc65e5a	0.024214912
177	0x3d7da499	0.06192455
178	0xbe62a575	-0.2213343
179	0xbed4351f	-0.41446778
180	0xbe29f373	-0.16596775
181	0x3e16189b	0.14657824
182	0xbe6f8f67	-0.23394547
183	0x3e6ebd83	0.2331448
184	0xbe9a593f	-0.30146214
185	0x3e5d4f7b	0.2161235
186	0xbe44c433	-0.19215469
187	0x3e0890b4	0.1333645
188	0xbe3ab566	-0.1823326
189	0xbe271afc	-0.16318887
190	0xbe19b1d7	-0.15009247
191	0xbea7e4af	-0.3279166
192	0xbd5fb77b	-0.05461834
193	0xbe31af7b	-0.17352097
194	0xbacb32c5	-0.0015502801
195	0x3d243993	0.04009397
196	0x3e824afa	0.25447828
197	0x3e23ced0	0.15996861
198	0x3b89de30	0.004207395
199	0xbe363371	-0.17793061
200	0x3e818c30	0.25302267
201	0xbcc35fc0	-0.023849368
202	0xbeb1e29e	-0.34743208
203	0x3eebe66b	0.46074232
204	0xbe1a5eb1	-0.15075184
205	0xbe5cc2c2	-0.21558669
206	0x3e7b26d3	0.24526529
207	0xbede8e7d	-0.43468085
208	0x3e851030	0.25988913
209	0x3e1880b8	0.14892852
210	0x3e3f37d1	0.18673636
211	0x3d970b36	0.07375185
212	0xbea29dc3	-0.31760988
213	0x3dd3514c	0.103182405
214	0xbedd5834	-0.43231356
215	0x3e2b0665	0.16701658
216	0xbe9be810	-0.30450487
217	0x3e9f2f3f	0.31090733
218	0xbdc8a3af	-0.09796845
219	0xbbd52cf5	-0.0065056034
220	0x3cea8b92	0.028631005
221	0xbded46fc	-0.11585805
222	0x3e0b0475	0.13575919
223	0x3e0c380c	0.13693255
224	0xbe8b37df	-0.27191064
225	0x3e77aa9d	0.24186178
226	0x3e81834d	0.25295487
227	0xbc84a15e	-0.016190227
228	0x3d722040	0.059112787
229	0xbdfee82e	-0.124466285
230	0xbde817ce	-0.113326654
231	0xbec62dc3	-0.38706788
232	0xbe9958c8	-0.29950547
233	0x3dcb3eee	0.09924112
234	0xbd4d537b	-0.05012844
235	0x3ea53856	0.32269543
236	0xbd26d041	-0.04072595
237	0x3d8fc377	0.07019704
238	0xbe969544	-0.29410756
239	0x3e436fa3	0.19085555
240	0x3c2d5ed6	0.010581693
241	0x3e9f905c	0.31164825
242	0xbe33d7d6	-0.17562804
243	0xbe0b7d66	-0.13622054
244	0x3e81ae10	0.25328112
245	0xbe212c79	-0.15739621
246	0x3ac211bb	0.001480631
247	0x3e08298d	0.132971
248	0xbd9dfb84	-0.077139884
249	0xbdeb7340	-0.114965916
250	0x3e97f228	0.29676938
251	0xbe5fbafd	-0.21848674
252	0xbe71ca91	-0.23612429
253	0x3c07d65f	0.008290856
254	0xbe92717d	-0.2860221
255	0xbd0347e7	-0.032050993

layer1.0.bias f4 [64]
0	0x3b2c90e0	0.002633147
1	0xba904c09	-0.0011008988
2	0x39baf74e	0.0003566094
3	0xba04ec4d	-0.0005070612
4	0xba052d08	-0.00050802575
5	0x39915b8c	0.00027724763
6	0xba73f3ad	-0.0009306025
7	0xbaa2b0d4	-0.0012412318
8	0x3a69813b	0.00089075015
9	0x39f5692d	0.00046808404
10	0x388d0ba0	6.725569e-05
11	0x3924bb64	0.00015710067
12	0x3b25a6b3	0.0025276362
13	0xb9da420d	-0.00041629412
14	0x3aad92f1	0.0013242644
15	0xba3139e2	-0.00067606394
16	0x3954e9a3	0.00020304932
17	0x3a37fc21	0.0007018466
18	0x38ea0e28	0.00011160626
19	0xb9e74060	-0.00044107717
20	0xba71b563	-0.0009220449
21	0xba5309d9	-0.00080504786
22	0xb9491a49	-0.00019178646
23	0xb8ac7307	-8.2230246e-05
24	0xb8d2f9d0	-0.000100601115
25	0x391f4657	0.00015189625
26	0xb702dc5e	-7.799912e-06
27	0xba226dc8	-0.0006196168
28	0x398dce17	0.00027047165
29	0x3aac16e6	0.0013129383
30	0xbae6ae87	-0.0017599621
31	0xb96fcc87	-0.00022869009
32	0xb9dc580a	-0.00042027264
33	0xb9e7be9e	-0.00044201774
34	0x3aca5dd7	0.0015439343
35	0xb99f1f64	-0.0003035023
36	0xba5ce7ed	-0.00084268936
37	0x391bb6e3	0.00014850083
38	0xb91821d9	-0.00014508459
39	0x3a8547b0	0.0010168459
40	0x390c6271	0.00013388113
41	0xbaf84e5d	-0.0018944253
42	0x3a88010a	0.0010376286
43	0xb718d725	-9.109998e-06
44	0xb8c114cc	-9.206831e-05
45	0xba0998bf	-0.0005248896
46	0x37f908a2	2.9687133e-05
47	0x39385531	0.00017579344
48	0x3a52620c	0.00080254744
49	0x3810cc69	3.4522647e-05
50	0x38911581	6.918144e-05
51	0x3a86c755	0.0010282794
52	0x3988e517	0.00026110627
53	0x3a6b5e3a	0.00089785794
54	0x3a4f39aa	0.0007905016
55	0x3836b4bb	4.35605e-05
56	0x3a1c717a	0.0005967837
57	0x3a24990b	0.00062789087
58	0x3a08da40	0.000522051
59	0x3aa0d075	0.0012269156
60	0xb9ab31cc	-0.00032652763
61	0xb92b9a09	-0.00016365213
62	0x3ac231c4	0.0014815857
63	0xba7ca814	-0.00096380827

layer1.1.weight f4 [64]
0	0x3f7f4945	0.99721175
1	0x3f8046b2	1.0021574
2	0x3f7ffa21	0.9999104
3	0x3f84fa35	1.0388857
4	0x3f6095a0	0.8772831
5	0x3f83f360	1.0308647
6	0x3f8afdae	1.0858667
7	0x3f7d529c	0.98954177
8	0x3f806f9c	1.003406
9	0x3f825346	1.0181663
10	0x3f88a103	1.0674137
11	0x3f82fc67	1.0233277
12	0x3f8d4df9	1.103942
13	0x3f408944	0.7520945
14	0x3f7dcd85	0.9914172
15	0x3f6c2b42	0.92253506
16	0x3f5fde7b	0.87448853
17	0x3f706b9d	0.93914205
18	0x3f77ed67	0.9684662
19	0x3f6f1b83	0.93401355
20	0x3f929ec4	1.1454701
21	0x3f74e92e	0.95668304
22	0x3f6ba551	0.9204913
23	0x3f6f3b0b	0.9344947
24	0x3f79223a	0.9731785
25	0x3f7536be	0.95786655
26	0x3f80b7a3	1.0056041
27	0x3f6e8c95	0.9318326
28	0x3f7cc2e4	0.9873488
29	0x3f820d33	1.0160278
30	0x3f864b52	1.0491736
31	0x3f73bcd9	0.95210034
32	0x3f71db4e	0.9447526
33	0x3f6ca446	0.9243816
34	0x3f6d6c68	0.9274354
35	0x3f807e46	1.0038536
36	0x3f7dead6	0.99186456
37	0x3f7de1e7	0.99172825
38	0x3f88bdf8	1.0682974
39	0x3f802da1	1.0013925
40	0x3f7c97c4	0.98669076
41	0x3f8a882e	1.0822809
42	0x3f7165bb	0.94295853
43	0x3f7afbce	0.98040473
44	0x3f556f53	0.8337299
45	0x3f5e32ad	0.86796075
46	0x3f7a6a97	0.97818893
47	0x3f6ee674	0.93320394
48	0x3f7d0c30	0.9884672
49	0x3f718dc9	0.9435697
50	0x3f4cdbf2	0.8002311
51	0x3f6fe5f1	0.9371024
52	0x3f5e3bdf	0.86810106
53	0x3f700853	0.937627
54	0x3f80cdf7	1.0062855
55	0x3f779436	0.96710527
56	0x3f811205	1.0083624
57	0x3f80871a	1.004123
58	0x3f70d0fa	0.9406887
59	0x3f8120ba	1.0088112
60	0x3f8209b8	1.0159216
61	0x3f767850	0.9627733
62	0x3f7de445	0.99176437
63	0x3f8b8828	1.0900927

layer1.1.bias f4 [64]
0	0xbc211efc	-0.009834047
1	0xbce83642	-0.028346185
2	0xbd28e3a9	-0.04123274
3	0xbeb79c1f	-0.35861298
4	0xbe70ab04	-0.23502737
5	0x3cb5d7c7	0.022197617
6	0xbd9abd53	-0.07555642
7	0xbbe10b77	-0.006867822
8	0x3bf79415	0.0075554946
9	0xbc6076f8	-0.013700239
10	0xbc456f73	-0.012050497
11	0xbde17390	-0.1100837
12	0x3b04f627	0.002028832
13	0x3c5ec375	0.013596405
14	0xbd8fc2d7	-0.070195846
15	0xb81dc183	-3.761194e-05
16	0x3e06f932	0.13180998
17	0x3c1e69fb	0.009668822
18	0xbbcc6fbc	-0.0062389057
19	0xbeb36d27	-0.35044214
20	0xbe0bbe0b	-0.13646714
21	0xbcab2e35	-0.020896057
22	0x3c0a71b7	0.008449963
23	0xbd22aafa	-0.039713837
24	0x3cdb8d88	0.026800886
25	0xbdd3d5eb	-0.10343536
26	0xbe897bae	-0.26852173
27	0xbb88e074	-0.0041771475
28	0xbcc28668	-0.02374573
29	0xbc207187	-0.009792692
30	0xbbb0a5b8	-0.005390849
31	0xbc17d1e6	-0.009266352
32	0x3c3aaaac	0.01139323
33	0xbc2e4718	-0.010637067
34	0x3c38a4aa	0.011269728
35	0xbcded006	-0.027198803
36	0xbd7f7dd0	-0.062375844
37	0xbe8348c6	-0.2564146
38	0xbccdbec0	-0.02511537
39	0xbeb1e8ca	-0.34747916
40	0xbc8bcaa4	-0.0170644
41	0xbd27a9e4	-0.040933505
42	0x3c9b490a	0.018955726
43	0x3ca92ecd	0.0206522
44	0xbac9fd65	-0.00154106
45	0x3d8942c8	0.06702191
46	0xbda8c555	-0.08240763
47	0xbd775428	-0.060382992
48	0xbc561fc6	-0.013069099
49	0xbd097edf	-0.03356826
50	0x3acda7a4	0.001569022
51	0xbc41ba7b	-0.011824246
52	0xbd7cdd5a	-0.061734535
53	0x3d940d95	0.07229153
54	0xbb60d04d	-0.0034303844
55	0x3c66f133	0.014095592
56	0xbe0f57fd	-0.13998409
57	0x3cff342f	0.031152813
58	0xbe8903d1	-0.26760724
59	0xb9994724	-0.00029235438
60	0x3b86b3f8	0.0041108094
61	0x3d39d7e1	0.045371894
62	0xbd35ecf3	-0.044415426
63	0xbbf85d4d	-0.0075794817

layer1.1.running_mean f4 [64]
0	0x3c1db1a4	0.009624872
1	0xbabc1097	-0.0014348206
2	0xbba49721	-0.005022899
3	0xba129359	-0.00055914145
4	0xbb9d158e	-0.0047938293
5	0xb8d9efd0	-0.00010392035
6	0xbbade8e1	-0.0053073023
7	0xbbb1184f	-0.005404509
8	0x3b85991e	0.004077091
9	0x39d42192	0.00040460803
10	0x37a125ce	1.92103e-05
11	0x39848e6a	0.0002528311
12	0x3b3b4dc3	0.0028580285
13	0x3be3a66d	0.0069473297
14	0xbc432a8a	-0.011911998
15	0xba7e0077	-0.00096894003
16	0x3b2efdbe	0.0026701535
17	0x3aed5384	0.0018106555
18	0x3a83d3a0	0.0010057576
19	0xbbb0ddef	-0.0053975503
20	0xbb865ec9	-0.0041006547
21	0xbb88e2f6	-0.0041774465
22	0x39d1eda9	0.00040040657
23	0xbb13f156	-0.0022574267
24	0xbadfd73d	-0.0017077696
25	0xbb0fda86	-0.0021950318
26	0x3b3a5cb0	0.0028436594
27	0xba08926f	-0.00052098086
28	0xbba7cd1c	-0.0051208865
29	0x3a6eccaa	0.0009109477
30	0x3a05953e	0.0005095786
31	0x39c5af04	0.00037705165
32	0xb9c6859c	-0.0003786505
33	0xb987b535	-0.00025884216
34	0x3c043a0f	0.008070483
35	0xba442c76	-0.0007483432
36	0xbb1fcbc2	-0.0024382924
37	0x39d1d1c6	0.0004001988
38	0xbb3a659e	-0.0028441916
39	0xbc418b32	-0.011812972
40	0x3b54514e	0.0032397094
41	0xbaf20145	-0.0018463513
42	0x3a977892	0.0011556318
43	0xb96e9f83	-0.00022756871
44	0xb99a1835	-0.00029391205
45	0x3a214d19	0.0006153151
46	0x3c6ef0ff	0.014583825
47	0x3b1a826a	0.0023576268
48	0x3a061bc5	0.00051158323
49	0x3a9b6c68	0.0011857869
50	0xbb8cfec4	-0.0043028314
51	0xb7b69647	-2.1766069e-05
52	0xbb8f0cf2	-0.004365557
53	0xbaae3285	-0.0013290202
54	0x3bf3d961	0.007441685
55	0xba083e2f	-0.00051972544
56	0x3c70b30a	0.014691124
57	0xbaf83f0a	-0.0018939686
58	0x3c59a0d4	0.013282973
59	0x3b501b5c	0.0031754589
60	0x390563a1	0.00012720983
61	0x3bf8a60c	0.0075881537
62	0xb8ea31c1	-0.00011167257
63	0xba72d55d	-0.0009263361

layer1.1.running_var f4 [64]
0	0x3cde8411	0.027162584
1	0x3dfe933e	0.12430428
2	0x3dbbab7b	0.09163567
3	0x3ce20364	0.027589507
4	0x3dca80b1	0.09887827
5	0x3dd4adc0	0.10384703
6	0x3d0be1be	0.03415083
7	0x3d58de6c	0.052946493
8	0x3e116ffc	0.14202875
9	0x3e1143a2	0.14185956
10	0x3e2fb6c2	0.1715956
11	0x3da02c50	0.07820952
12	0x3d776dae	0.060407333
13	0x3de93d05	0.11388592
14	0x3ccd964d	0.025096083
15	0x3d632bc8	0.055461675
16	0x3de404b2	0.11133708
17	0x3e5cc468	0.21559298
18	0x3ee122a1	0.43971732
19	0x3e3ff122	0.18744329
20	0x3c40faf0	0.011778578
21	0x3d0001a0	0.03125155
22	0x3f258f82	0.646721
23	0x3e1672ed	0.14692278
24	0x3e45a5f8	0.19301593
25	0x3d967915	0.07347313
26	0x3cef705e	0.029228386
27	0x3e8e22fe	0.27761072
28	0x3d64662c	0.0557615
29	0x3d90992f	0.070604675
30	0x3db73dc8	0.08947331
31	0x3f3e68d0	0.7437868
32	0x3f1064c4	0.56403756
33	0x3e8f6011	0.2800298
34	0x3d567be4	0.052364245
35	0x3db46962	0.08809163
36	0x3d5e6061	0.054291133
37	0x3ee52502	0.44754797
38	0x3cb9d609	0.022685068
39	0x3d9c4cf4	0.07631865
40	0x3e26b9bb	0.16281788
41	0x3cacb294	0.021081246
42	0x3ee7d987	0.45283148
43	0x3db3f4e5	0.08786944
44	0x3f0b1d8c	0.5434196
45	0x3e09fd2d	0.13475485
46	0x3df84ab7	0.12123626
47	0x3ddcb732	0.10777129
48	0x3e639eef	0.22228597
49	0x3d1d0844	0.03833796
50	0x3e15c4e6	0.14625892
51	0x3dc2781f	0.094955675
52	0x3dda16c2	0.10648872
53	0x3d3e8323	0.04651178
54	0x3d6d617d	0.0579543
55	0x3db1a6fa	0.086744264
56	0x3db190b2	0.086701766
57	0x3cbc4391	0.022981437
58	0x3e134d9b	0.14385073
59	0x3d89ae03	0.06722643
60	0x3ec287fb	0.3799437
61	0x3da39d34	0.079889685
62	0x3d0582d6	0.032595478
63	0x3e0aa90f	0.13541053

layer2.0.weight f4 [128, 64, 5]
0	0x3d8adfb1	0.06780947
1	0x3cba46a2	0.022738758
2	0x3cbbbe87	0.022917999
3	0x3d3a8af5	0.045542676
4	0xbca333c3	-0.019922143
5	0xbdcf6e13	-0.10128417
6	0xbcdd455e	-0.027010616
7	0x3cc13c7b	0.02358841
8	0x3c02ee56	0.007991394
9	0xbd93e7c0	-0.07221937
10	0xbd1f2004	-0.03884889
11	0x3d033f90	0.03204304
12	0x3c4eafe9	0.012615182
13	0xbc9b4074	-0.018951632
14	0xbdcb61f0	-0.099307895
15	0xbd8ca052	-0.06866516
16	0xbd6161f7	-0.055025067
17	0xbd8e2dcd	-0.069423296
18	0x3b1086a6	0.0022052913
19	0xbdd8444e	-0.10559903
20	0x3bcf1aef	0.0063203494
21	0x3d8c934b	0.068640314
22	0x3daf7908	0.08568007
23	0x3ddfa8c2	0.1092086
24	0xbb08d4a7	-0.0020878704
25	0xbcebf3fa	-0.02880286
26	0x3cf547a1	0.029941382
27	0x3c8c8b32	0.017156217
28	0xbd5123a7	-0.05105939
29	0xbd68b734	-0.05681534
30	0xbd8bfe6d	-0.06835637
31	0xbda6dfc4	-0.08148149
32	0xbdff825a	-0.124760345
33	0xbd95b6df	-0.073102705
34	0xbde119be	-0.10991238
35	0x3cd5d025	0.026100228
36	0x3d2374dc	0.039906368
37	0x3d464187	0.048402335
38	0xbbf86813	-0.007580766
39	0xbc336fc7	-0.010951943
40	0xbe9fee31	-0.31236413
41	0xbe73e235	-0.2381676
42	0xbe5c164e	-0.21492884
43	0xbe5e808b	-0.21728723
44	0xbe617809	-0.22018446
45	0xbcb03caa	-0.021513302
46	0x3c83d835	0.016094306
47	0x3bef8335	0.0073093423
48	0xbc549cdf	-0.012976854
49	0xbdabd5f3	-0.08390417
50	0xbd978e3d	-0.07400177
51	0xbd566e7b	-0.052351456
52	0x3b93fa25	0.0045159035
53	0xbc46c1f8	-0.012131207
54	0xbdc55795	-0.096358456
55	0x3bea04d8	0.0071416907
56	0x3d4d9a2e	0.050195865
57	0x3d0fb372	0.03508324
58	0x3d823a90	0.06358826
59	0xbc06bff5	-0.008224477
60	0xbe24a35e	-0.16077945
61	0xbe1030cd	-0.14081116
62	0xbe3bb0d3	-0.18329172
63	0xbe0eb59c	-0.13936466
64	0xbe799d28	-0.24376357
65	0xbdc9c102	-0.098512664
66	0xb9beee32	-0.00036417093
67	0xbc977a51	-0.018490942
68	0xbcddd7b1	-0.027080389
69	0xbdc836e5	-0.09776095
70	0x3db9d86e	0.09074484
71	0x3e0f17ef	0.13973974
72	0x3dfefec4	0.124509364
73	0x3de6bd6c	0.11266598
74	0x3dcdcd37	0.10048907
75	0x3d3a7bfb	0.045528393
76	0x3dc0d3e5	0.09415416
77	0x3db04303	0.086065315
78	0x3dd68bf9	0.104759164
79	0x3d89c68c	0.06727323
80	0xbc65db5e	-0.014029352
81	0x3ca46b2c	0.020070635
82	0xbc8c80a5	-0.017151186
83	0x3c3803e6	0.011231398
84	0xbd669b66	-0.056300543
85	0x3c1bf5e5	0.009519075
86	0x3cf3e74f	0.029773382
87	0x3d2818bc	0.041039214
88	0xbc055d2c	-0.00813989
89	0x3ac2d858	0.0014865501
90	0xbcdf50ef	-0.027260272
91	0xbc147e5b	-0.009063329
92	0x3d0157d3	0.031577896
93	0x3d0df775	0.03465982
94	0x3c129e8a	0.0089489315
95	0x3dc9874b	0.09840258
96	0x3e1878a1	0.14889766
97	0x3dfea358	0.12433499
98	0x3df8461a	0.12122746
99	0x3db08c81	0.08620549
100	0x3bc7790b	0.0060874275
101	0x3c8f1a2e	0.017468538
102	0x3d114abe	0.03547167
103	0x3c4d81a2	0.012543114
104	0x3c4a614a	0.012352297
105	0x3d0f5780	0.034995556
106	0x3cbc616b	0.022995671
107	0x3d42d6ca	0.04756812
108	0x3d32a420	0.043613553
109	0xbc68af35	-0.014201929
110	0xbc9c95d9	-0.019114422
111	0x3cfced5b	0.030874899
112	0x3ce4ba1c	0.027920775
113	0x3c7b4664	0.015336607
114	0xbce4efdf	-0.02794641
115	0xbcfcab86	-0.030843507
116	0x3d4e4c30	0.050365627
117	0x3dd89e54	0.10577074
118	0x3dec2cf7	0.11532014
119	0x3d671b83	0.05642272
120	0xbd604556	-0.054753624
121	0xbcdf1bf2	-0.027235005
122	0x3a5578d5	0.00081433106
123	0xbcad94ae	-0.02118906
124	0xbd1b682c	-0.037941143
125	0x3db59c6f	0.08867728
126	0x3dbfafbb	0.0935969
127	0x3d75ea31	0.060037795
128	0x3da7a853	0.08186402
129	0x3da16f5d	0.07882569
130	0x3cb52522	0.022112433
131	0xbcbdce6f	-0.023169724
132	0xbd3f70f3	-0.046738576
133	0xbd394a0d	-0.045236636
134	0xbde8b462	-0.1136253
135	0xbd75d1d1	-0.06001455
136	0xbd3738e8	-0.044732004
137	0x3d14f9eb	0.036371153
138	0x3cfb6d9c	0.030691914
139	0xbd0594d5	-0.03261264
140	0x3db95228	0.09048873
141	0x3d9a8b12	0.07546057
142	0x3d5c7efd	0.053832043
143	0x3c51248c	0.012765061
144	0xbd0f090b	-0.034920733
145	0xbe90a77b	-0.28252777
146	0xbe4a6c57	-0.19767891
147	0xbe6a2e97	-0.22869335
148	0xbe450036	-0.19238362
149	0xbe9c8afa	-0.3057478
150	0xbe759ca8	-0.23985541
151	0xbe58bc0f	-0.21165489
152	0xbdd331e7	-0.103122525
153	0xbe541006	-0.20709237
154	0xbe8006cb	-0.25005183
155	0xbdc7fe02	-0.09765245
156	0xbd2a5e90	-0.041594088
157	0xbc90bab0	-0.017667145
158	0xbd004075	-0.03131147
159	0xbd37ec0f	-0.044902857
160	0xbda2a639	-0.07941861
161	0x3c5345ee	0.0128950905
162	0xbcd78fa8	-0.026313618
163	0x3abb3ac5	0.0014284482
164	0xbd9b7aac	-0.07591757
165	0xbd171c5f	-0.03689229
166	0x3d0db359	0.034594867
167	0x3d13f79c	0.03612481
168	0x3d4ca3ac	0.049960777
169	0xbca03d3b	-0.019560447
170	0x3d650102	0.055909164
171	0x3d0ab95b	0.033868175
172	0x3cd1bdb5	0.025603155
173	0x3c0575ee	0.008145792
174	0xbba54b80	-0.0050444007
175	0xbe393d80	-0.18089867
176	0xbddeb5aa	-0.108744934
177	0xbdd0f8ce	-0.10203706
178	0xbd8f2881	-0.069901474
179	0xbe20093e	-0.15628526
180	0x3c57c779	0.013170117
181	0x3dc1a230	0.09454763
182	0x3dbfec6c	0.09371266
183	0x3dd919ee	0.10600649
184	0x3dbd2a42	0.09236576
185	0xbb99564b	-0.0046794764
186	0x3da6c34d	0.081427194
187	0x3d772e40	0.06034684
188	0x3d3d42c5	0.046206255
189	0x3c0e5977	0.008688322
190	0xbda78709	-0.08180053
191	0x3ce21a49	0.027600424
192	0x3c735d5c	0.014853802
193	0x3cf5f7f7	0.030025465
194	0xbccc4faf	-0.02494034
195	0x3dc62e28	0.09676772
196	0x3de24d67	0.110499196
197	0x3e30ea3f	0.17276858
198	0x3dd584ea	0.10425742
199	0x3deca21f	0.1155436
200	0xbe23f2a0	-0.16010523
201	0xbe44e5f0	-0.19228339
202	0xbe0c5503	-0.13704304
203	0xbe192265	-0.14954527
204	0xbe41ad36	-0.18913731
205	0xbc3a7a2d	-0.011381668
206	0x3c7e0d72	0.015506135
207	0xbba5eef1	-0.0050638844
208	0x3d21fd64	0.039548293
209	0x3b88bd90	0.0041729882
210	0xbd1de83c	-0.038551554
211	0x3cec56b1	0.028849931
212	0x3d844b66	0.064596936
213	0x3c36ca79	0.011156672
214	0xbc46b1fa	-0.012127394
215	0xbd12802b	-0.03576676
216	0xbaed5969	-0.0018108311
217	0xbc096f73	-0.008388388
218	0x3d82a6c3	0.063794635
219	0xbc02f8a0	-0.007993847
220	0xbb6306e7	-0.0034641565
221	0x3ca67dc2	0.020323638
222	0xbb9689a1	-0.0045940434
223	0xbbc2d27d	-0.0059455023
224	0xbdb0571b	-0.08610364
225	0xbd4def7f	-0.05027723
226	0x390d30d9	0.00013465005
227	0xbbd525b6	-0.0065047396
228	0x3c764d00	0.015033007
229	0xbd0cdca5	-0.03439011
230	0x3d6933a4	0.056934014
231	0x3d2af95b	0.04174171
232	0x3dd743e5	0.10510997
233	0x3d49d965	0.04927959
234	0x3cdb2285	0.026749859
235	0xbd5602ff	-0.05224895
236	0x3ce4e8dc	0.027943067
237	0x3cc9c7b1	0.024631353
238	0x3d85b1f9	0.06528086
239	0xbc4e3f0f	-0.0125882765
240	0xbd765d80	-0.060147762
241	0x3d8da66c	0.06916508
242	0x3cb837eb	0.022487601
243	0xbd06d06b	-0.032913607
244	0xbd8e9329	-0.06961662
245	0xbd7ed196	-0.062211595
246	0xbd0b4fea	-0.03401176
247	0xbab9ff81	-0.0014190526
248	0xbdd3fc9a	-0.10350914
249	0xbdfff907	-0.1249867
250	0x3d3b7469	0.045765314
251	0x3d95171a	0.07279797
252	0x3d7555cf	0.059896287
253	0x3c86ba26	0.016446184
254	0xbc78d0a3	-0.015186462
255	0xbeba73b7	-0.36416408

layer2.0.bias f4 [128]
0	0x38f37eeb	0.00011610783
1	0xb8c30561	-9.2993265e-05
2	0x37fcd3a8	3.0139301e-05
3	0x399ca006	0.00029873865
4	0xb8d05fc1	-9.9360484e-05
5	0xba07dab5	-0.0005182431
6	0xb9a5acbf	-0.00031599958
7	0x38cf63fc	9.889153e-05
8	0xb8964e30	-7.167121e-05
9	0xb55a65c5	-8.135942e-07
10	0x39f6d15d	0.00047076764
11	0x38393ddc	4.4165048e-05
12	0x3911b563	0.0001389585
13	0xb9e521b5	-0.00043703397
14	0xb7a33bc2	-1.9458941e-05
15	0xb926e8fd	-0.00015917789
16	0x39c4516a	0.0003744469
17	0x37ddc4b4	2.643685e-05
18	0x38153fec	3.55839e-05
19	0xb83e3e11	-4.5357334e-05
20	0x39b83379	0.00035133565
21	0x382ba023	4.0918716e-05
22	0xb899eb93	-7.339488e-05
23	0xb889387a	-6.543189e-05
24	0xb694a9e1	-4.43052e-06
25	0x37277bfc	9.982843e-06
26	0x39c993f2	0.00038447935
27	0x381600bf	3.576348e-05
28	0xb86c3583	-5.631662e-05
29	0x37041249	7.8720705e-06
30	0x39ced002	0.0003944636
31	0xb76302df	-1.3530923e-05
32	0x397bf5b3	0.00024028755
33	0x3a2933e4	0.00064545707
34	0x390db550	0.00013514352
35	0xb6defe46	-6.645717e-06
36	0xba4ab21d	-0.00077322294
37	0x39c8d6c6	0.0003830699
38	0x38ac191e	8.2062776e-05
39	0xb7ed4318	-2.8283845e-05
40	0xb7f7311b	-2.9467561e-05
41	0x37ea7fd9	2.7954507e-05
42	0xb96eec49	-0.00022785472
43	0xb913b586	-0.00014086635
44	0xb8abe1e5	-8.1959915e-05
45	0xb5fd6f3f	-1.8882346e-06
46	0xb7d02e4c	-2.481709e-05
47	0xb8e837cc	-0.00011073015
48	0x38b43ce0	8.594408e-05
49	0xb61d23ff	-2.3415776e-06
50	0x39c26ec9	0.00037085105
51	0xb703a5d5	-7.846819e-06
52	0xb86b5f24	-5.6116973e-05
53	0xb9640d49	-0.00021748724
54	0x394a428e	0.00019289015
55	0xb88b4a41	-6.6418674e-05
56	0xba28425a	-0.00064185786
57	0x39314beb	0.00016908317
58	0x36fea018	7.5884273e-06
59	0xb6ec1cba	-7.0366923e-06
60	0x38cc9fbe	9.757232e-05
61	0x386d1a36	5.6529614e-05
62	0x37cb510f	2.4237232e-05
63	0x37b24d1c	2.125516e-05
64	0x38ee5e54	0.00011366294
65	0xb9ef980d	-0.0004569892
66	0xb8ba027d	-8.8696346e-05
67	0x369c18c7	4.6520468e-06
68	0x39bbe03e	0.00035834493
69	0x3a4d85f8	0.00078400923
70	0xb88b7cf1	-6.651309e-05
71	0xb7500f82	-1.2401377e-05
72	0x399c0a09	0.00029762115
73	0xb76e9f49	-1.4222992e-05
74	0xb6d3539f	-6.298025e-06
75	0xb93643be	-0.00017382108
76	0xb7f1c2e3	-2.882019e-05
77	0xb7f1c454	-2.8820861e-05
78	0x34a2a83e	3.0297264e-07
79	0xb83af6a9	-4.4575576e-05
80	0x38ac9fb3	8.2313454e-05
81	0x38b6ef74	8.723038e-05
82	0xb6681065	-3.4580237e-06
83	0xb71576a7	-8.908718e-06
84	0x37fe15ce	3.0289313e-05
85	0x38df1b2d	0.000106385305
86	0xb925f49c	-0.0001582675
87	0x38c8c90d	9.574192e-05
88	0x372c76f9	1.0279699e-05
89	0x3504ca97	4.946864e-07
90	0xb9f1c832	-0.0004611626
91	0xb880fda9	-6.1507635e-05
92	0xb839e14b	-4.4317258e-05
93	0xb92c2898	-0.0001641832
94	0xba013dbb	-0.0004930158
95	0x378e9aaf	1.699975e-05
96	0x3695a30d	4.4595276e-06
97	0x349520dc	2.777732e-07
98	0x3882dcda	6.24002e-05
99	0xb956d1a9	-0.00020486735
100	0x383956fe	4.4188455e-05
101	0x3a2c0256	0.00065616274
102	0x36539268	3.152667e-06
103	0x39195691	0.00014623466
104	0xb7c2901f	-2.3193714e-05
105	0xb9fb585e	-0.0004794029
106	0x371945f5	9.135799e-06
107	0x39a56708	0.00031548017
108	0x35aecdd7	1.3023918e-06
109	0xb71bc5d4	-9.28478e-06
110	0xba1ab675	-0.0005901822
111	0xb8add830	-8.289551e-05
112	0xb7941e4b	-1.7657081e-05
113	0xb7abc155	-2.0474816e-05
114	0xb83066f7	-4.2057563e-05
115	0xb958b016	-0.00020664962
116	0xb6e2f80e	-6.764202e-06
117	0xb903945a	-0.00012548399
118	0x3806bccb	3.2123917e-05
119	0x3a1f18fe	0.0006069093
120	0x38a74391	7.975766e-05
121	0xb7bf32f3	-2.27927e-05
122	0xb914b15a	-0.00014180448
123	0x36b3eb11	5.361981e-06
124	0xb9481306	-0.00019080573
125	0xb927520b	-0.00015956924
126	0xb86358cb	-5.4203712e-05
127	0x3650b46c	3.1099435e-06

layer2.1.weight f4 [128]
0	0x3f6c16d8	0.92222357
1	0x3f6c2a41	0.92251974
2	0x3f62b2a4	0.88553834
3	0x3f6ebb32	0.9325439
4	0x3f5f263d	0.8716772
5	0x3f6f93f6	0.93585145
6	0x3f6d1c96	0.92621744
7	0x3f5fa2dc	0.8735788
8	0x3f60e61c	0.8785112
9	0x3f387d26	0.7206596
10	0x3f78dd81	0.9721299
11	0x3f39c473	0.7256538
12	0x3f6768db	0.9039437
13	0x3f6f5ca6	0.93500745
14	0x3f4171f5	0.7556451
15	0x3f5e3ab9	0.86808354
16	0x3f6c6814	0.9234631
17	0x3f624d08	0.8839879
18	0x3f48c327	0.7842278
19	0x3f65bb4e	0.8973893
20	0x3f75302f	0.9577665
21	0x3f64e889	0.8941732
22	0x3f66f87f	0.90222925
23	0x3f6910ed	0.9104145
24	0x3f46163c	0.77377677
25	0x3f7d424f	0.98929304
26	0x3f73e7a9	0.9527536
27	0x3f3c0c2c	0.7345607
28	0x3f4f43dc	0.8096292
29	0x3f577fd4	0.84179425
30	0x3f707eb7	0.9394335
31	0x3f7c054e	0.98445594
32	0x3f67c124	0.90529084
33	0x3f693f16	0.91111887
34	0x3f63c801	0.88977057
35	0x3f611dc8	0.8793607
36	0x3f60d0b5	0.8781846
37	0x3f6977fd	0.9119871
38	0x3f4daf25	0.80345374
39	0x3f5c8524	0.86140656
40	0x3f6f4002	0.93457043
41	0x3f8b8484	1.0899816
42	0x3f6cad79	0.924522
43	0x3f51ccdb	0.8195321
44	0x3f60b40d	0.87774736
45	0x3f555569	0.8333345
46	0x3f66480f	0.899537
47	0x3f66240d	0.8989876
48	0x3f6238b0	0.8836775
49	0x3f594cfc	0.84883094
50	0x3f6f6560	0.9351406
51	0x3f605668	0.87631845
52	0x3f57fca8	0.843699
53	0x3f71f3e4	0.9451277
54	0x3f6ce64e	0.9253892
55	0x3f73ae27	0.9518761
56	0x3f710f43	0.9416391
57	0x3f679581	0.904625
58	0x3f684aad	0.90738946
59	0x3f71e411	0.94488627
60	0x3f5d358d	0.86409837
61	0x3f5519cd	0.83242494
62	0x3f5f953a	0.87337077
63	0x3f5d66e2	0.8648511
64	0x3f72bc17	0.9481825
65	0x3f681457	0.90656036
66	0x3f590db5	0.8478654
67	0x3f6523b2	0.8950759
68	0x3f6ae4c5	0.91755325
69	0x3f76c178	0.9638896
70	0x3f749eaf	0.9555463
71	0x3f5e67a7	0.8687691
72	0x3f6f83ac	0.9356029
73	0x3f724ec5	0.9465144
74	0x3f64a9e6	0.89321744
75	0x3f5969ec	0.8492725
76	0x3f6805e2	0.90633976
77	0x3f5066ee	0.8140706
78	0x3f73b531	0.9519835
79	0x3f68676c	0.9078281
80	0x3f4ed4f8	0.80793715
81	0x3f44c177	0.76857704
82	0x3f6819bd	0.90664274
83	0x3f47394e	0.77821815
84	0x3f5896c0	0.84605026
85	0x3f641b21	0.89103895
86	0x3f652911	0.8951579
87	0x3f5facf0	0.87373257
88	0x3f31e873	0.69495314
89	0x3f6c81ba	0.9238545
90	0x3f728289	0.9473043
91	0x3f65b7eb	0.8973376
92	0x3f71c11c	0.94435287
93	0x3f5df8ac	0.8670757
94	0x3f6fe4aa	0.9370829
95	0x3f3833ec	0.71954226
96	0x3f781ff5	0.9692376
97	0x3f2eff72	0.6835853
98	0x3f765be9	0.96233994
99	0x3f713cd7	0.9423346
100	0x3f561fa6	0.8364204
101	0x3f6c8bc0	0.9240074
102	0x3f41cf80	0.75707245
103	0x3f4618bb	0.77381486
104	0x3f5d9788	0.86559343
105	0x3f61077a	0.87902033
106	0x3f6a43df	0.91509813
107	0x3f65b0cc	0.89722896
108	0x3f7115c5	0.9417384
109	0x3f63f2ba	0.89042246
110	0x3f6a6f19	0.9157577
111	0x3f5f59f9	0.8724666
112	0x3f6a18e1	0.9144421
113	0x3f6dc3d3	0.9287693
114	0x3f690262	0.9101926
115	0x3f6a7789	0.91588646
116	0x3f6a73e2	0.91583073
117	0x3f4c36ae	0.79770935
118	0x3f3fd10f	0.74928373
119	0x3f70abc3	0.9401209
120	0x3f6ac248	0.917027
121	0x3f4d872f	0.802844
122	0x3f782b7a	0.9694134
123	0x3f8243d0	1.0176945
124	0x3f5a87dc	0.85363555
125	0x3f5d857f	0.86531824
126	0x3f690d08	0.9103551
127	0x3f6ecbcc	0.9327972

layer2.1.bias f4 [128]
0	0xbdb8d63a	-0.090252355
1	0xbe27244c	-0.1632244
2	0xbe0fcc75	-0.14042838
3	0xbdc5f3f8	-0.09665674
4	0xbe42328e	-0.18964598
5	0xbdd0a370	-0.10187423
6	0xbe051823	-0.12997489
7	0xbde3af27	-0.11117392
8	0xbd9a40c3	-0.075318836
9	0xbdfd1509	-0.12357528
10	0xbdbb0a48	-0.0913282
11	0xbe37afce	-0.17938158
12	0xbe0bbe88	-0.136469
13	0xbdfb1c7a	-0.12261291
14	0xbe3849d0	-0.17996907
15	0xbe6de1ec	-0.23230714
16	0xbd6275b8	-0.055288047
17	0xbddf4f32	-0.10903777
18	0xbe6b0d71	-0.22954346
19	0xbdf99d96	-0.1218826
20	0xbe0d8873	-0.13821582
21	0xbdd5a817	-0.10432451
22	0xbe2af665	-0.16695555
23	0xbe76a4f3	-0.2408636
24	0xbe1f29ee	-0.15543339
25	0xbe63b5e5	-0.22237356
26	0xbe0dcc74	-0.13847524
27	0xbe31a7e6	-0.17349204
28	0xbe1829e8	-0.14859736
29	0xbe19a959	-0.15006007
30	0xbe027f48	-0.12743866
31	0xbdeb32fc	-0.11484334
32	0xbdfc4c96	-0.12319295
33	0xbe1c6542	-0.15273002
34	0xbde9dd62	-0.114191785
35	0xbe003be3	-0.12522845
36	0xbe1bb859	-0.15207042
37	0xbe23f728	-0.16012251
38	0xbe2bf904	-0.1679421
39	0xbe40ebf7	-0.18840013
40	0xbeae9ab4	-0.34102404
41	0xbdb3dc6c	-0.087822765
42	0xbe3ba848	-0.18325913
43	0xbe6cb1c2	-0.23114684
44	0xbe3ff860	-0.18747091
45	0xbf132464	-0.574774
46	0xbe372553	-0.17885332
47	0xbe4c6355	-0.19959767
48	0xbe1cecdc	-0.1532473
49	0xbe4e66ac	-0.20156354
50	0xbd3cb36a	-0.04606954
51	0xbd9dfd08	-0.077142775
52	0xbe44a2de	-0.19202754
53	0xbe4fdda7	-0.20299397
54	0xbe00ef26	-0.12591228
55	0xbdbe44e7	-0.09290486
56	0xbdad828e	-0.08472167
57	0xbe22ec30	-0.15910411
58	0xbc4af953	-0.012388545
59	0xbf0c06d8	-0.5469794
60	0xbe21f59a	-0.15816346
61	0xbdea1fbc	-0.11431834
62	0xbe39a315	-0.18128617
63	0xbe3760d2	-0.17908028
64	0xbe19e462	-0.15028527
65	0xbe03698a	-0.12833229
66	0xbe094a47	-0.13407241
67	0xbdd3065f	-0.103039496
68	0xbe37ffb0	-0.17968631
69	0xbdc6a778	-0.09699911
70	0xbe05d360	-0.13068914
71	0xbe2353c4	-0.15949923
72	0xbe1c6d25	-0.1527601
73	0xbf09dc84	-0.53852105
74	0xbde7b45a	-0.11313696
75	0xbe01ee89	-0.1268865
76	0xbd9a7e31	-0.075436
77	0xbe3cbe22	-0.18431905
78	0xbf079f30	-0.52977276
79	0xbe2319a4	-0.1592775
80	0xbe53272e	-0.20620415
81	0xbe65351c	-0.22383541
82	0xbe330949	-0.17484011
83	0xbdc6cc31	-0.09706915
84	0xbe42e1ee	-0.19031498
85	0xbe1aa111	-0.15100504
86	0xbe36ce1d	-0.17852063
87	0xbe28b7b6	-0.1647633
88	0xbe5ef844	-0.21774393
89	0xbf0b9172	-0.54518807
90	0xbe138b81	-0.14408685
91	0xbdb651ef	-0.08902346
92	0xbdf88b19	-0.12135906
93	0xbe312306	-0.17298517
94	0xbdd8c8a0	-0.10585141
95	0xbd8af626	-0.0678523
96	0xbe8940aa	-0.26807147
97	0xbeb1a1f4	-0.34693873
98	0xbe18bb35	-0.14915164
99	0xbe5d5b9b	-0.21616976
100	0xbe1ab6bf	-0.15108775
101	0xbe1d252e	-0.15346214
102	0xbdfb894b	-0.12282046
103	0xbe51ab40	-0.20475483
104	0xbe56f889	-0.20993246
105	0xbe04c1a9	-0.129645
106	0xbe67b9bb	-0.22629444
107	0xbde209e4	-0.11037043
108	0xbf0bd829	-0.5462671
109	0xbd7b192d	-0.061303306
110	0xbdec48c5	-0.11537317
111	0xbe30db68	-0.17271197
112	0xbf0196e8	-0.5062089
113	0xbe27232e	-0.16322014
114	0xbd7d7812	-0.061882086
115	0xbe266ffc	-0.16253656
116	0xbd86c0af	-0.0657972
117	0xbe2106df	-0.15725277
118	0xbe4b09f9	-0.19828023
119	0xbe072afc	-0.13199991
120	0xbe1c03fd	-0.15235896
121	0xbeecdd6e	-0.46262687
122	0xbdf25b1b	-0.11833783
123	0xbe148045	-0.14502056
124	0xbe02da0b	-0.1277849
125	0xbe7d6f6a	-0.24749532
126	0xbe7ec87f	-0.2488117
127	0xbf0a479e	-0.5401553

layer2.1.running_mean f4 [128]
0	0xbff12c88	-1.8841715
1	0xbf8c3179	-1.0952598
2	0x3dfb8a2e	0.12282215
3	0x3f76d849	0.96423775
4	0xc03af37d	-2.9211113
5	0xc00e5e9b	-2.2245243
6	0xbf5ee4c7	-0.87067837
7	0xc01e7913	-2.4761398
8	0xc0154ac4	-2.3326883
9	0x3ffcc3f0	1.9747295
10	0xbfebfeb2	-1.8437102
11	0xc0041ccb	-2.0642574
12	0x3ef61a26	0.48066825
13	0xbfcb010a	-1.5859692
14	0xbf5b4e85	-0.85666686
15	0xc038f0db	-2.8897007
16	0xc0043d72	-2.0662503
17	0xc0274425	-2.6135342
18	0xbf4c34fd	-0.79768354
19	0xbf2fdff7	-0.6870112
20	0xbea3918e	-0.31946987
21	0xc0282f34	-2.627881
22	0xbf9fc855	-1.2483011
23	0xbfddcef4	-1.7328782
24	0x3e490a41	0.19632818
25	0x40034079	2.05081
26	0xbea48346	-0.32131404
27	0xc0061425	-2.0949795
28	0xbfd85e35	-1.690375
29	0x40185b15	2.3805592
30	0xbfbe4f82	-1.4868014
31	0xbd2cde93	-0.04220445
32	0x3f0b8558	0.5450034
33	0xbfb35e38	-1.4013128
34	0xbf8754c4	-1.0572743
35	0xc072314d	-3.784259
36	0xbfe882ae	-1.816488
37	0xbfd386c6	-1.6525505
38	0xbfc2b0a3	-1.5210155
39	0xbf99cd01	-1.2015687
40	0x404949a4	3.1451197
41	0x3f692fb7	0.9108843
42	0xbf75441f	-0.9580707
43	0xc045cb37	-3.0905282
44	0xbd4079b5	-0.04699107
45	0x40a079f6	5.014888
46	0xbfde8fba	-1.7387612
47	0xbfb57a66	-1.4177978
48	0xbf3c5cb6	-0.73578966
49	0xbf9db4d4	-1.2320809
50	0xc034c3fd	-2.8244622
51	0xc030c624	-2.7620935
52	0xbfc6fd3d	-1.5546032
53	0xc031fc24	-2.7810144
54	0xbfc6c15e	-1.5527761
55	0xbf57571e	-0.84117305
56	0xc0137cb7	-2.304487
57	0xbf25ebae	-0.64812744
58	0x3f63f2f9	0.8904262
59	0x40a3eda9	5.1227612
60	0xbe854fa8	-0.26037335
61	0xbf48e042	-0.7846719
62	0xbf840f91	-1.031725
63	0xbfaf95a9	-1.3717548
64	0xbf7145ee	-0.9424733
65	0xbf9b2f86	-1.2123878
66	0xbffb8083	-1.9648594
67	0x3f5c9bd9	0.86175305
68	0xc003d805	-2.0600598
69	0xbfed002e	-1.851568
70	0x3fa241c4	1.267632
71	0xc008d5d0	-2.13805
72	0xbfbd8dc1	-1.4808885
73	0x40a1771c	5.0457897
74	0x3f0fca61	0.5616818
75	0xbe00eabc	-0.12589544
76	0xc06c93a7	-3.696512
77	0xbf4076bf	-0.7518119
78	0x409ddfd7	4.933574
79	0xbfa3e6a8	-1.2804766
80	0xbf3309e5	-0.6993697
81	0xbfd14778	-1.6349936
82	0xbf376c91	-0.71650034
83	0x3fcf7e76	1.6210468
84	0xbf998b69	-1.199567
85	0x3e66daf6	0.22544464
86	0xc066f627	-3.608774
87	0xbf56f1a4	-0.83962464
88	0x3f8da720	1.1066628
89	0x40d261ed	6.574454
90	0xbf8085a1	-1.004078
91	0xc0508d5c	-3.258628
92	0xbeb83dfc	-0.3598479
93	0xbf914fab	-1.1352438
94	0xbf8e6705	-1.1125189
95	0x3d071758	0.032981247
96	0x3ff27958	1.8943281
97	0x409d71ed	4.920157
98	0x3e0f63ed	0.14002962
99	0xbfa8f61c	-1.3200107
100	0xbeb9d5b2	-0.3629585
101	0xbfa808b7	-1.312766
102	0x3e482f44	0.1954928
103	0xbf8b357e	-1.08757
104	0xc0199c08	-2.4001484
105	0xc002168d	-2.0326264
106	0xc015ac09	-2.3386252
107	0x3c808fe0	0.015693605
108	0x40b1c19e	5.554885
109	0x40a00077	5.0000567
110	0xbfcbbde0	-1.591732
111	0xbfa362f8	-1.2764578
112	0x408ebe1e	4.4607077
113	0x3fbe1c35	1.4852358
114	0xc06ae755	-3.6703694
115	0xbfe5ed2f	-1.7963008
116	0xc07b57b5	-3.9272282
117	0xbfd3fe0e	-1.6561906
118	0xbeca0e8f	-0.39464232
119	0xbf797ac3	-0.97452945
120	0xbf3039fa	-0.68838465
121	0x404344a4	3.0510645
122	0xbea693a7	-0.32534525
123	0x3fb4d1a9	1.4126483
124	0xc0035bf6	-2.0524879
125	0xbfb9bc65	-1.4510618
126	0xbf95ac00	-1.1693115
127	0x40d5999a	6.675

layer2.1.running_var f4 [128]
0	0x41824010	16.28128
1	0x40f0be01	7.523194
2	0x40ab0695	5.3445535
3	0x412aa932	10.666307
4	0x41a69eb6	20.827496
5	0x414d44ac	12.829266
6	0x41164281	9.391236
7	0x41827fcd	16.312403
8	0x41bed6fb	23.85497
9	0x417bd531	15.739549
10	0x4190d0ab	18.101889
11	0x4151f25a	13.121668
12	0x40c9b836	6.3037367
13	0x413166fe	11.087645
14	0x40e88160	7.265793
15	0x41a328f8	20.395004
16	0x4190bdce	18.092678
17	0x4190d0d4	18.101967
18	0x4094389f	4.6319118
19	0x40c34bac	6.1029873
20	0x40d47a6b	6.6399436
21	0x418b7666	17.432812
22	0x410b6566	8.7122555
23	0x411aed4d	9.682935
24	0x411eff4c	9.937328
25	0x415485f7	13.282706
26	0x40fbb65f	7.866012
27	0x418a814e	17.313137
28	0x416352c3	14.2077055
29	0x418bdeaa	17.483723
30	0x412a947d	10.661252
31	0x4124487e	10.267698
32	0x40fdc6f5	7.9305367
33	0x417f3fad	15.953046
34	0x40ec21ad	7.379111
35	0x42133bc7	36.808376
36	0x411d8438	9.84478
37	0x413e52a8	11.89518
38	0x41448ad8	12.283897
39	0x4114b176	9.293325
40	0x41bc59aa	23.543781
41	0x412773db	10.465785
42	0x411ec8c8	9.924019
43	0x41e98852	29.191563
44	0x40867a48	4.202427
45	0x4280e895	64.45426
46	0x415ee0e8	13.929909
47	0x41033fc5	8.203069
48	0x40f21144	7.5646076
49	0x41314ad8	11.080772
50	0x41e6cd41	28.850222
51	0x41d310d5	26.383219
52	0x4164c062	14.296968
53	0x419f2918	19.895065
54	0x413424f3	11.259021
55	0x4121f81f	10.123076
56	0x415ffb84	13.998905
57	0x410fce91	8.987931
58	0x40f2b41f	7.5844874
59	0x42922843	73.078636
60	0x40d0df20	6.527237
61	0x411e7609	9.903817
62	0x40e52bb0	7.161583
63	0x413b1b5c	11.69418
64	0x4119c2ab	9.610026
65	0x41092f76	8.574087
66	0x413e7d41	11.90558
67	0x41065093	8.394671
68	0x4167391e	14.451445
69	0x417a8b2b	15.658977
70	0x41091824	8.568394
71	0x419184a5	18.189768
72	0x411a254f	9.634109
73	0x428cb278	70.34857
74	0x40e0b8ec	7.0225735
75	0x407c49fa	3.9420152
76	0x420785a5	33.880512
77	0x41142bfd	9.260739
78	0x428da3fc	70.82028
79	0x410fb5a5	8.981847
80	0x40f9d081	7.806702
81	0x410aae68	8.66758
82	0x411200dc	9.12521
83	0x41424364	12.141453
84	0x41218e97	10.097312
85	0x40b7946b	5.7368674
86	0x41f36693	30.425085
87	0x40ffa1c0	7.988495
88	0x40d1db73	6.558038
89	0x42d0c9d8	104.394226
90	0x40eb6c7b	7.3569922
91	0x420c0b59	35.01108
92	0x40f048c7	7.508884
93	0x410bae8a	8.730112
94	0x4102e757	8.181479
95	0x4125a236	10.352102
96	0x4175be2e	15.358931
97	0x424bd5db	50.958843
98	0x410e687a	8.900507
99	0x40ba07b5	5.813441
100	0x40ed4381	7.41449
101	0x4147dd2c	12.491497
102	0x40914af0	4.5403976
103	0x40b97063	5.794969
104	0x4197eb44	18.989876
105	0x4129d60b	10.614757
106	0x416209a1	14.127351
107	0x40dda359	6.92619
108	0x42ab64e4	85.69705
109	0x42688ccb	58.137493
110	0x414c6aae	12.776045
111	0x40dac693	6.83674
112	0x42588efc	54.139633
113	0x41791a24	15.568882
114	0x421e4ffe	39.578117
115	0x4163cdba	14.237726
116	0x421a2432	38.535347
117	0x419271df	18.305601
118	0x40db7072	6.857476
119	0x413ce249	11.805245
120	0x40fffc47	7.9995456
121	0x41d573f0	26.68161
122	0x40c3b5c6	6.115939
123	0x4150af23	13.042758
124	0x418b9889	17.44948
125	0x4101ebce	8.1200695
126	0x4098d129	4.7755322
127	0x42e03cec	112.11899

linear1.weight f4 [4, 16000]
0	0xbca17a30	-0.019711584
1	0x3d3337f1	0.04375452
2	0x3d29fdc7	0.041501787
3	0x3d5f840b	0.054569285
4	0x3cb75536	0.022379499
5	0x3c95a543	0.01826728
6	0x3c7e7ac7	0.015532202
7	0x3d1718a2	0.036888726
8	0x3c9ebd78	0.019377455
9	0x3c7f002e	0.015564008
10	0x3c83b715	0.016078511
11	0x3d3f7a64	0.04674758
12	0xbcace801	-0.021106722
13	0xbb9a0dfc	-0.004701374
14	0x3b0d174d	0.002152878
15	0x3c9d9b12	0.019238982
16	0x3d411ec2	0.047148474
17	0x3ad25c60	0.0016049258
18	0x3c87440a	0.016511936
19	0x3cd87167	0.026421262
20	0x3c812b0c	0.015767597
21	0x3c09414c	0.008377384
22	0x3c9fba88	0.019498125
23	0xbd4d3dc2	-0.050107725
24	0x3d1dc375	0.03851648
25	0x3d46857f	0.048467156
26	0x3d52ad36	0.051434718
27	0x3d183742	0.037162073
28	0x3ce6abd6	0.02815811
29	0x3cf410af	0.029793112
30	0x3d2c086e	0.042000227
31	0x3d0ba5b9	0.034093592
32	0xbc44fe01	-0.01202345
33	0xbc85f36c	-0.016351424
34	0xbc7055c6	-0.0146688875
35	0xbc48b79b	-0.012250806
36	0xbc093bf8	-0.008376114
37	0x3c9e309a	0.019310284
38	0x3c556a51	0.013025836
39	0x3cb07d50	0.021544129
40	0xbb3ed35e	-0.0029117684
41	0x3b83f38d	0.0040268362
42	0x3c4fab81	0.012675167
43	0x3ce1d132	0.027565572
44	0x3c822bd9	0.015890049
45	0x3d1ab7a8	0.037772804
46	0x3d027026	0.031845234
47	0x3cd94b7f	0.026525257
48	0x3d1b7770	0.0379557
49	0x3d418e63	0.04725493
50	0x3d2a8d57	0.0416387
51	0x3d26150b	0.040547412
52	0x3d1feda4	0.03904499
53	0x3c2763af	0.0102166375
54	0x3ceaf8c5	0.028683076
55	0x3d0c5b23	0.034266602
56	0x3d580e5c	0.05274807
57	0x3d4ddd95	0.050260145
58	0x3ba4f0b4	0.005033577
59	0x3c4f3c2f	0.012648626
60	0xba936ba7	-0.0011247293
61	0x3ba4ff63	0.0050353273
62	0x3c290c82	0.0103179235
63	0x3c64baf3	0.013960588
64	0x3c45d878	0.012075536
65	0xbb4dc486	-0.0031397655
66	0x3cb1d507	0.021708025
67	0x3c9d5c78	0.019209132
68	0x3b7dfa97	0.00387541
69	0x3cd5b8a7	0.026089026
70	0x3d027a26	0.03185477
71	0xbb9fab9e	-0.0048727533
72	0x3cafeacd	0.021474266
73	0x3d003bf7	0.031307187
74	0x3ccbc94e	0.024876263
75	0x3c8da98b	0.017292758
76	0x3d605208	0.05476573
77	0x3ca8f431	0.020624252
78	0x3d440c0b	0.047863048
79	0x3c778456	0.015107235
80	0x3d0c0281	0.034182075
81	0x3d20a31d	0.039218057
82	0x3c137b0d	0.009001506
83	0x3d238201	0.039918903
84	0xbb7bfdea	-0.0038450905
85	0x3cdae82f	0.026722042
86	0x3c3ee455	0.011651118
87	0x3d6dca57	0.058054294
88	0x3c9e95aa	0.019358475
89	0x3c61b75b	0.0137766255
90	0x3c963fba	0.018340934
91	0x3d0f2688	0.034948856
92	0x3c319ca5	0.01084057
93	0x3c2c03cf	0.010498955
94	0x3d33c24b	0.043886464
95	0x3d412ac9	0.047159944
96	0xbbcad51d	-0.006189956
97	0x3cb636fe	0.02224302
98	0x3d08ee23	0.03343023
99	0x3d43c732	0.04779739
100	0x3d105473	0.035236787
101	0xbc415d52	-0.011802034
102	0x3b8ee970	0.004361324
103	0x3cdf102b	0.02722939
104	0x3d289d27	0.041165497
105	0x3c41c742	0.011827292
106	0x3d5d9b4c	0.05410318
107	0x3d1c7436	0.038196765
108	0x3cf2bf42	0.029632214
109	0x3c7c962b	0.015416662
110	0x3c8533c3	0.016260033
111	0x3c8dc229	0.017304497
112	0xbb2e65df	-0.0026611013
113	0x3cd4ce93	0.025977409
114	0x3c90f243	0.017693644
115	0x3caf3fe8	0.021392778
116	0x3cdea221	0.027176918
117	0x3d646ae9	0.05576602
118	0x3d244ed0	0.040114224
119	0x3cf31e95	0.029677669
120	0x3ce34d9b	0.027746966
121	0x3ca2a344	0.019853242
122	0x3d096a2c	0.03354852
123	0x3d0902fc	0.03345011
124	0xbd3d4a02	-0.046213157
125	0xbe5a4b53	-0.21317796
126	0xbda5c111	-0.08093465
127	0x3c81835f	0.015809713
128	0x3ca11958	0.019665405
129	0xbd1da599	-0.038488004
130	0xbb111a9a	-0.00221411
131	0xbc94031d	-0.01806789
132	0xbd901373	-0.0703496
133	0xbc9bb8ff	-0.019009111
134	0xbd7968b1	-0.060890857
135	0xbd43d995	-0.047814924
136	0xbc0bb018	-0.008525871
137	0x3cd9aa71	0.02657053
138	0xbc291381	-0.0103195915
139	0xbc294a5b	-0.010332669
140	0xbc9d5aca	-0.01920833
141	0xbb960c22	-0.004579083
142	0x3c39b667	0.011334992
143	0x3c5f3e71	0.013625727
144	0xbb4b444b	-0.0031016048
145	0xb9e286f2	-0.0004320662
146	0x3d495fb2	0.049163528
147	0xbc3e9041	-0.0116310725
148	0xbb5d3491	-0.0033753256
149	0x3be99270	0.0071280524
150	0x3d2aa9dd	0.0416659
151	0x3afbba7e	0.0019205359
152	0x3c549008	0.012973793
153	0xbcc4f40b	-0.02404215
154	0x3c9b8eba	0.018988956
155	0xbbe6aa8c	-0.0070393737
156	0xbd19c12b	-0.037537735
157	0xbc8de3ea	-0.017320592
158	0x3cd3ba48	0.025845662
159	0xbd1e7b07	-0.038691547
160	0xbd150024	-0.036377087
161	0xbd0f620e	-0.03500562
162	0xbbd75c39	-0.006572273
163	0xbd02d0dd	-0.03193747
164	0xbd22cc83	-0.03974582
165	0xbc4a3932	-0.012342738
166	0xbcd05d9f	-0.025435267
167	0xbd9ff958	-0.078112304
168	0xbc1eb746	-0.0096872505
169	0x3abcb809	0.0014398108
170	0xbd366849	-0.044533048
171	0x3bc23fae	0.0059280014
172	0xbd057384	-0.032580867
173	0xbd361033	-0.044449043
174	0xbc787f55	-0.015167077
175	0xbc12005f	-0.008911221
176	0x3cae4ec0	0.021277785
177	0xbca9c6fd	-0.020724768
178	0xbd951e3f	-0.072811596
179	0xbd5ecaab	-0.054392498
180	0xbc1342c7	-0.008988089
181	0xbcc4ef3e	-0.02403986
182	0xbc5ebf96	-0.013595482
183	0x3cba0e3e	0.02271187
184	0xbbdbd11e	-0.0067082783
185	0xbd4f1f58	-0.050567
186	0xbd6bdf41	-0.05758596
187	0xbc481fed	-0.012214643
188	0xbce7f504	-0.028315075
189	0x3cb9e923	0.022694176
190	0xbc0ad3ea	-0.008473376
191	0x3ccde469	0.025133329
192	0xbbfe6186	-0.0077630905
193	0x3c54b002	0.012981417
194	0xbc56cf09	-0.013110884
195	0xbc19ed2e	-0.009394927
196	0xbbf23151	-0.007391133
197	0xbcfda477	-0.030962212
198	0xbd116537	-0.035496917
199	0x3b94b0a8	0.0045376606
200	0x3ca77a15	0.020443955
201	0xbd02e765	-0.031958956
202	0xbcb10644	-0.021609433
203	0xbc9ad462	-0.0189001
204	0xbce330cc	-0.02773323
205	0x3c0283b6	0.007965973
206	0xbcdb0c86	-0.02673937
207	0x3bb9d96d	0.005671671
208	0x3a0cdd9f	0.00053736
209	0x3aa366b2	0.0012466519
210	0xbd1fb06d	-0.038986612
211	0xbc12b38a	-0.008953938
212	0xbc8cba69	-0.017178731
213	0xbcbb2169	-0.02284308
214	0xbc887b58	-0.016660377
215	0xbcabc193	-0.020966327
216	0xbd3ce368	-0.04611531
217	0xbd26feab	-0.040770214
218	0x3c4fe7ae	0.012689514
219	0xbc943343	-0.01809085
220	0xbb1b61f8	-0.0023709517
221	0xbc0eb415	-0.008709927
222	0x3c0f507f	0.008747219
223	0x3c363ccd	0.0111228945
224	0x3d4d7005	0.05015566
225	0x3d070677	0.03296515
226	0xbab3f90c	-0.0013730838
227	0xbbf8fb97	-0.007598351
228	0xbcc45aab	-0.023969015
229	0xbcdde8bb	-0.027088514
230	0xbd16c2fe	-0.036807053
231	0xbbbaf93e	-0.0057059815
232	0xbd67b7fd	-0.05657195
233	0x3bcb569a	0.006205392
234	0xbd82b10a	-0.06381424
235	0xbcb8642f	-0.022508709
236	0x3c7435fd	0.01490545
237	0xbc1cccbd	-0.009570298
238	0xbc45e8a8	-0.012079395
239	0xbd787575	-0.06065889
240	0x3cfd3c29	0.030912476
241	0x3bcc2a9c	0.0062306654
242	0xbd00e89a	-0.031471826
243	0x3c669fb8	0.014076166
244	0xbcdec1f2	-0.02719209
245	0xbd3febc9	-0.04685572
246	0xbcc428ef	-0.0239453
247	0xbcf921af	-0.03041157
248	0xbd336120	-0.043793797
249	0x3d75d88f	0.06002098
250	0x3c74e41f	0.014946966
251	0xbdd02c7d	-0.101647355
252	0xbc95f1b2	-0.018303726
253	0x3cff91f3	0.031197524
254	0xbcdc33d0	-0.026880175
255	0x3ad87f66	0.001651746

linear1.bias f4 [4]
0	0xbd75251a	-0.059849836
1	0xbd45a19b	-0.048249822
2	0x3d7124ca	0.058872975
3	0x3ce1780e	0.027523067
