bearings/outdated/old/jup/Model/model_1.pth (torch, 431175 bytes, 14 tensors)

layer1.0.weight f4 [64, 1, 9]
0.2816633 -0.39765507 0.104618706 0.09299556 0.18568797 -0.40074173 0.0819032 0.21979913
-0.114736035 0.24314494 -0.024606936 -0.2082919 -0.11182327 0.20044202 0.13413383 -0.34444398
-0.15762524 0.33004126 -0.17887685 0.011164885 0.13617688 -0.17907722 0.052748136 0.09165227
-0.15701118 -0.028766595 0.09500146 0.29047245 -0.09031432 0.32326397 -0.2404514 0.27405328
-0.03494051 0.09814874 0.19709037 0.088683076 -0.22032751 0.0145 0.29143623 0.26097038
0.11035551 -0.23701872 -0.24566324 -0.010283327 0.19669165 0.35599625 0.22073416 0.13627358
-0.12681958 -0.15367979 -0.26038882 -0.15708347 -0.06510446 0.19692045 -0.22255851 -0.22694065
-0.09000151 0.10666547 0.31526098 -0.03350452 -0.18695891 -0.30708256 -0.14352705 0.23496553
-0.3129957 0.13957208 -0.09534941 -0.22837116 0.27474213 0.059084594 0.09899729 0.25513637
-0.5294113 -0.18870828 0.19493337 -0.01469981 0.26386788 -0.38267133 0.14420259 0.051846985
0.04817996 0.29123577 -0.40725955 0.11144704 0.21238875 -0.1947073 -0.12567897 0.30038086
-0.07848331 -0.12410909 0.23971729 0.081979014 0.13458942 0.10587088 -0.08066161 0.055298515
0.15556225 0.008056331 0.25211775 -0.43641412 -0.031465277 0.09050957 0.2845004 -0.03550064
0.13995491 -0.30705157 -0.4210256 -0.27939644 0.018097807 -0.27920264 0.30573797 -0.012417966
-0.055608194 -0.24174105 0.16571501 0.32573068 -0.37800002 0.21197972 -0.07501467 -0.19751036
0.26610047 0.08059466 0.29562256 0.12873456 -0.37245968 0.16856177 -0.24136181 0.28465205
-0.18834712 0.35761335 -0.2116518 0.17786537 0.072019875 0.02311422 0.36538076 -0.3780337
0.19468564 0.11016072 -0.02257842 0.117690586 -0.11474562 -0.24303363 0.28754723 -0.11529913
-0.31069943 -0.26234066 -0.23531301 -0.3408285 -0.09070299 -0.20248835 -0.062415022 -0.060294602
-0.3344167 0.094361104 0.13262625 0.32488516 -0.25157997 0.28688025 -0.02563234 -0.12772427
0.3760237 -0.26493683 0.26329526 0.17334558 0.11765689 -0.06706659 0.2462698 -0.21633144
0.1011309 0.0021952852 -0.40597078 -0.28983536 0.12651788 -0.26213506 0.0055499473 0.2773496
-0.23216267 0.096692406 -0.07748815 -0.28573823 0.39165077 -0.21981443 0.2278268 -0.14043428
-0.15259883 0.1660054 -0.25525445 0.23582523 0.22694764 -0.15673767 -0.0074864435 -0.17969076
-0.21162817 0.30774564 0.11118513 0.18682249 -0.11731346 -0.38639298 0.06246787 -0.34814566
-0.0581085 0.304766 -0.0069970824 0.29012462 -0.054769926 -0.36354637 0.12858045 0.39621747
-0.24569222 0.09782879 -0.05891924 -0.042870726 -0.011129669 0.004374929 -0.2006731 -0.37819058
0.2661625 0.21304756 -0.33292064 0.31791788 -0.14508769 0.2519863 -0.0038034434 0.02656417
-0.5325891 0.33835992 0.20891185 0.014829266 0.1138056 -0.3901075 -0.003554775 -0.10302182
0.2931227 -0.060671333 -0.37845623 0.24997321 -0.032633703 0.05617184 -0.102831565 -0.13187188
0.2520581 -0.030985383 -0.29526618 0.12796304 0.09659909 -0.076859675 0.13188447 0.019298652
-0.08605201 0.20276554 -0.10716225 0.5144787 0.02123723 0.020823857 0.11812055 0.1764697
00000000: 2c36 903e 7299 cbbe 5542 d63d 7574 be3d
00000010: fd24 3e3e 052e cdbe ddbc a73d 0613 613e
00000020: bafa eabd fdfa 783e 7c94 c9bc 794a 55be
00000030: 9903 e5bd ac40 4d3e 615a 093e f65a b0be
00000040: 8368 21be 2bfb a83e 7e2b 37be ecec 363c
00000050: f471 0b3e 0560 37be 6e0e 583d 2fb4 bb3d
00000060: 8ac7 20be eca7 ebbc 2090 c23d ceb8 943e
00000070: b7f6 b8bd db82 a53e e438 76be b650 8c3e
00000080: c81d 0fbd 3502 c93d 0fd2 493e 799f b53d
00000090: 899d 61be 6891 6d3c 2137 953e e99d 853e
000000a0: 1202 e23d 09b5 72be 258f 7bbe 667b 28bc
000000b0: 8969 493e 2445 b63e 2308 623e 4d8b 0b3e
000000c0: fedc 01be 3c5e 1dbe af51 85be 7dda 20be
000000d0: 7d55 85bd 84a5 493e 61e6 63be 2163 68be
000000e0: b652 b8bd 6d73 da3d e369 a13e 093c 09bd
000000f0: 2872 3fbe ed39 9dbe c1f8 12be ce9a 703e
00000100: f940 a0be fceb 0e3e 8d46 c3bd 21da 69be
00000110: 00ab 8c3e b002 723d 17bf ca3d 3ca1 823e
00000120: 8087 07bf be3c 41be 9d9c 473e 79d7 70bc
00000130: b119 873e 7fed c3be d8a9 133e 815d 543d
00000140: 5a58 453d db1c 953e 5384 d0be 593e e43d
00000150: 707c 593e 5a61 47be fdb1 00be 85cb 993e
00000160: dcbb a0bd e82c febd 7378 753e 9de4 a73d
00000170: cfd1 093e d5d2 d83d ea31 a5bd b280 623d
00000180: b64b 1f3e b4fe 033c 9415 813e ac71 dfbe
00000190: bce1 00bd 155d b93d 09aa 913e 1e69 11bd
000001a0: 5750 0f3e dd35 9dbe ab90 d7be 0d0d 8fbe
000001b0: da41 943c a6f3 8ebe b089 9c3e b974 4bbc
000001c0: 6bc5 63bd f78a 77be 32b1 293e 2cc6 a63e
000001d0: 3889 c1be 3611 593e 4ba1 99bd 2840 4abe
000001e0: 523e 883e d00e a53d d75b 973e fed2 033e
000001f0: 09b3 bebe 759b 2c3e 8d27 77be eabd 913e
00000200: 11de 40be 1919 b73e 40bb 58be 5722 363e
00000210: 287f 933d 085a bd3c 3013 bb3e a28d c1be
00000220: ac5b 473e f29b e13d 61f6 b8bc c307 f13d
00000230: c0ff eabd cfdd 78be 6439 933e f321 ecbd
00000240: ff13 9fbe 8451 86be e5f5 70be 1381 aebe
00000250: 7dc2 b9bd 1b59 4fbe e5a6 7fbd 79f7 76bd
00000260: aa38 abbe 6540 c13d 2dcf 073e 5957 a63e
00000270: 17cf 80be f8e1 923e eafa d1bc 27ca 02be
00000280: 2e86 c03e cda5 87be a3ce 863e 8181 313e
00000290: 18f6 f03d 355a 89bd 272e 7c3e fd85 5dbe
000002a0: b81d cf3d c6de 0f3b 67db cfbe 4d65 94be
000002b0: e78d 013e 9136 86be 55dc b53b c400 8e3e
000002c0: 0dbc 6dbe ab06 c63d 1bb2 9ebd 484c 92be
000002d0: 7386 c83e 0917 61be 6e4b 693e 01ce 0fbe
000002e0: de42 1cbe 52fd 293e b6b0 82be 2b7c 713e
000002f0: f664 683e d77f 20be d750 f5bb db00 38be
00000300: 0eb5 58be d690 9d3e 08b5 e33d 654e 3f3e
00000310: 0a42 f0bd 4dd5 c5be 4fde 7f3d 2640 b2be
00000320: 2e03 6ebd 4a0a 9c3e c847 e5bb 378b 943e
00000330: 6e56 60bd c022 babe 98aa 033e 04dd ca3e
00000340: be96 7bbe 765a c83d 4d55 71bd 3799 2fbd
00000350: 3759 36bc 905b 8f3b 407d 4dbe 32a2 c1be
00000360: 7446 883e 2429 5a3e 9374 aabe 22c6 a23e
00000370: de91 14be 5904 813e 3143 79bb 1a9d d93c
00000380: c257 08bf 833d ad3e fdec 553e 73f6 723c
00000390: e912 e93d 2cbc c7be 3af7 68bb 1bfd d2bd
000003a0: 2e14 963e 8182 78bd 04c5 c1be faf8 7f3e
000003b0: ebaa 05bd 7114 663d 5b99 d2bd 6c09 07be
000003c0: c20d 813e 0fd5 fdbc 212d 97be be08 033e
000003d0: bed5 c53d 9b68 9dbd b90c 073e 3518 9e3c
000003e0: 093c b0bd c5a1 4f3e e277 dbbd e0b4 033f
000003f0: b3f9 ad3c cb96 aa3c 30e9 f13d 79b4 343e

layer1.0.bias f4 [64]
3.806495e-05 -4.868523e-06 -0.00037358978 -1.9513296e-05 7.675276e-05 0.00015934426 -5.024185e-05 -5.001659e-05
4.723182e-05 -7.064486e-05 0.00019651036 8.986291e-05 2.420941e-05 1.3133314e-05 -0.00034477148 0.00039908764
-2.1373851e-05 0.00014373907 0.0005810008 0.00010459188 0.000323584 -8.1919505e-05 -4.2167598e-05 6.7414076e-05
0.0003599105 -3.596625e-05 -8.122588e-05 -0.0002898956 9.398348e-05 0.00013600779 6.3810265e-05 0.0007837743
-0.00020393157 8.843567e-05 -0.00018335272 -8.4882624e-05 -5.5756896e-05 0.00046926347 -0.000111832094 0.00011591232
0.00023664339 0.00023561096 8.779262e-05 8.874733e-06 -7.523583e-05 0.000120292854 -0.00018157932 3.1534673e-05
-0.00016003149 0.00010085125 -4.721899e-06 9.170858e-05 -0.00033774655 0.0014107489 -3.5695593e-05 5.7875546e-05
0.00021330894 2.8631002e-05 -0.0002141384 -0.000105648876 -5.6458728e-05 -1.5388725e-05 6.211304e-05 0.00023087193
00000000: eea7 1f38 4b5c a3b6 5fde c3b9 7cb0 a3b7
00000010: 53f6 a038 a615 2739 c7ba 52b8 e8c8 51b8
00000020: c81a 4638 2c27 94b8 590e 4e39 c874 bc38
00000030: 5015 cb37 2757 5c37 72c2 b4b9 a33c d139
00000040: ff4b b3b7 aab8 1639 4e4e 183a 5758 db38
00000050: b6a6 a939 33cc abb8 1ddd 30b8 a860 8d38
00000060: 5fb2 bc39 78da 16b8 d057 aab8 21fd 97b9
00000070: ff18 c538 509d 0e39 e0d1 8538 3476 4d3a
00000080: 77d6 55b9 8a76 b938 5f42 40b9 0303 b2b8
00000090: 83dc 69b8 7a07 f639 6687 eab8 f415 f338
000000a0: 7a23 7839 560e 7739 4e1d b838 b0e4 1437
000000b0: eec7 9db8 bc45 fc38 5466 3eb9 1944 0438
000000c0: 20ce 27b9 1a80 d338 ce70 9eb6 ab53 c038
000000d0: 9313 b1b9 e1e8 b83a dab7 15b8 65bf 7238
000000e0: afab 5f39 9c2c f037 578a 60b9 cf8f ddb8
000000f0: 19ce 6cb8 0917 81b7 af42 8238 3616 7239

layer1.1.weight f4 [64]
0.72669965 0.8045002 0.78750134 0.89812833 0.9440684 0.8929046 1.0370264 0.8987702
0.7829678 0.8133379 1.1434183 0.8916924 0.893995 0.8536762 0.9735445 0.96204543
1.0775741 0.95218885 0.99577713 1.0119948 0.8511894 0.91529346 0.976698 1.0316812
1.0257072 0.8556569 0.8360412 0.90399736 1.3671432 0.9076574 0.8396151 1.0596846
1.1726702 0.91085416 1.0299246 0.88957036 0.8423758 1.0588173 0.80408007 0.8545903
1.0896271 0.9588599 0.7560425 0.9735368 0.89398223 0.81457025 1.302238 1.0999619
1.0404878 1.1564271 0.64978665 0.7664742 1.0071853 0.98571056 1.0001768 0.9116244
0.96951604 0.83083946 0.9905622 0.86496586 0.785962 0.82120556 0.95084924 0.78587353
00000000: fd08 3a3f baf3 4d3f b099 493f bdeb 653f
00000010: 77ae 713f 6595 643f 48bd 843f ce15 663f
00000020: 9470 483f ea36 503f 885b 923f f445 643f
00000030: dbdc 643f 868a 5a3f 363a 793f 9c48 763f
00000040: f3ed 893f a6c2 733f 40eb 7e3f 0c89 813f
00000050: 8ce7 593f ac50 6a3f e108 7a3f 210e 843f
00000060: 604a 833f 550c 5b3f cc06 563f 5f6c 673f
00000070: 8cfe ae3f 3c5c 683f 04f1 563f bfa3 873f
00000080: 0f1a 963f bd2d 693f 92d4 833f e2ba 633f
00000090: f1a5 573f 5387 873f 31d8 4d3f 6ec6 5a3f
000000a0: e778 8b3f d877 753f 008c 413f b539 793f
000000b0: 05dc 643f ad87 503f bcaf a63f 8dcb 8c3f
000000c0: b42e 853f ce05 943f 6b58 263f a737 443f
000000d0: 73eb 803f 8757 7c3f cb05 803f 3760 693f
000000e0: 3432 783f e5b1 543f 7c95 7d3f 676e 5d3f
000000f0: ce34 493f 873a 523f db6a 733f 022f 493f

layer1.1.bias f4 [64]
-0.042102955 -0.2970625 -0.07710047 -0.031202998 -0.17706242 -0.22665466 -0.14359064 -0.09881276
-0.27270034 -0.021929601 -0.31917116 -0.17960544 -0.046976447 -0.41267973 -0.40533 -0.13853459
-0.36847556 -0.32619253 -0.24638782 -0.13035987 -0.25507593 -0.21807155 -0.25200963 -0.2882204
-0.5075996 -0.20739204 -0.35747948 -0.34031114 -0.03821168 -0.37514183 -0.42739138 -0.12299515
-0.32909548 -0.28792286 -0.30572972 -0.35893235 -0.14825143 -0.15424514 -0.19560929 -0.33546808
-0.20906198 -0.16152337 -0.068374686 -0.15820748 -0.13379565 -0.025714925 -0.028710116 -0.2982636
-0.07571061 -0.019148335 -0.0947675 -0.22737125 -0.46210524 -0.28924087 -0.23057376 -0.1628873
-0.14766611 -0.159059 -0.3027124 -0.31632292 -0.0790197 -0.0518603 -0.20258524 -0.04465272
00000000: 2674 2cbd 9318 98be dae6 9dbd 6e9d ffbc
00000010: da4f 35be 2918 68be 6d09 13be 585e cabd
00000020: 619f 8bbe b5a5 b3bc 676a a3be 7dea 37be
00000030: 606a 40bd c24a d3be 6a87 cfbe 03dc 0dbe
00000040: d4a8 bcbe b502 a7be 174d 7cbe 0f7d 05be
00000050: 5099 82be 264e 5fbe 6807 81be a091 93be
00000060: 0cf2 01bf 945e 54be 8d07 b7be 433d aebe
00000070: da83 1cbd 9712 c0be 0bd3 dabe e2e4 fbbd
00000080: 347f a8be a06a 93be 9b88 9cbe fbc5 b7be
00000090: 39cf 17be 70f2 1dbe cd4d 48be 79c2 abbe
000000a0: 5814 56be 6266 25be 0708 8cbd 2401 22be
000000b0: ba01 09be 1ba8 d2bc 7a31 ebbc 02b6 98be
000000c0: 2a0e 9bbd f8dc 9cbc 7715 c2bd 02d4 68be
000000d0: 0f99 ecbe 6117 94be 871b 6cbe eecb 26be
000000e0: c935 17be 5de0 22be 1ffd 9abe 14f5 a1be
000000f0: 15d5 a1bd 776b 54bd 8172 4fbe c5e5 36bd

layer1.1.running_mean f4 [64]
2.8485929e-05 -3.730315e-07 -0.00032339292 2.5326024e-05 0.00010263274 4.918909e-05 -0.00012299056 1.931135e-05
5.6720222e-05 -0.00013126586 0.00018045946 2.6544654e-05 2.080072e-05 -1.1479571e-05 -0.00026876808 0.00031961332
-5.4371456e-05 7.708819e-05 0.00021884154 0.00010703173 0.00012667812 0.00010830047 -2.1387197e-05 -0.00017055089
0.00018021297 -5.648238e-05 -3.89923e-06 -9.5110176e-05 -0.0001343301 -8.288786e-05 0.00011303842 0.000910053
-3.711889e-05 2.4278372e-05 3.5237368e-05 -8.336557e-05 4.0243423e-05 0.00049691065 -7.22064e-05 9.256022e-06
0.0002208046 0.00017985275 9.162248e-05 -4.45592e-05 6.183526e-05 0.00015819057 -0.00010828757 3.364855e-05
-5.1358533e-05 4.5782424e-05 -2.133808e-05 8.0484824e-05 -0.00036867484 0.0013876787 6.4180116e-05 0.00011681805
3.4365425e-05 -9.873242e-06 -0.00022864503 -6.3973675e-05 -7.827987e-05 0.00012961288 0.00023757905 8.5139276e-05
00000000: 11f5 ee37 0f45 c8b4 108d a9b9 3973 d437
00000010: 883c d738 6250 4e38 07f7 00b9 cffe a137
00000020: e0e6 6d38 69a4 09b9 b839 3d39 36ac de37
00000030: 357d ae37 6298 40b7 71e9 8cb9 c691 a739
00000040: e80c 64b8 68aa a138 d478 6539 3976 e038
00000050: e6d4 0439 5f1f e338 a868 b3b7 e8d5 32b9
00000060: 8df7 3c39 7ee7 6cb8 21d6 82b6 e375 c7b8
00000070: f6da 0cb9 15d4 adb8 0a0f ed38 9f90 6e3a
00000080: 1bb0 1bb8 68a9 cb37 d6cb 1338 8dd4 aeb8
00000090: 0ccb 2838 1c43 023a 846d 97b8 504a 1b37
000000a0: c987 6739 db96 3c39 7225 c038 14e5 3ab8
000000b0: 8dad 8138 f5df 2539 7218 e3b8 db21 0d38
000000c0: ce69 57b8 8106 4038 2eff b2b7 f6c9 a838
000000d0: b34a c1b9 c5e2 b53a 7098 8638 37fc f438
000000e0: 9823 1038 40a5 25b7 6fc0 6fb9 9b29 86b8
000000f0: 2f2a a4b8 b1e8 0739 a41e 7939 cd8c b238

layer1.1.running_var f4 [64]
0.83813626 0.97977036 0.1621148 0.12639768 0.31524116 0.29634562 0.24369399 0.12913086
0.4805556 0.6684557 0.106207296 0.5501044 0.83931804 0.29816112 0.15758483 0.17386289
0.48773447 0.16413823 0.2926207 0.1140105 0.16736665 0.25405318 0.24514881 0.32873002
0.40737376 0.2242658 0.46464673 0.21019842 0.46989048 0.10581002 0.18448871 0.069247335
0.07259178 0.43124673 0.1385746 0.32308218 0.08639054 0.18504643 0.3547551 0.32779858
0.31841308 0.29218552 0.3299466 0.3650258 0.42971334 0.35563722 0.60282534 0.23900646
0.21007754 0.49314892 1.1887944 0.28037053 0.21823274 0.011653647 0.24260215 0.26052794
0.31034935 0.46708566 0.37750804 0.3419831 1.1379845 0.38806117 0.21495713 0.42693102
00000000: 1990 563f 3bd2 7a3f 6c01 263e 656e 013e
00000010: 4a67 a13e 9dba 973e eb8a 793e e13a 043e
00000020: 620b f63e ea1f 2b3f 3683 d93d a4d3 0c3f
00000030: 8cdd 563f 93a8 983e eb5d 213e 1d09 323e
00000040: 55b8 f93e da13 283e 61d2 953e 567e e93d
00000050: 2a62 2b3e 4213 823e 4a08 7b3e 4d4f a83e
00000060: 4b93 d03e efa5 653e 2de6 ed3e 413e 573e
00000070: 7c95 f03e ecb2 d83d 9cea 3c3e 8cd1 8d3d
00000080: 00ab 943d 5fcc dc3e 80e6 0d3e 076b a53e
00000090: 86ed b03d d07c 3d3e 76a2 b53e 37d5 a73e
000000a0: 0a07 a33e 5799 953e c3ee a83e a9e4 ba3e
000000b0: 6303 dc3e 1516 b63e c352 1a3f 1cbe 743e
000000c0: 911e 573e 047e fc3e 6a2a 983f ba8c 8f3e
000000d0: 6778 5f3e f0ee 3e3c b36c 783e eb63 853e
000000e0: 1ce6 9e3e da25 ef3e bc48 c13e 6918 af3e
000000f0: 7aa9 913f f4af c63e b91d 5c3e b496 da3e

layer2.0.weight f4 [128, 64, 5]
-0.06984541 0.10294221 0.019330595 0.017117761 0.0023659917 0.042114567 0.039749146 -0.09674842
0.071818985 -0.050905377 0.072892316 0.04529396 0.017426087 0.019974492 -0.049078375 -0.09513119
0.053487733 -0.0011409785 0.048575886 -0.08538262 0.04122988 0.015503593 -0.0047770063 0.003411332
-0.089588694 -0.20202057 -0.010877488 0.003953273 -0.005788217 -0.047833804 0.113327034 0.07637438
-0.11825986 -0.048122738 0.012242146 -0.06927301 0.063396856 0.09625457 -0.015977724 -0.06305053
0.02649835 -0.024760049 0.008287557 -0.13263723 0.023192445 0.009837262 0.054003783 0.1397839
-0.013798852 0.11694699 -0.052430443 0.15520543 0.119608134 0.049346853 -0.08370135 0.021225795
-0.039921816 -0.033337925 -0.09181201 0.106963456 0.048758965 0.07536226 0.08239249 0.007440939
0.07867019 -0.02461601 0.016162239 -0.16159968 -0.039425485 -0.012958912 0.013455812 0.04674815
0.085208826 -0.06386787 -0.07564263 0.0770182 -0.075806394 -0.003005153 -0.1786329 -0.07801573
0.20040669 -0.07962925 0.08473927 -0.052378453 0.1704349 -0.03568569 0.0049748155 0.0031067433
0.0871757 0.08685566 -0.04644366 -0.1741362 0.045591243 0.0060952925 -0.02027943 0.02561912
-0.039822947 -0.08122425 -0.0057114256 0.12622598 -0.21397403 0.06560162 0.06225527 0.13832055
-0.16322748 0.08901536 -0.09969267 -0.04806496 -0.030377945 0.06854643 -0.07505981 0.09173878
-0.18538812 0.013661698 -0.06535891 -0.116856754 -0.17869046 0.03239522 -0.15201716 0.0092424825
-0.020766279 -0.19682772 -0.06909541 -0.17393154 -0.062243957 -0.17771555 -0.0055600586 0.010683592
-0.009333022 -0.04201425 0.0424097 0.014546515 0.031619415 -0.10905303 0.045605976 -0.14433189
0.05149052 -0.0067819273 0.071652025 -0.24682085 0.06920611 0.058739413 0.049855858 0.07896046
0.035011087 -0.06727621 0.08213291 -0.06562546 -0.00752983 -0.095800936 -0.07519617 -0.021149008
-0.06741466 -0.017191775 -0.046371795 0.05106708 0.13190603 0.059233915 0.034574877 -0.044850968
0.10524072 0.037447825 0.03880728 0.067882344 0.15214445 -0.031803552 0.10592201 -0.053643223
0.12792926 -0.04923872 0.18373545 -0.07664077 0.10030648 -0.15718071 0.05063789 -0.23643032
0.06864785 -0.098051295 -0.06350836 -0.19021973 -0.05290751 -0.08029392 -0.009072544 -0.043027397
0.019077845 -0.01847635 0.12069242 0.039856423 0.016707633 -0.13056484 -0.15434752 0.01330012
-0.07524394 -0.0168349 -0.34467685 0.029740429 0.023406917 0.11525861 0.093177974 0.12698784
0.013140313 0.1259675 0.076521605 0.13954176 -0.025066165 0.017194647 0.042208303 0.17636974
-0.0023120877 0.089506194 -0.111625865 -0.03045746 -0.091695845 -0.042047206 -0.09708963 -0.17070054
0.034942355 0.009104058 0.060851008 -0.041994337 0.028348831 -0.060752757 -0.05254629 -0.0829551
0.038255095 -0.0758073 0.16958132 -0.08573655 0.06988936 -0.14619339 0.07213207 0.03454383
0.048872806 0.021679984 0.018413486 0.16357465 0.07220891 -0.03486557 0.09440254 0.17735465
0.13709322 0.0106526 -0.15363097 0.031324293 0.10824185 0.0331667 0.013519171 -0.07160959
0.035055038 -0.15492496 0.10350451 -0.05032214 0.04760251 -0.14471711 0.050576657 -0.08173685
00000000: 1c0b 8fbd 5ed3 d23d 325b 9e3c 8c3a 8c3c
00000010: c10e 1b3b 5380 2c3d 00d0 223d 0924 c6bd
00000020: d515 933d 2882 50bd 9148 953d 2986 393d
00000030: 27c1 8e3c 8ca1 a33c 6806 49bd 24d4 c2bd
00000040: f415 5b3d e38c 95ba 82f7 463d 15dd aebd
00000050: aae0 283d c802 7e3c 6f88 9cbb a790 5f3b
00000060: 477a b7bd 7bde 4ebe 7e37 32bc 758a 813b
00000070: 15ab bdbb 61ed 43bd 0118 e83d 2c6a 9c3d
00000080: 3a32 f2bd 591c 45bd 4893 483c 02df 8dbd
00000090: 36d6 813d 1e21 c53d b7e3 82bc a320 81bd
000000a0: 1113 d93c 96d5 cabc 89c8 073c 0ed2 07be
000000b0: 15fe bd3c 782c 213c 1233 5d3d 8323 0f3e
000000c0: 9514 62bc e781 ef3d 4ec1 56bd 2cee 1e3e
000000d0: 1cf5 f43d ed1f 4a3d 9d6b abbd b8e1 ad3c
000000e0: 0f85 23bd 598d 08bd ef07 bcbd a80f db3d
000000f0: 7bb7 473d 8757 9a3d 65bd a83d 1fd3 f33b
00000100: d61d a13d 84a7 c9bc ac66 843c 637a 25be
00000110: 9e7c 21bd 9e51 54bc c475 5c3c fd7a 3f3d
00000120: f781 ae3d 28cd 82bd 86ea 9abd b8bb 9d3d
00000130: 6240 9bbd 1af2 44bb 8beb 36be b6c6 9fbd
00000140: 6937 4d3e a914 a3bd c88b ad3d ca8a 56bd
00000150: 7d86 2e3e 282b 12bd c703 a33b 819a 4b3b
00000160: 2c89 b23d 61e1 b13d b53b 3ebd c350 32be
00000170: e2bd 3a3d 05bb c73b 0c21 a6bc 30df d13c
00000180: 631d 23bd e658 a6bd e926 bbbb 6241 013e
00000190: 021c 5bbe 245a 863d 62ff 7e3d e7a3 0d3e
000001a0: 1b25 27be af4d b63d ac2b ccbd c3df 44bd
000001b0: 2bdb f8bc 1262 8c3d f5b8 99bd 8be1 bb3d
000001c0: 62d6 3dbe 51d5 5f3c e4da 85bd 9852 efbd
000001d0: a2fa 36be dab0 043d 63aa 1bbe c86d 173c
000001e0: 0b1e aabc 358d 49be e581 8dbd 1c1b 32be
000001f0: 85f3 7ebd 11fb 35be 2731 b6bb 3c0a 2f3c
00000200: 88e9 18bc 2217 2cbd cbb5 2d3d 8254 6e3c
00000210: 5c83 013d 3257 dfbd 55cd 3a3d bdcb 13be
00000220: b9e7 523d ee3a debb 4cbe 923d 9bbe 7cbe
00000230: efbb 8d3d bd98 703d a835 4c3d 06b6 a13d
00000240: c967 0f3d 1cc8 89bd 4d35 a83d a466 86bd
00000250: cbbc f6bb 4833 c4bd 7300 9abd af40 adbc
00000260: b210 8abd c4d5 8cbc 5af0 3dbd b72b 513d
00000270: 6012 073e 439f 723d 639e 0d3d a6b5 37bd
00000280: 7288 d73d e462 193d 62f4 1e3d e605 8b3d
00000290: c1cb 1b3e 7144 02bd a4ed d83d ffb8 5bbd
000002a0: e3ff 023e 8aae 49bd 2525 3c3e d6f5 9cbd
000002b0: 7c6d cd3d fbf3 20be ad69 4f3d ca1a 72be
000002c0: 3e97 8c3d 1ecf c8bd ac10 82bd f6c8 42be
000002d0: 8cb5 58bd 2471 a4bd 02a5 14bc 7f3d 30bd
000002e0: 2449 9c3c b75b 97bc 962d f73d 7d40 233d
000002f0: 72de 883c cab2 05be 470d 1ebe bfe8 593c
00000300: 7f19 9abd 58e9 89bc 7c79 b0be 33a2 f33c
00000310: ddbf bf3c b50c ec3d 18d4 be3d 1a09 023e
00000320: 784a 573c a0fd 003e 5cb7 9c3d 09e4 0e3e
00000330: 8f57 cdbc cadb 8c3c 9de2 2c3d 459a 343e
00000340: 6586 17bb 064f b73d 1a9c e4bd ec81 f9bc
00000350: 08cb bbbd b139 2cbd eed6 c6bd 1fcc 2ebe
00000360: b71f 0f3d 3029 153c e83e 793d 4102 2cbd
00000370: cf3b e83c e2d7 78bd c73a 57bd 5de4 a9bd
00000380: 60b1 1c3d dc40 9bbd baa6 2d3e a596 afbd
00000390: 2722 8f3d b8b3 15be fbb9 933d d57d 0d3d
000003a0: da2e 483d 399a b13c e1d7 963c 1d80 273e
000003b0: 44e2 933d 33cf 0ebd 1e56 c13d 759c 353e
000003c0: 2a62 0c3e 3e88 2e3c 7051 1dbe e74d 003d
000003d0: e7ad dd3d ced9 073d 837f 5d3c 0ca8 92bd
000003e0: df95 0f3d a6a4 1ebe 2cfa d33d 971e 4ebd
000003f0: d9fa 423d b930 14be 7829 4f3d a665 a7bd

layer2.0.bias f4 [128]
-4.1854387e-06 1.0005009e-05 4.5913093e-05 -3.5515015e-05 7.6273905e-06 7.23158e-05 8.077364e-06 3.7176902e-05
4.6484347e-05 1.2451289e-06 -4.9456285e-05 -2.1462998e-05 1.0044892e-05 -3.5682692e-06 -3.2982061e-06 1.9363411e-05
-1.9865825e-05 1.4513968e-05 2.7460172e-05 -1.3480637e-05 1.2002678e-05 -7.26178e-06 -7.9757185e-05 -4.595918e-06
-5.8465357e-05 -9.384323e-06 4.2184906e-06 -4.1692907e-05 -3.0941024e-05 1.1342643e-05 -3.7772887e-05 -4.0528044e-05
3.8002592e-05 -5.254375e-05 6.5038544e-06 -2.0937377e-05 2.0318628e-05 3.9918603e-05 -3.9519513e-05 -8.525384e-06
-3.718715e-06 -4.0760253e-05 1.6569068e-06 -3.0352443e-05 -3.8210033e-05 5.3139785e-05 3.293469e-05 -3.3803997e-05
-5.2594246e-06 -6.425381e-05 -8.944474e-07 -5.027464e-05 -2.3504182e-07 1.1834239e-05 -1.6738535e-05 1.6419814e-05
-2.5482532e-06 -1.0161533e-06 -7.1982406e-08 1.1202097e-06 6.943062e-05 -0.0001017094 -9.990434e-06 -6.313807e-06
-3.25947e-05 -7.448558e-05 -7.5486616e-07 -2.6261735e-06 -3.8705402e-05 1.9983914e-05 -3.1648022e-05 -3.9818966e-05
-3.8509745e-05 1.2930939e-05 9.0383866e-05 4.5187986e-05 2.0696147e-05 -3.202823e-05 -1.5462565e-05 2.1084645e-05
2.130985e-05 -6.5221284e-05 6.5583936e-06 3.173827e-05 1.449162e-05 -8.8173255e-07 -4.747171e-07 3.7589384e-06
-3.489138e-06 1.8837898e-05 1.7935348e-05 7.515967e-05 9.038279e-06 6.29647e-06 -4.5445475e-05 -1.5222674e-05
-2.140625e-05 7.318599e-05 1.5063122e-06 -1.2132642e-05 2.529119e-05 1.2284335e-05 1.0653177e-06 -1.8871277e-05
7.794968e-06 -6.7714005e-05 3.6280883e-06 2.2471795e-05 -1.4048798e-05 -8.4546926e-08 1.3609406e-05 2.6031146e-05
6.2353492e-06 1.3353128e-05 2.2929004e-05 0.00011090229 7.1981536e-05 5.6810923e-06 1.1546335e-05 -2.2490465e-05
-8.5680214e-05 7.3102565e-06 -1.0149301e-06 2.6565462e-05 -7.835363e-05 -4.6710247e-06 1.0377211e-05 -1.0517683e-05
00000000: a570 8cb6 30db 2737 cf92 4038 f5f5 14b8
00000010: c9ee ff36 40a8 9738 0484 0737 65ee 1b38
00000020: 30f8 4238 4e1e a735 486f 4fb8 700b b4b7
00000030: 7c86 2837 6676 6fb6 c056 5db6 9c6e a237
00000040: 89a5 a6b7 0581 7337 455a e637 e52a 62b7
00000050: 1c5f 4937 37aa f3b6 5043 a7b8 a336 9ab6
00000060: b338 75b8 5c71 1db7 8f8c 8d36 6bdf 2eb8
00000070: acc6 01b8 484c 3e37 546e 1eb8 a8fc 29b8
00000080: f964 1f38 6c62 5cb8 af3b da36 ada2 afb7
00000090: ec71 aa37 466e 2738 c1c1 25b8 3f08 0fb7
000000a0: 0a8f 79b6 fdf5 2ab8 e262 de35 609d feb7
000000b0: b643 20b8 69e2 5e38 5b23 0a38 c4c8 0db8
000000c0: 1d7a b0b6 00c0 86b8 f519 70b5 fcdd 52b8
000000d0: ce5f 7cb4 ab8b 4637 bb69 8cb7 48bd 8937
000000e0: a802 2bb6 c362 88b5 bf94 9ab3 1d5a 9635
000000f0: 489b 9138 d14c d5b8 969c 27b7 30db d3b6
00000100: 4bb6 08b8 2435 9cb8 02a2 4ab5 513d 30b6
00000110: 9c57 22b8 21a3 a737 cebd 04b8 4a03 27b8
00000120: 8685 21b8 f6f1 5837 788c bd38 3b88 3d38
00000130: a39c ad37 0d56 06b8 9bb5 81b7 eede b037
00000140: 8ec2 b237 69c7 88b8 2c10 dc36 b51e 0538
00000150: 0921 7337 33b0 6cb5 9fdc feb4 1242 7c36
00000160: ef26 6ab6 1406 9e37 de73 9637 0a9f 9d38
00000170: 1da3 1737 4446 d336 b59c 3eb8 e364 7fb7
00000180: 9291 b3b7 6e7b 9938 7e2c ca35 4d8d 4bb7
00000190: 6b28 d437 d118 4e37 0afc 8e35 c24d 9eb7
000001a0: 22c7 0237 ae01 8eb8 157a 7336 d081 bc37
000001b0: 21b3 6bb7 2a90 b5b3 f453 6437 765d da37
000001c0: 3e39 d136 4007 6037 a957 c037 3794 e838
000001d0: cbf4 9638 36a0 be36 22b7 4137 e8a9 bcb7
000001e0: 37af b3b8 a04a f536 bc38 88b5 e5d8 de37
000001f0: c951 a4b8 ccbb 9cb6 c819 2e37 1b75 30b7

layer2.1.weight f4 [128]
0.86305463 0.63120025 0.8506623 0.97975546 0.69209915 0.9823338 0.72903633 0.84264976
0.95940006 0.7373439 0.8383809 0.8793059 0.7440603 0.8431895 0.9921201 1.0711699
0.8403631 0.8032718 0.9753735 0.8691444 0.9644873 0.7963771 0.9547138 0.7664367
0.89741474 0.93513316 0.75670826 0.88220084 0.8066585 0.8884504 0.861376 0.7361483
0.88589305 0.86756426 0.77920204 0.7909198 0.9007812 1.0000471 0.83497876 0.8030184
0.6294949 0.9555833 0.5351701 0.9294885 1.0065607 0.9862737 0.7819612 0.9289019
0.93291426 0.8602775 0.9061051 0.9200556 0.9021513 0.80633503 0.85853523 1.0461185
0.97919995 0.65679806 0.7571505 0.888045 0.9178786 0.8465501 0.79834175 0.7983857
0.8704528 0.963533 0.8269622 0.9209731 0.92666423 0.92612594 0.9095449 0.9376267
0.85250765 0.7886569 1.0061326 0.97796845 0.90348136 0.88217634 0.7900542 0.9685141
0.93862605 0.90776473 0.89748853 0.9387251 0.8251271 0.80534965 0.7327037 0.8059514
0.98348814 0.98563343 0.7330748 0.883825 0.8586895 0.8885638 0.89753824 0.8660668
0.9428648 1.1376343 0.76477134 0.75995815 0.8701597 0.92326224 0.87338865 0.78870225
0.7998528 1.0492005 0.65776706 1.0038133 0.9072792 1.0080682 0.960287 0.76640856
0.78373224 0.7359464 0.86666846 0.94564426 0.9897537 0.7013041 0.895209 0.8313723
0.8678849 1.0031053 0.83460146 0.91677356 0.94604725 0.8928734 0.9625424 0.8347846
00000000: 26f1 5c3f 5796 213f 01c5 593f 41d1 7a3f
00000010: 692d 313f 3a7a 7b3f 20a2 3a3f e5b7 573f
00000020: 3e9b 753f 92c2 3c3f 21a0 563f 311a 613f
00000030: bc7a 3e3f 44db 573f 95fb 7d3f 181c 893f
00000040: 0922 573f 38a3 4d3f 14b2 793f 3f80 5e3f
00000050: a4e8 763f 5fdf 4b3f 2068 743f 3235 443f
00000060: f9bc 653f e364 6f3f a2b7 413f ead7 613f
00000070: 2c81 4e3f 7c71 633f 2383 5c3f 3774 3c3f
00000080: e3c9 623f b118 5e3f c979 473f b879 4a3f
00000090: 9999 663f 8b01 803f 2bc1 553f 9d92 4d3f
000000a0: 9426 213f 1ba1 743f e800 093f f5f2 6d3f
000000b0: fbd6 803f 6f7c 7c3f 9c2e 483f 84cc 6d3f
000000c0: 78d3 6e3f 253b 5c3f 81f6 673f c488 6b3f
000000d0: 63f3 663f f96b 4e3f f7c8 5b3f 36e7 853f
000000e0: d9ac 7a3f eb23 283f 9dd4 413f eb56 633f
000000f0: 18fa 6a3f 82b7 583f 2060 4c3f 0163 4c3f
00000100: ffd5 5e3f 19aa 763f cbb3 533f e5c4 6b3f
00000110: de39 6d3f 9716 6d3f efd7 683f 4e08 703f
00000120: f13d 5a3f 6be5 493f f4c8 803f 245c 7a3f
00000130: 8e4a 673f 4fd6 613f fe40 4a3f 8af0 773f
00000140: cc49 703f 4563 683f cfc1 653f 4a50 703f
00000150: 883b 533f 652b 4e3f 7892 3b3f d552 4e3f
00000160: e1c5 7b3f 7952 7c3f caaa 3b3f 5b42 623f
00000170: 13d3 5b3f eb78 633f 11c5 653f 8eb6 5d3f
00000180: 965f 713f 009e 913f 0ec8 433f 9e8c 423f
00000190: c9c2 5e3f ea5a 6c3f 6696 5f3f 64e8 493f
000001a0: 27c3 4c3f 344c 863f 6c63 283f f47c 803f
000001b0: 7343 683f 6108 813f 5ed5 753f 5a33 443f
000001c0: ada2 483f fc66 3c3f fcdd 5d3f be15 723f
000001d0: 8060 7d3f aa88 333f 6b2c 653f d1d4 543f
000001e0: b42d 5e3f c165 803f 71a8 553f acb1 6a3f
000001f0: 2730 723f 5a93 643f 2e69 763f 72b4 553f

layer2.1.bias f4 [128]
-0.16516788 -0.36486566 -0.21945557 -0.17633027 -0.2954095 -0.16843648 -0.2715335 -0.21602428
-0.26063606 -0.32106328 -0.19784917 -0.19317295 -0.23039012 -0.21806271 -0.14873119 -0.07624262
-0.23201457 -0.23820247 -0.24675561 -0.1729153 -0.20126686 -0.2367282 -0.15860966 -0.3089725
-0.18106742 -0.26492766 -0.32205784 -0.15412341 -0.19343095 -0.23209742 -0.15660161 -0.25062612
-0.19537102 -0.21673092 -0.33330843 -0.26864114 -0.26378146 -0.105074905 -0.20697427 -0.26810676
-0.3146068 -0.14953227 -0.42435372 -0.1695596 -0.17440616 -0.20473407 -0.23859192 -0.18837535
-0.16714469 -0.20669161 -0.11135371 -0.21885404 -0.112311445 -0.2346145 -0.24191464 -0.21620068
-0.17155564 -0.3412002 -0.27009222 -0.20600188 -0.13249327 -0.18540017 -0.22627044 -0.26294184
-0.13378613 -0.18255548 -0.24671952 -0.10204653 -0.15884998 -0.17550148 -0.19906951 -0.17233776
-0.22025096 -0.2531622 -0.06416598 -0.123243146 -0.2808333 -0.16161792 -0.22009563 -0.17047028
-0.099890284 -0.17495842 -0.1957487 -0.16441785 -0.31248578 -0.18759012 -0.26756194 -0.2199839
-0.24469338 -0.16307773 -0.24235721 -0.17209731 -0.26948705 -0.19401069 -0.17973939 -0.21812801
-0.18968377 -0.04504991 -0.2636979 -0.27767733 -0.19640519 -0.088974915 -0.24377248 -0.23046191
-0.22557096 -0.14282368 -0.35621348 -0.11425983 -0.24981874 -0.17835927 -0.17672074 -0.28699592
-0.23099305 -0.27078202 -0.23426558 -0.15369785 -0.09686156 -0.28813946 -0.2028883 -0.16087712
-0.15685213 -0.16931227 -0.16068181 -0.24892274 -0.13004325 -0.21223316 -0.15157177 -0.16338015
00000000: c521 29be accf babe f6b8 60be ec8f 34be
00000010: ea3f 97be 9d7a 2cbe 7006 8bbe 7835 5dbe
00000020: 1772 85be 6862 a4be f998 4abe 21cf 45be
00000030: 63eb 6bbe d54b 5fbe fd4c 18be 1725 9cbd
00000040: 3a95 6dbe 59eb 73be 81ad 7cbe b510 31be
00000050: e618 4ebe e168 72be 926a 22be a531 9ebe
00000060: bd69 39be 99a4 87be c4e4 a4be 87d2 1dbe
00000070: c312 46be f2aa 6dbe 2c5c 20be 1152 80be
00000080: 570f 48be b6ee 5dbe 67a7 aabe 558b 89be
00000090: 5d0e 87be 8331 d7bd 10f1 53be 4a45 89be
000000a0: 2414 a1be fd1e 19be e444 d9be 08a1 2dbe
000000b0: 8797 32be cfa5 51be 7151 74be 78e5 40be
000000c0: fa27 2bbe f7a6 53be 6a0d e4bd 461b 60be
000000d0: 8b03 e6bd c93e 70be 79b8 77be b663 5dbe
000000e0: 48ac 2fbe cbb1 aebe 8749 8abe 28f2 52be
000000f0: 51ac 07be 8bd9 3dbe 70b3 67be 50a0 86be
00000100: 3bff 08be d3ef 3abe 0ba4 7cbe c5fd d0bd
00000110: 92a9 22be a9b6 33be e1d8 4bbe 4f79 30be
00000120: 7889 61be 7a9e 81be 7469 83bd e766 fcbd
00000130: 62c9 8fbe 2b7f 25be c060 61be c38f 2ebe
00000140: 4793 ccbd 4d28 33be 5972 48be 275d 28be
00000150: 23fe 9fbe a017 40be e1fd 88be 7643 61be
00000160: e790 7abe d9fd 26be 7d2c 78be 473a 30be
00000170: 35fa 89be bdaa 46be 9a0d 38be f35c 5fbe
00000180: 763c 42be 4186 38bd 6903 87be b92b 8ebe
00000190: 711e 49be 7b38 b6bd 7e9f 79be 35fe 6bbe
000001a0: 13fc 66be 5f40 12be 9d61 b6be 0f01 eabd
000001b0: 7cd0 7fbe d0a3 36be 48f6 34be 21f1 92be
000001c0: 7189 6cbe f1a3 8abe 51e3 6fbe f862 1dbe
000001d0: 5b5f c6bd 0487 93be f3c1 4fbe f9bc 24be
000001e0: d89d 20be 3260 2dbe c689 24be 9ae5 7ebe
000001f0: 0f2a 05be a653 59be a135 1bbe 204d 27be

layer2.1.running_mean f4 [128]
-0.46650702 -2.6261756 -2.9764016 0.14034241 -1.0402225 1.2987788 -1.9467281 -1.8686277
-2.1173146 -0.8147036 -4.297075 3.1754148 -1.7642078 -0.335992 -0.20166373 0.89846224
1.9000316 -2.6190698 0.51098543 -4.5172462 1.0753937 -1.7785861 -0.18264692 -3.042985
0.27571717 -0.05590705 1.1662912 -5.330881 -0.77152115 1.1055413 -1.4036822 -2.2208147
-1.8992859 -0.1526401 -3.8810172 -3.8403823 -0.75145763 -1.9055495 -1.8249315 -2.954599
-1.5703213 -0.2987727 -3.3842204 -0.41653353 -0.10322913 -3.145369 -3.6450815 -0.12056776
-0.68445736 -0.4362319 1.6571894 -0.1854087 4.2442985 -2.2227771 -3.2647376 0.7914706
0.3042847 -3.01467 -1.2927564 0.19886802 -1.8710563 -3.0021787 1.6300371 -0.8774028
-3.8335862 0.17926365 -1.0938269 7.582714 -0.051107146 1.6833222 -0.8311282 -0.422223
-0.898548 -2.416338 -1.9271808 -1.310899 0.33826423 -1.4587162 -3.3042386 -1.1641686
7.6357994 -1.5861987 -2.626727 -0.48800585 -1.6767577 -1.9420357 -2.6022747 -2.0718691
0.9322613 0.1539117 -1.2986758 -2.1269343 -3.3894694 -0.3560692 0.10938123 2.1028209
-0.10161799 2.0972657 -1.554721 -0.81687665 -0.58447075 7.1313376 -3.4987075 -3.0660615
-1.0442915 0.22348881 -1.9122359 1.6629032 -0.54439735 0.5042937 1.9887613 -2.8268046
0.67833745 -1.2191699 -2.6421294 -3.4984508 -2.183623 -1.1210191 -0.6453585 -4.2427063
-4.232129 -0.11967245 0.35391378 -2.591844 0.19472173 -0.56481034 1.2220027 -0.17877127
00000000: 02da eebe 4313 28c0 5d7d 3ec0 ecb5 0f3e
00000010: 0326 85bf 623e a63f 632e f9bf 312f efbf
00000020: 1582 07c0 6a90 50bf a381 89c0 ff39 4b40
00000030: 90d1 e1bf 2507 acbe f080 4ebe 9f01 663f
00000040: 3c34 f33f d79e 27c0 f1cf 023f 488d 90c0
00000050: 80a6 893f b6a8 e3bf cb07 3bbe 44c0 42c0
00000060: cd2a 8d3e cafe 64bd 0849 953f 9496 aac0
00000070: 6982 45bf 6182 8d3f dcab b3bf d421 0ec0
00000080: cd1b f3bf b04d 1cbe 9662 78c0 d3c8 75c0
00000090: 875f 40bf 0ce9 f3bf 5b97 e9bf 2618 3dc0
000000a0: 4a00 c9bf bcf8 98be 1197 58c0 e243 d5be
000000b0: cb69 d3bd ba4d 49c0 0449 69c0 3bec f6bd
000000c0: 9938 2fbf ca59 dfbe c81e d43f c7db 3dbe
000000d0: 4bd1 8740 fb41 0ec0 76f1 50c0 d19d 4a3f
000000e0: 34cb 9b3e 5af0 40c0 0b79 a5bf 0fa4 4b3e
000000f0: c67e efbf b223 40c0 0ea5 d03f 789d 60bf
00000100: 7a59 75c0 e490 373e 8502 8cbf 98a5 f240
00000110: ba55 51bd 1a77 d73f d1c4 54bf 9d2d d8be
00000120: 3e07 66bf 48a5 1ac0 dcad f6bf 8acb a7bf
00000130: f830 ad3e 36b7 babf a578 53c0 7a03 95bf
00000140: 7858 f440 8f08 cbbf 4c1c 28c0 e7db f9be
00000150: ff9f d6bf a094 f8bf ab8b 26c0 8199 04c0
00000160: ada8 6e3f 079b 1d3e 023b a6bf b11f 08c0
00000170: 11ed 58c0 b44e b6be 4403 e03d 9e94 0640
00000180: 181d d0bd 9a39 0640 1901 c7bf d41e 51bf
00000190: e09f 15bf eb33 e440 d3ea 5fc0 5a3a 44c0
000001a0: 58ab 85bf 40da 643e 25c4 f4bf 03da d43f
000001b0: a05d 0bbf 6419 013f bb8f fe3f 5eea 34c0
000001c0: 86a7 2d3f c20d 9cbf a618 29c0 9ee6 5fc0
000001d0: 7bc0 0bc0 8e7d 8fbf 3736 25bf 40c4 87c0
000001e0: 9a6d 87c0 d416 f5bd 3034 b53e c6e0 25c0
000001f0: 2265 473e 6997 10bf 966a 9c3f d10f 37be

layer2.1.running_var f4 [128]
11.242967 11.603508 17.540712 10.039483 14.480061 12.168712 13.661609 14.893935
18.697731 15.396365 17.938427 13.872471 9.072106 10.287071 9.346827 12.686114
11.949664 14.353487 25.324419 23.796534 11.175086 16.842548 8.368023 17.369066
8.338338 21.527283 6.907936 31.662292 8.607224 18.747248 12.074032 10.232067
15.796252 7.1636066 24.827204 21.205555 17.516495 18.251158 9.561426 16.717735
14.4438715 9.524316 12.262012 8.0893 9.438763 23.100822 20.359838 7.4452586
8.057768 7.5979266 9.460052 9.531085 18.519314 14.7848015 20.33239 25.662287
8.405823 14.982005 14.0344305 5.8457174 19.189417 12.473863 10.32651 10.850022
29.391506 9.837079 8.1948 41.739704 12.309873 14.719188 12.234869 6.997731
18.004786 21.65439 15.314396 8.820355 21.192724 11.656401 18.594385 13.037998
40.570072 11.662408 19.363094 8.498313 19.099115 16.071938 17.711954 16.647224
24.704002 6.6997733 10.126562 20.863571 18.700344 10.672005 10.296429 9.717401
8.971787 15.877885 12.433315 13.867207 16.051302 36.73193 21.751862 16.140669
14.180285 9.036217 17.005138 11.816583 11.021835 20.825495 12.075257 15.818708
7.643135 11.651765 24.266926 35.72809 26.163734 9.194682 9.250144 26.521439
27.29678 9.574134 11.792543 15.678766 8.114839 11.065611 15.92194 13.728078
00000000: 31e3 3341 f8a7 3941 6153 8c41 b9a1 2041
00000010: 54ae 6741 0bb3 4241 f395 5a41 8f4d 6e41
00000020: f494 9541 8357 7641 e681 8f41 a4f5 5d41
00000030: 5927 1141 d897 2441 9a8c 1541 53fa 4a41
00000040: d331 3f41 e2a7 6541 6998 ca41 4d5f be41
00000050: 27cd 3241 8abd 8641 6ce3 0541 d9f3 8a41
00000060: d569 0541 e037 ac41 d00d dd40 604c fd41
00000070: 31b7 0941 5dfa 9541 3c2f 4141 8cb6 2341
00000080: 73bd 7c41 443c e540 1d9e c641 faa4 a941
00000090: c821 8c41 5f02 9241 9afb 1841 ecbd 8541
000000a0: 191a 6741 9963 1841 3331 4441 c66d 0141
000000b0: 2c05 1741 7cce b841 f3e0 a241 8f3f ee40
000000c0: 9eec 0041 3722 f340 5f5c 1741 537f 1841
000000d0: 8e27 9441 8c8e 6c41 bca8 a241 5d4c cd41
000000e0: 407e 0641 4bb6 6f41 078d 6041 1e10 bb40
000000f0: ed83 9941 f194 4741 6339 2541 b199 2d41
00000100: ce21 eb41 ad64 1d41 e71d 0341 75f5 2642
00000110: 3df5 4441 cb81 6b41 06c2 4341 6aed df40
00000120: cd09 9041 313c ad41 c407 7541 2d20 0d41
00000130: b38a a941 9e80 3a41 4dc1 9441 a49b 5041
00000140: c147 2242 3999 3a41 9ee7 9a41 17f9 0741
00000150: fdca 9841 5493 8041 15b2 8d41 842d 8541
00000160: cca1 c541 8b64 d640 6606 2241 98e8 a641
00000170: 4e9a 9541 88c0 2a41 2cbe 2441 797a 1b41
00000180: 718c 0f41 d10b 7e41 dcee 4641 14e0 5d41
00000190: 1169 8041 7fed 1242 d003 ae41 1720 8141
000001a0: 73e2 6241 5894 1041 860a 8841 b910 3d41
000001b0: 7059 3041 9d9a a641 4134 4141 6e19 7d41
000001c0: 9094 f440 a16d 3a41 aa22 c241 90e9 0e42
000001d0: 544f d141 6b1d 1341 9700 1441 e82b d441
000001e0: ce5f da41 a72f 1941 42ae 3c41 3adc 7a41
000001f0: 61d6 0141 be0c 3141 44c0 7e41 35a6 5b41

linear1.weight f4 [4, 16000]
-0.075221404 -0.10299181 -0.07616721 -0.07637743 -0.12076535 -0.07066141 -0.20789579 -0.13719876
-0.119024046 -0.17953576 -0.11776258 -0.17190135 -0.08498904 -0.12756616 -0.14925265 -0.098552525
-0.16657977 -0.05024733 -0.08233589 -0.032076817 -0.0880192 -0.14938575 -0.0068579298 -0.09394152
-0.1183167 -0.113584645 -0.18060565 -0.14761071 -0.005023173 -0.17520486 -0.14115262 -0.108569525
-0.06886448 -0.06217667 -0.08238156 -0.12668072 -0.14932606 -0.10445844 -0.19564976 -0.1400382
-0.17132908 -0.042729545 -0.10026244 -0.09141021 -0.09486279 -0.13102557 -0.0050039864 -0.11934404
-0.10844617 -0.16083577 -0.09723473 -0.04408692 -0.103103705 -0.06073845 -0.16634655 -0.12462925
-0.17829427 -0.039288893 -0.123138554 -0.07708499 -0.12404893 -0.11411794 -0.090058275 -0.104808435
-0.09173888 -0.14488599 -0.049151443 -0.12499186 -0.083696194 -0.16771242 -0.13275915 -0.10119229
-0.11878643 -0.121195294 -0.0933465 -0.13272016 -0.120203294 -0.1880671 -0.14276229 -0.08974517
-0.095958956 -0.13576832 -0.15830779 -0.09269882 -0.14690083 -0.18249345 -0.12493194 -0.10769031
-0.17419845 -0.09378389 -0.13310839 -0.11371208 -0.14649233 -0.13700508 -0.10670523 -0.1557969
-0.112274565 -0.109657384 -0.13710026 -0.053617716 -0.090357736 -0.07044562 -0.14017025 -0.15945132
-0.17243002 -0.18459214 -0.07165886 -0.18195724 -0.10459881 -0.06033847 -0.065442555 -0.120171815
-0.080818646 -0.13409345 -0.05010394 -0.049582403 -0.13269743 -0.09008045 -0.10739456 -0.056567233
-0.10801798 -0.052351188 -0.1324787 -0.11675384 -0.060218383 0.04899284 -0.005544473 -0.004710422
-0.03844828 0.021199064 -0.02783591 -0.005851444 -0.032997116 -0.041087925 -0.039906837 -0.026619533
-0.017000362 0.0028212448 0.059370734 -0.054691285 0.016890414 -0.014133199 0.0028795926 -0.035329726
-0.05449706 -0.050655764 -0.003614967 -0.04088881 -0.04282331 0.020891605 -0.0036496767 -0.0152223185
-0.04522723 -0.056268405 -0.048444744 0.0035093622 -0.022306401 -0.034089234 -0.03270972 0.031249892
-0.038596094 -0.038052373 0.034911674 -0.0208367 -0.06644838 -0.017135132 -0.0059686936 -0.0107388375
-0.03321314 0.0095705055 0.0028266557 -0.01530295 -0.0028042903 -0.065312065 -0.005823103 0.0063572503
0.01875315 -0.033208594 -0.075846486 -0.06361997 -0.006689754 -0.05310999 -0.0633603 -0.077823
-0.031115402 -0.024282245 0.007383136 0.0037313018 -0.0375301 -0.0055256197 -0.019974219 -0.016952086
-0.03170724 -0.02571145 0.0049951603 -0.050152436 -0.016312733 -0.05961327 -0.012489464 -0.020137774
-0.021109935 -0.0856986 -0.06501478 -0.082227394 -0.06727735 -0.047790233 -0.08351115 -0.041009996
-0.015516391 -0.02774245 0.0034124004 -0.043916132 -0.030462872 -0.027790282 -0.04938789 -0.048901156
-0.01919514 -0.022581093 0.035598706 0.03221741 -0.013903318 -0.025723008 -0.028184935 0.041221548
-0.012341029 -0.006680494 -0.057300553 -0.03405036 0.0084677255 0.0024539563 0.021327937 -0.040306877
-0.015860042 -0.015520318 0.034806196 -0.032297727 -0.037854236 -0.012932951 -0.012264343 -0.004889843
-0.052365065 0.0107471775 -0.00092556025 0.0130847385 -0.045754004 -0.028567461 0.04635233 -0.0026096853
0.003922637 -0.024995692 -0.03200165 0.055533223 0.099339195 0.09857803 0.0415921 0.08875166
00000000: ae0d 9abd 5fed d2bd 8efd 9bbd c56b 9cbd
00000010: d353 f7bd eeb6 90bd a2e2 54be d57d 0cbe
00000020: e1c2 f3bd 39d8 37be 822d f1bd e806 30be
00000030: bc0e aebd b4a0 02be b0d5 18be e8d5 c9bd
00000040: e393 2abe 25d0 4dbd b89f a8bd fb62 03bd
00000050: 6943 b4bd 94f8 18be 7cb8 e0bb 6964 c0bd
00000060: 0750 f2bd 119f e8bd b0f0 38be 4327 17be
00000070: 6e99 a4bb e768 33be 508a 10be b359 debd
00000080: d208 8dbd f7ac 7ebd aab7 a8bd 97b8 01be
00000090: eee8 18be 4eee d5bd 6958 48be 2d66 0fbe
000000a0: e470 2fbe 2d05 2fbd 6556 cdbd 4735 bbbd
000000b0: 6c47 c2bd 912b 06be 7bf8 a3bb a66a f4bd
000000c0: 0719 debd 22b2 24be 0123 c7bd 7c94 34bd
000000d0: 0928 d3bd e2c8 78bd c056 2abe 9f3d ffbd
000000e0: c692 36be 64ed 20bd 1130 fcbd bcde 9dbd
000000f0: 5e0d febd abb6 e9bd 7970 b8bd cea5 d6bd
00000100: 98e1 bbbd fe5c 14be 0653 49bd bbfb ffbd
00000110: e968 abbd cebc 2bbe 04f2 07be e73d cfbd
00000120: 4d46 f3bd 3d35 f8bd 732c bfbd cbe7 07be
00000130: 252d f6bd a994 40be 4730 12be 51cc b7bd
00000140: 2186 c4bd da06 0bbe 701b 22be e1d8 bdbd
00000150: 2c6d 16be 90df 3abe 51dc ffbd bd8c dcbd
00000160: 1461 32be c511 c0bd 914d 08be e1e1 e8bd
00000170: 1602 16be 0f4b 0cbe 4688 dabd 3989 1fbe
00000180: 35f0 e5bd 0d94 e0bd 0364 0cbe 409e 5bbd
00000190: 7a0d b9bd cb45 90bd ca88 0fbe 3547 23be
000001a0: 7f91 30be b905 3dbe e1c1 92bd 0053 3abe
000001b0: e737 d6bd 7925 77bd bf06 86bd a41c f6bd
000001c0: 3f84 a5bd cb4f 09be ca39 4dbd eb16 4bbd
000001d0: d6e1 07be 197c b8bd aef1 dbbd 0bb3 67bd
000001e0: 8838 ddbd 336e 56bd 7fa8 07be a31c efbd
000001f0: 8da7 76bd b7ac 483d 69ae b5bb e259 9abb
00000200: f27b 1dbd a9a9 ad3c 2208 e4bc 78bd bfbb
00000210: fc27 07bd d04b 28bd 5a75 23bd 3511 dabc
00000220: 5844 8bbc a2e4 383b ba2e 733d f803 60bd
00000230: c45d 8a3c ef8e 67bc 8cb7 3c3b e7b5 10bd
00000240: 4f38 5fbd 6b7c 4fbd 15e9 6cbb 067b 27bd
00000250: 7f67 2fbd df24 ab3c 6a2f 6fbb 0867 79bc
00000260: 3040 39bd b379 66bd ff6d 46bd 54fd 653b
00000270: eabb b6bc 27a1 0bbd a1fa 05bd c6ff ff3c
00000280: f016 1ebd cedc 1bbd 8bff 0e3d bab1 aabc
00000290: 1716 88bd fa5e 8cbc 0895 c3bb f3f1 2fbc
000002a0: 800a 08bd 9ccd 1c3c 6a3f 393b 39b9 7abc
000002b0: 2fc8 37bb 55c2 85bd bacf bebb 7b50 d03b
000002c0: 35a0 993c bc05 08bd 6755 9bbd 304b 82bd
000002d0: b935 dbbb dc89 59bd 0cc3 81bd aa61 9fbd
000002e0: bae5 febc 8feb c6bc 3cee f13b db88 743b
000002f0: 2ab9 19bd 4210 b5bb f9a0 a3bc 1adf 8abc
00000300: 73df 01bd d2a0 d2bc 71ae a33b a46c 4dbd
00000310: 48a2 85bc 0b2d 74bd 9ca0 4cbc f9f7 a4bc
00000320: beee acbc bf82 afbd 7826 85bd d666 a8bd
00000330: b5c8 89bd b1bf 43bd e507 abbd 19fa 27bd
00000340: 7638 7ebc 2244 e3bc 94a2 5f3b 67e1 33bd
00000350: 468d f9bc 72a8 e3bc f54a 4abd 944c 48bd
00000360: 203f 9dbc fcfb b8bc f3cf 113d 67f6 033d
00000370: beca 63bc 0fb9 d2bc 18e4 e6bc edd7 283d
00000380: 0732 4abc 0ce8 dabb fcb3 6abd 6478 0bbd
00000390: 37bc 0a3c 8ed2 203b edb7 ae3c d318 25bd
000003a0: ebec 81bc ef48 7ebc f190 0e3d 9f4a 04bd
000003b0: 0b0d 1bbd bae4 53bc 62f0 48bc fa3a a0bb
000003c0: c07c 56bd ee14 303c 4ca1 72ba 5f61 563c
000003d0: 8d68 3bbd 4f06 eabc f1db 3d3d 4107 2bbb
000003e0: 7789 803b c4c3 ccbc 2a14 03bd ce76 633d
000003f0: 5972 cb3d 47e3 c93d 7a5c 2a3d 6ec3 b53d

linear1.bias f4 [4]
-0.071098976 0.036777962 0.00072717457 -0.025049506
00000000: 579c 91bd 7da4 163d dc9f 3e3a 9f34 cdbc
