bearings/outdated/CWRU/Model/model_12k.pth (torch, 431694 bytes, 14 tensors)

layer1.0.weight f4 [64, 1, 9]
00000000: b5ad 933e 43d1 ad3d 6fe6 89be 01bf 80be
00000010: e944 263d 1bd7 6e3e 6a43 ed3e b7ee d33c
00000020: 5ebb 8fbe 5d92 f33d 406f 0c3e 35ad cabe
00000030: cd7b 883e 4696 18bd 3a4b 6ebe 897f 633e
00000040: c907 693d 87b2 11be 84c6 ab3e c3ea 41be
00000050: a4f7 68be 6f26 d9bd 518a 1b3d 02c2 4a3e
00000060: 11c8 b53e 6072 56be 98d3 cfbd 1cf1 183e
00000070: 7f44 5abe b043 a53e 030c b4be 89fc 973e
00000080: a5c8 2abe aed0 613d 317d 1f3d 97a4 3bbd
00000090: cdec ce3d a05a 23be 746f b9bc 5a65 343d
000000a0: 60af 153e a76f 37be 16d6 5abe 64e5 413e
000000b0: a2f5 6b3e 4988 903e 5579 0cbe 23e4 dfbe
000000c0: 85f0 98be 05cb 9fbe 5dac 22be 7ad1 443e
000000d0: 327f a43d faa3 8bbe 4d50 373e 908e 0b3d
000000e0: 8fbf 963e a82e ce3d 9c0c 883e d0b7 143e
000000f0: a234 b73e f769 8b3d 676f 693e 9ee4 4cbe
00000100: 0e44 06be c07b d3be 1941 1abe 3542 99be
00000110: 2f4c 053d 5445 8dbd 37de 773d 164e fd3b
00000120: ca60 a13e be03 513e 6579 ac3d 3439 08be
00000130: a93b 05bd da08 6dbe a27d 243e c2cd ee3d
00000140: aad3 bb3e a904 cebe 0979 39be c01a 883d
00000150: e1dc 9ebd 8b68 7a3e 178e d7bd 4e17 efbb
00000160: 1a6e a4bc 2a2c d9be 2f42 47be 75c2 e43e
00000170: 7df1 a8be e5af 713d 3a4a eebd 8e6b 3bbe
00000180: 64c0 0d3e 7067 333e e161 2cbe 949d 4a3e
00000190: 1ca3 aebe 36e9 373e d3d9 0d3e 1ec1 98be
000001a0: 4eee fb3d 78e0 283e 5c64 9abe 55a5 133e
000001b0: bcc8 873e 340a 913d bba7 18be 7ca6 53bc
000001c0: c793 bcbc 93d3 9dbe 2788 b43e f39e 97bc
000001d0: 56c5 513e 9bc6 b5be 9551 bcbe 9630 b83d
000001e0: 5fcd 163d 67e0 653e 7cca 3b3d c648 813d
000001f0: 8bf2 c0be 0c86 e0be 763c 113c 1acc c8be
00000200: 8f75 8ebe 8e01 973e 6c14 52be 2268 393e
00000210: df11 213e bdc8 57ba 36f9 dbbe 2326 23be
00000220: e951 73be b140 59be 8d7a adbd cb0f a03e
00000230: cbb3 dc3d 97f4 f5bd 6111 72be aff3 bbbe
00000240: 8326 7cbd 83ad 4f3e 3e07 f1bd d81a 9a3d
00000250: 4f9c 903c 29ed a53e cde9 41bd fbc9 da3e
00000260: 4182 cebd 4fc2 0a3e bb13 833e 80b5 81bd
00000270: e8cc 18be 56d6 9a3e ecda 95be abed ab3e
00000280: de2f ccbd ad53 9cbe 3169 ca3e 985d cdbd
00000290: 64b0 663e f6d6 6dbd 20db 8abe 218f ee3d
000002a0: e7b1 95ba c037 db3d 2b49 a23e a9fa 7e3d
000002b0: e97d fbbb a478 25bc 33bc 73be 1efd 98be
000002c0: 091b eebe b4fa c0be 2d64 77be 289e 1abe
000002d0: 2dc9 adbe 0148 21be 4bff ae3e 4df7 64be
000002e0: 00ca e63c f5cc 0dbd 158c 81be bc74 d73d
000002f0: 8b1e e13e 0385 89be 3994 2b3e adfe 5b3e
00000300: 9b60 2a3d e58f 5fbe d3bd 90be 4fd3 69be
00000310: 40eb b63e b806 eb3c 29d1 a83e ebfa 82bd
00000320: 7f9f 9abd feb0 af3e 7a08 c6be ad51 8e3e
00000330: add7 7bbd ec4f 35be c47d 6f3e 983c 04be
00000340: 4c48 ccbd 4446 b0bd ef5f 963c d3db 333e
00000350: b617 b03e 5b0a 813e fbcd 813e 53cd e33d
00000360: a388 c03d 57ef a83e 577b 043e a752 8dbe
00000370: 0da7 a4be 28a8 0fbe b92d 4f3e c9e1 e23e
00000380: 4fbc bb3d ec38 6b3e cf4f b0bd 91f9 eabd
00000390: c6df a9b9 b230 5e3d fa62 f73c be62 f8bd
000003a0: a8c3 a2be fbb7 fe3e b347 9f3d b678 54be
000003b0: fe93 533d f95c 413c c39f 433e 7e77 00be
000003c0: aba1 c4be 50c3 cb3e caed 183e d8c0 51be
000003d0: 41b8 b1be 930e 743e 95bb 33be bc71 953e
000003e0: 0835 893d fd69 883e 63ef 82bc 703f f73e
000003f0: e0d1 533e 7942 c33d 4b14 b83d 05e3 b53d
0.28843465 0.08487179 -0.2693362 -0.25145724 0.04059306 0.23324244 0.46340495 0.025870664
-0.28072637 0.11893151 0.13714314 -0.3958527 0.26656953 -0.037252687 -0.23270884 0.2221662
0.05689219 -0.14228259 0.33549893 -0.1893721 -0.22750717 -0.10603034 0.037973706 0.1980057
0.355042 -0.20942068 -0.1014778 0.14935726 -0.21315192 0.32278204 -0.35165414 0.29684857
-0.16678102 0.055130653 0.03893775 -0.045811262 0.1010376 -0.1595254 -0.022636153 0.04404197
0.14617682 -0.17913686 -0.2137073 0.18935162 0.2304292 0.28228977 -0.1371816 -0.43728742
-0.29871002 -0.3120958 -0.15886064 0.19220534 0.08032073 -0.27273542 0.17901726 0.034071505
0.29443023 0.10067493 0.2657212 0.14523244 0.35782343 0.068073206 0.22796403 -0.20009086
-0.13111898 -0.4130535 -0.15063895 -0.29933324 0.032543357 -0.06897989 0.060514655 0.007730256
0.31519157 0.20411584 0.08421592 -0.13303071 -0.0325276 -0.23147908 0.1606355 0.11660339
0.36684924 -0.4023793 -0.18112577 0.06645727 -0.07756973 0.24453942 -0.10525148 -0.0072964793
-0.020072032 -0.42416507 -0.19458841 0.4467961 -0.3299674 0.059005637 -0.11635251 -0.18302748
0.13842922 0.17519927 -0.16834213 0.19786674 -0.34108818 0.17960057 0.13852625 -0.29834837
0.123013124 0.16491878 -0.30154693 0.14418538 0.26520336 0.07082024 -0.14907734 -0.012918111
-0.023019684 -0.3082548 0.35260126 -0.01850841 0.20485434 -0.35503086 -0.36780992 0.08993642
0.03681695 0.22448884 0.0458474 0.063127086 -0.37685046 -0.4385227 0.008864513 -0.39218217
-0.27824065 0.29493374 -0.20515603 0.1810613 0.15729474 -0.00082315115 -0.4296357 -0.15932517
-0.23761715 -0.21216084 -0.0847064 0.3126205 0.1077648 -0.120095424 -0.23639442 -0.36709353
-0.061560165 0.20281033 -0.117689595 0.07524651 0.017652659 0.324075 -0.04734211 0.42732224
-0.10083438 0.13550685 0.2560099 -0.063334465 -0.14921916 0.3024165 -0.29268587 0.33579764
-0.099700674 -0.3053259 0.3953338 -0.10027617 0.22528225 -0.05806633 -0.27120304 0.116483934
-0.0011420817 0.10703993 0.31696448 0.062250767 -0.007674922 -0.010099564 -0.23802261 -0.29880613
-0.46505 -0.3769127 -0.24159308 -0.15099394 -0.33942547 -0.15750124 0.34179148 -0.22359963
0.028172493 -0.03461929 -0.25302187 0.10520312 0.43968615 -0.26859292 0.16755761 0.2148387
0.041596036 -0.21832235 -0.28269824 -0.22834514 0.35726357 0.028689727 0.32972077 -0.06395515
-0.07549953 0.34314722 -0.38678342 0.2779669 -0.06148498 -0.17706269 0.2338782 -0.1291374
-0.09974727 -0.08607152 0.018356292 0.17564325 0.3439309 0.25203213 0.25352463 0.11123147
0.094010614 0.32995102 0.12937675 -0.2760212 -0.321587 -0.1402899 0.20232286 0.44312885
0.091667764 0.22970933 -0.08608972 -0.11473382 -0.00032400916 0.05424566 0.030198563 -0.121282086
-0.317899 0.4974974 0.077773474 -0.20749173 0.05165481 0.011801952 0.19103913 -0.12545583
-0.38404593 0.3979745 0.1493446 -0.2048372 -0.34710887 0.23833685 -0.17552026 0.29188335
0.06699568 0.26643363 -0.01598329 0.48290586 0.2068553 0.09534163 0.089882456 0.08881191

layer1.0.bias f4 [64]
00000000: bb7c 4d39 5332 f2b8 18a3 eb36 f481 fa38
00000010: 5344 a7b8 f087 0d38 6501 8f39 24bb 8939
00000020: ba51 2139 bc46 1e37 42e4 3739 1301 e339
00000030: a3c2 48b8 b6cd 36b8 fc47 6f39 80ee 1038
00000040: 1906 b5b7 0dc6 e938 e52b 0dba 27d2 42b9
00000050: 2d5b 3c39 c513 14b9 8830 1ab9 67af 2139
00000060: 3748 85b8 f294 6637 ce2f 3038 681e 21b9
00000070: db10 1eb9 2e3a 83b7 7876 d738 598a 7b38
00000080: 2f8f 5a38 7316 c938 03bc 2eb8 4498 4739
00000090: ad05 6f39 99eb 55b7 c0c9 0239 cf41 aeb8
000000a0: abda 13b8 4a14 beb9 358d 9e38 bed1 a5b8
000000b0: 4ad4 cb37 5726 f638 7aaa 13b9 bba0 09b8
000000c0: 0662 8838 12c3 4138 7f2a 7ab8 7f85 3a38
000000d0: 0f09 02b8 59c6 0ab9 1dda b436 7a0c 8337
000000e0: 6bc1 86b7 cdb5 7fb8 a90a e038 e3bf 91b9
000000f0: 5a49 b638 3b0a 1238 4444 82b9 f906 9fb6
0.00019596789 -0.00011548833 7.0225324e-06 0.000119451346 -7.975907e-05 3.374362e-05 0.00027276124 0.00026270107
0.00015384602 9.434003e-06 0.00017537273 0.00043297614 -4.7864985e-05 -4.3583765e-05 0.00022819632 3.4554396e-05
-2.157972e-05 0.000111471956 -0.0005385264 -0.0001857957 0.00017963043 -0.00014121745 -0.00014704664 0.00015419499
-6.355385e-05 1.3743747e-05 4.200619e-05 -0.00015365484 -0.00015074333 -1.5643509e-05 0.000102740654 5.997191e-05
5.21086e-05 9.5886084e-05 -4.1659932e-05 0.00019034842 0.0002279493 -1.2750644e-05 0.00012472924 -8.309224e-05
-3.525118e-05 -0.0003625474 7.560329e-05 -7.906881e-05 2.429834e-05 0.000117373354 -0.0001408252 -3.2813037e-05
6.503244e-05 4.619646e-05 -5.9644222e-05 4.4470184e-05 -3.100285e-05 -0.00013234596 5.3898098e-06 1.5622227e-05
-1.6064112e-05 -6.0966053e-05 0.00010683138 -0.00027799522 8.692099e-05 3.481864e-05 -0.00024846394 -4.739381e-06

layer1.1.weight f4 [64]
00000000: b99a 613f 7e90 7d3f 7a8e 633f 7f52 853f
00000010: 1d48 5b3f 0ac9 683f 4201 ab3f 087f 8f3f
00000020: 6b55 803f 9d51 623f b262 753f a05f 8a3f
00000030: b602 623f 1ef5 7e3f f68a 5c3f f615 8a3f
00000040: c260 703f 3a8f 763f 6ab2 8e3f 8382 913f
00000050: c210 793f 7b24 533f 4411 613f b1a7 863f
00000060: 2b0c 723f e865 633f f2a7 573f dc30 7c3f
00000070: 5f10 753f fa01 6a3f 6634 653f 0a2a 5e3f
00000080: 59de 713f bd9a 6b3f 6f13 873f ac08 863f
00000090: 2ae2 6a3f 0c82 483f cb05 6c3f ffb5 683f
000000a0: 020a 933f 50f9 7f3f 4763 743f 38a9 823f
000000b0: 7bb8 633f afa9 7e3f 8fd5 8e3f fe6d 5d3f
000000c0: f53d 5f3f 3cda 883f 098c 773f b98f 7d3f
000000d0: 9bc6 5c3f eb97 803f 3f9e 573f 7308 533f
000000e0: 5730 613f 33b6 413f e54b 803f 2198 693f
000000f0: effb 4b3f c6e4 593f 5cb8 603f 5dcd 513f
0.88126713 0.990486 0.88889277 1.0415801 0.8565691 0.9093176 1.3359759 1.1210642
1.0026067 0.8840578 0.9585372 1.0810432 0.88285387 0.9959277 0.8614954 1.0787952
0.9389764 0.96312296 1.1148198 1.1367954 0.97291195 0.8247754 0.8791697 1.0519925
0.94549817 0.8882737 0.8424064 0.98512053 0.95728105 0.91409266 0.8953308 0.86782897
0.944799 0.92032987 1.0552806 1.0471396 0.9175135 0.78323436 0.9219634 0.90902704
1.1487429 0.99989796 0.95463985 1.0207891 0.8895337 0.99477667 1.1158923 0.8649596
0.87203914 1.06916 0.9669805 0.9904743 0.8624055 1.0046362 0.8422584 0.8243477
0.87964386 0.7566864 1.0023161 0.91247755 0.79681295 0.85114706 0.8778131 0.81953984

layer1.1.bias f4 [64]
00000000: 48d9 40be d9da abbd 3450 0abe b9c0 92be
00000010: 3e54 d6be 0fb7 5abe 9115 7cbd de72 2fbd
00000020: e470 58be f99d 82be 07c9 72be cbb3 a6bd
00000030: df8c f4bd 65fe 13be 4f3e 6ebd 76a9 b5bd
00000040: b547 4dbe b7d3 19bf 4236 f5bd d8fe adbc
00000050: 74d5 2fbe b9b5 60bd 7e51 e5be 2547 08bd
00000060: ef29 18be 038f d9be c103 cbbe 339b 5cbe
00000070: 4280 bcbd 7f70 b7be d872 05be 1f5b d8be
00000080: 84d1 b8bb 4295 e7be 49e8 71be 374c 9dbe
00000090: ecc1 f3bd 8be8 74be 9301 91bd eb9d 0bbe
000000a0: 1bb5 5cbe 1cef 83be dfea 59be 0f8f 3bbe
000000b0: 1fad 16bf 56d0 98be d9bd aabe 98a1 c2be
000000c0: db3d 51be 02e6 32be a202 58be baba d4be
000000d0: 5268 e1be df8e aebe d23f 66be c188 51be
000000e0: 98f5 75be 4413 cfbe e577 98be bc09 85bd
000000f0: a31d cebe b9eb 34be 2955 7fbe a7e2 aabe
-0.18832886 -0.08391351 -0.13507158 -0.2866266 -0.41861147 -0.21358894 -0.061544005 -0.042834155
-0.21136814 -0.2551115 -0.23709498 -0.081397615 -0.119409315 -0.14452513 -0.05816489 -0.08870213
-0.20046885 -0.60088676 -0.119732395 -0.021239683 -0.1717127 -0.054860804 -0.44788736 -0.033270974
-0.14859746 -0.42491922 -0.39651302 -0.21543579 -0.09204151 -0.35828015 -0.1303209 -0.4225702
-0.0056402106 -0.45231062 -0.23623766 -0.3072221 -0.11902222 -0.23916833 -0.070803784 -0.1363446
-0.21553461 -0.25768363 -0.21281002 -0.18316291 -0.5885791 -0.29846448 -0.33347967 -0.3801391
-0.20433752 -0.17470554 -0.21094754 -0.4154871 -0.44024903 -0.34093377 -0.22485283 -0.20462324
-0.24019468 -0.40444386 -0.29778972 -0.06495997 -0.40256986 -0.17668046 -0.2493483 -0.33376047

layer1.1.running_mean f4 [64]
00000000: 50b6 a139 d26a 84b8 3e49 fe38 747b ac39
00000010: 78b2 9237 29f1 cbb8 7651 2d3a ba76 9438
00000020: 18e0 a739 09e1 81b9 dab7 9239 5ecc eb37
00000030: b44b e937 249c 8db9 2c7b 02b8 c914 42b9
00000040: d534 1638 79c0 ed38 8abe 86b9 45c6 dab9
00000050: b3be 1837 1b47 d836 c66b 3db6 7e9e 8d39
00000060: a97d 1239 9c16 7638 83e7 5238 92aa cd37
00000070: b35e 0c39 8603 8439 fa82 18b8 c230 1639
00000080: d673 6db8 86d4 4e39 c6b9 a1b9 617f 8d39
00000090: dc51 7ab7 d22f 7438 c940 0d39 9513 ca36
000000a0: 85fb 8339 2674 01b9 fdba b039 ab36 2739
000000b0: 54b5 de38 221a 6639 6fc4 deb9 15f0 d638
000000c0: 4b9e 25b8 1f73 ee39 1cc6 5e39 9851 9a38
000000d0: 744a 2138 adea be35 bd16 5fb6 7553 cdb9
000000e0: 006a cb37 4e74 93b9 d67a 0338 63bc c2b8
000000f0: 6d6e 9d39 c1c0 79b9 7f1f 7fb9 0deb a1b8
0.00030844146 -6.314147e-05 0.00012125306 0.00032898376 1.7487662e-05 -9.724714e-05 0.0006611565 7.0793045e-05
0.00032019685 -0.00024772462 0.0002798427 2.8109349e-05 2.7811016e-05 -0.0002700995 -3.1109128e-05 -0.00018509025
3.581199e-05 0.000113368915 -0.00025700434 -0.00041727923 9.104307e-06 6.4455794e-06 -2.8225927e-06 0.00027011702
0.00013970457 5.8672027e-05 5.0283514e-05 2.4517332e-05 0.00013386719 0.00025179627 -3.6361605e-05 0.00014323278
-5.6613084e-05 0.00019724862 -0.00030846725 0.0002698852 -1.4920221e-05 5.821867e-05 0.00013470942 6.0223488e-06
0.00025173664 -0.00012345667 0.00033708653 0.00015946726 0.0001061956 0.00021944245 -0.00042489494 0.00010249034
-3.9486487e-05 0.0004548067 0.00021245371 7.35849e-05 3.845473e-05 1.4224403e-06 -3.3242825e-06 -0.00039162827
2.4248846e-05 -0.0002812468 3.1347234e-05 -9.2857306e-05 0.00030027647 -0.00023818297 -0.00024330428 -7.72086e-05

layer1.1.running_var f4 [64]
00000000: 155d fe3e c844 ac3e 546d 993e 4302 673c
00000010: 6427 eb3e 52f9 0f3f a0c8 b43e 5857 8f3e
00000020: 7efd 823e f8a5 a13e ae89 203e 0b1a 963e
00000030: 0e88 363e b0c0 1e3f d35c 2a3f 4264 923e
00000040: d341 2a3e 07ab 6a3e d1a2 0a3e 0e21 193f
00000050: fb69 f63e 0f49 cd3e b1f0 053e 6636 973e
00000060: 5a72 de3e c4cc 0b3f 2472 253f 35c6 d03e
00000070: 47d1 9b3e c7df 373e 5de3 dd3e 75f7 ca3e
00000080: 2d05 663e 4cb6 3b3e 0e4d 9f3e 23af 9a3e
00000090: 4269 b63e 116d bb3e 8bea 3c3e b6b9 603e
000000a0: 9a3a a83e 7db3 633d 49a5 a93e dcc3 503e
000000b0: 5453 b13e 467f bc3e 3802 9c3e 4640 ad3e
000000c0: 34d1 d23e abf5 5b3e 95de 9d3e 566c 9a3e
000000d0: e598 383e 4821 393e 46cf 953e f55f 0f3f
000000e0: a691 db3e 3587 bc3e 4356 0d3f 62ae 3d3e
000000f0: a0b2 b23e 5d0b aa3e 0ac1 4a3e 4abf 2a3f
0.4968039 0.33646226 0.29966223 0.01409966 0.4592849 0.5623981 0.35309315 0.27996325
0.25584024 0.31571937 0.1567752 0.29316744 0.17825338 0.6201277 0.6654789 0.28592116
0.16626672 0.22916804 0.13538672 0.5981606 0.48127732 0.40094802 0.13080098 0.2953369
0.43446618 0.5460932 0.6462729 0.4077622 0.30433103 0.17956458 0.43337527 0.3964192
0.22462912 0.1833126 0.31113476 0.30211744 0.3562718 0.3660665 0.18448846 0.21945843
0.3285721 0.055591095 0.33133915 0.20387214 0.34633887 0.36815852 0.30470443 0.338381
0.41175234 0.21480434 0.3083388 0.3016078 0.18027075 0.18079102 0.292597 0.56005794
0.42884558 0.36821905 0.5520975 0.18523553 0.34901905 0.33211794 0.19800201 0.66698134

layer2.0.weight f4 [128, 64, 5]
00000000: cd4c 9bbe 4546 26be 9937 5cbe 6efe 54be
00000010: 33b5 6bbe efae 863d 4e21 7f3d 5fe4 243b
00000020: aa73 443d 6c23 af3d 3f6f 6dbe 3ac1 29be
00000030: 3db1 3cbe fd00 21be 8f56 37be 0d0a acbb
00000040: 7161 6d3c 34b6 1c3d e009 13bd 688b 87bd
00000050: d054 aa3d 794c b53d fe8d d03c 84b4 0c3e
00000060: 29e3 6fbc b8cc e4bd 359f 313d bff9 b4ba
00000070: aa2a 223e 5b79 953d f857 cb3d e995 673e
00000080: 98dc 1e3e 09d1 453e 549e cd3d 6bfc fc3a
00000090: 66a2 1b3e 7d67 493e 0c15 1a3e cf34 7a3e
000000a0: 5915 d93d 2893 993d 618b 653d 348d ae3a
000000b0: b316 9d3c 2db2 f83b 1d97 c9bc eb44 c03b
000000c0: 0023 be3d d20b aabc 0819 23be ab9e 51be
000000d0: d85a 59be eef5 10be 340d 6ebd 3b2c bbbc
000000e0: d67e 863d 8814 bc3c 4bd9 973c df0b 983d
000000f0: a42f b43d bef5 7f3d 3a63 8fbd 117b 173d
00000100: 2934 6f3d 4c50 553d 8b29 953c 96ad a73d
00000110: c3d2 163d bc2e 663c 0c58 1bbc d382 e3ba
00000120: 2b43 17bc 4e4f a33d eac2 4c3d fa01 cfbd
00000130: c4d5 2fbd 101e 11bd 9ef4 893b f30b 47bd
00000140: 13ba 183d 036d 093e b094 c63d c02e 733d
00000150: 7e6c 893c 0d00 37be cb4a 34be a2fb 79be
00000160: 2768 16be 0abc 03be 9d0f 6f3d 440f 313b
00000170: 0efe 0abd 40b9 18bd 41cb 0fbd 5c17 2b3e
00000180: 3b79 093e e20c 1f3e 2e4f 223e 3ffa 2e3e
00000190: c5a7 45bd 5036 94bd 2c22 c8bd e522 e7bd
000001a0: a503 7739 09ef 90bd b0f7 e9bc 3bf5 a9bd
000001b0: 4589 0ebd 6544 25be bed1 d4bd 506a 13be
000001c0: 831a 34be 6d44 2bbe 51fc bfbd e69d 6b3d
000001d0: 6e54 0d3d 1acd 753d 5e1b 913d e5a7 443d
000001e0: 262e 39be 1754 c2bd bbf5 8bbd 592c a8bd
000001f0: 8075 8bbd d3f5 783d 2b03 d73d 79f3 6d3d
00000200: 6305 993d 8dc7 32bd 6a15 a93d eb4f 2d3d
00000210: fca7 3b3d c6bb 893d e86b a3bc 2780 e83c
00000220: 5182 f1bc 0461 ae3c 5ed9 d63c a931 87bc
00000230: 84df 1cb9 f4f5 033e 4b3f 583e 5368 4b3e
00000240: 080f c13d 92e6 133e 22d2 983d 41d4 e23d
00000250: 84e1 d23d ff60 9f3d fe24 4dbd d715 c7bc
00000260: e477 ad3d 6bb9 92bd 71d3 0cbb d9a6 9a3d
00000270: 5210 e63d ca70 8a3d 154d 74bb f815 e3bd
00000280: 198d c2bc 35d1 9c3d 30cd ffbb 95c9 d73c
00000290: c171 d2bc e893 81bd 7616 a9bd 67ee f6bd
000002a0: a26f 33bd 64a4 23bd a5ea cf3b 2732 293e
000002b0: 496b f23c 1533 e43d b956 b83b 9001 f23d
000002c0: bff7 ae3d 2eb3 0f3e 5706 ae3d 125e 403d
000002d0: d6f4 2bbe b8a9 cdbd 5953 92bd f35f d5bd
000002e0: c7cb fdbd 915a cc3b bd84 093d 429c 603c
000002f0: 50b9 243d 2e50 8dbd 53bd 8cbd 8864 2f3d
00000300: e8cf c93d cdf0 563d 6748 8c3c 9fbb 3cbe
00000310: a740 2ebe 41e2 5fbe 4d4b 14be f99f 37be
00000320: 86ba 6a3d 05d5 b3bc 5dbf 303d f8ee 053d
00000330: 6d69 c6bc 87b0 65bd 6072 6cbd 1a78 9f3c
00000340: ff15 723d 2684 01be 2a76 c03d 0b6f bf3d
00000350: b298 9d3d 8b69 eb3c 956e 193d 728c a83d
00000360: 74dd 013e 32df 673d a843 83bc d2c6 1b3d
00000370: c5e7 7ebc adc7 833d 05cb fe3c e3c5 33bc
00000380: fde7 28be 8b86 c8bc 087d b3bc ff8c afbd
00000390: dac1 0f3c 86a8 e7bd 5ed2 26bb 417d 2f3d
000003a0: 81c8 e43d a677 753e 155e 283e 56d1 bcbd
000003b0: d5aa 9cbd 52fc a1bd 1ca0 0ebe a0c4 13be
000003c0: 6d53 cebd c7dd dcbd be3c 253c 6bb9 bf3c
000003d0: b29d 32bd 1a3b 4e3d c166 a93c b959 533d
000003e0: 6fb4 2c3d 345d a43c c61b 2f3c f879 8b3b
000003f0: e6ca f5bc b025 453c 6af3 a7bc 2e75 76be
-0.30332032 -0.16237743 -0.21505584 -0.20800182 -0.23018341 0.06576335 0.06228762 0.0025160534
0.04796187 0.08551678 -0.23186968 -0.16577616 -0.18426986 -0.15723033 -0.17904113 -0.0052502216
0.014488564 0.0382597 -0.03589809 -0.066183865 0.08316958 0.088524766 0.025458332 0.13740736
-0.014641562 -0.111718595 0.043364722 -0.001380734 0.15836588 0.07298537 0.09928888 0.2261578
0.15513837 0.19318022 0.10039964 0.0019301301 0.15198669 0.19668384 0.15047091 0.24434207
0.10599775 0.07498771 0.056041125 0.0013317228 0.019175863 0.0075895996 -0.02460819 0.0058675907
0.092840195 -0.02075759 -0.15927517 -0.20470683 -0.2122606 -0.14156315 -0.05811806 -0.02284824
0.06567161 0.022959009 0.01853623 0.07424139 0.08798149 0.062490217 -0.07001348 0.0369826
0.058399353 0.05207853 0.018208286 0.08187406 0.03682209 0.014049228 -0.009481441 -0.0017357714
-0.009232323 0.079741105 0.049990572 -0.10107799 -0.042928472 -0.03542906 0.004210069 -0.04859538
0.03728683 0.13420491 0.09696329 0.059370756 0.016775366 -0.17871113 -0.17606656 -0.24412397
-0.14688168 -0.128647 0.0583645 0.0027017156 -0.03393369 -0.037286043 -0.035105947 0.1670813
0.13425152 0.15532258 0.15850517 0.17087649 -0.0482557 -0.07236922 -0.09772143 -0.112859525
0.00023557113 -0.07076842 -0.02856049 -0.08298727 -0.03479888 -0.16139372 -0.10391568 -0.14396024
-0.17588238 -0.16725321 -0.093742974 0.05752363 0.034504347 0.060010053 0.07085298 0.04801168
-0.1808401 -0.09488695 -0.06833979 -0.08211584 -0.06809521 0.06078131 0.10498651 0.05809352
0.074717306 -0.043647338 0.082560375 0.042312544 0.0458145 0.06725268 -0.019948915 0.02838142
-0.029481085 0.021286495 0.026226696 -0.016503172 -0.00014960585 0.12886792 0.21117894 0.19864015
0.09426695 0.14443424 0.07461955 0.110756405 0.1029692 0.077821724 -0.050084107 -0.024302406
0.08470133 -0.07164272 -0.0021488334 0.07551355 0.112335816 0.06759794 -0.003727739 -0.110881746
-0.023748921 0.076570906 -0.0078064427 0.026341239 -0.025689008 -0.06327039 -0.08256237 -0.120571904
-0.043807633 -0.039951697 0.0063451105 0.16523038 0.029592173 0.111425556 0.0056255725 0.11816704
0.085433476 0.14033195 0.08497303 0.046964712 -0.16792616 -0.10042137 -0.071448036 -0.104186915
-0.12392383 0.0062363823 0.033573855 0.01370913 0.04021579 -0.06900059 -0.06872048 0.042820483
0.09854108 0.05247574 0.017124368 -0.18430947 -0.1701685 -0.21863653 -0.1448185 -0.17932118
0.05730679 -0.021952162 0.04315125 0.0326986 -0.024220193 -0.056076553 -0.057726264 0.019466449
0.05910301 -0.12648067 0.09397538 0.09347352 0.0769514 0.02873685 0.037458975 0.08229913
0.12682134 0.05660934 -0.016023472 0.038031407 -0.015558188 0.064345695 0.031102667 -0.010972473
-0.16494747 -0.024478218 -0.021910205 -0.08571815 0.008774245 -0.1131144 -0.0025454978 0.04284406
0.111710556 0.23971424 0.1644214 -0.09219615 -0.07649771 -0.079094544 -0.13928264 -0.14430475
-0.10074506 -0.10784488 0.010085283 0.023403844 -0.04360742 0.050349332 0.02067888 0.051599238
0.042164262 0.020063974 0.010687774 0.004256483 -0.030003976 0.012032911 -0.020501811 -0.24068138

layer2.0.bias f4 [128]
00000000: b4a5 9eb7 23b7 de36 80b2 ff36 db7f 8bb7
00000010: dc48 4738 4f44 7636 ee74 8735 6cf1 65b5
00000020: 8a31 46b7 d3ad a537 8361 d0b7 a3b6 82b7
00000030: 9a91 c7b7 0d88 3837 a726 c537 8038 b9b7
00000040: 65b9 8136 7ad8 f136 3a3e 20b7 aa8d 01b7
00000050: baf1 0a38 1f0c eeb6 6082 2837 97bd 12b7
00000060: bd5f 17b6 217d f6b7 dbba a5b6 4c9b 5837
00000070: 983f eeb6 c1c4 a5b7 8b91 6638 aa40 04b7
00000080: a4cd 11b7 1df5 31b5 1b2f 8f37 7fa7 8ab6
00000090: 33d1 1638 3c38 e936 25d6 01b7 633d dab7
000000a0: 9efe d336 d3ee 1a37 6009 1bb7 5a91 c4b7
000000b0: f973 9137 d3e4 37b7 1d8f 5537 7827 0d36
000000c0: e2e1 6cb7 f6f9 2a36 494d cf36 4cc2 76b7
000000d0: 33b9 0836 650b 07b7 7ee6 3c37 6e3d 8cb5
000000e0: b662 67b6 72d7 ae36 cdc6 a135 facc 0db3
000000f0: 4e5e 0ab6 e126 eab6 1e69 2db6 1474 9738
00000100: 8856 8837 e6e4 24b8 59b9 82b7 ab15 9b37
00000110: 366c 5b38 fa2d 1bb7 1dad 84b7 ad02 8bb7
00000120: dd3d 2e37 eec2 1938 6848 1ab7 e6e5 bbb6
00000130: 73fc c336 60fd 3b36 a676 c037 824c 3db7
00000140: 24e2 c837 8575 58b7 6dc2 cbb6 ea71 3e37
00000150: 24cc f036 f686 4c37 4ba7 08b7 b72e 21b6
00000160: 8638 2137 9dc9 2a37 87dd 63b7 1dbd 9b35
00000170: 1dc5 a2b7 093d e436 fa00 14b7 7060 6837
00000180: e65c 4737 b758 19b6 4738 9d37 06be d137
00000190: 244f 5237 211c e036 d5b2 9938 9b5c 5338
000001a0: 80c5 2e37 5110 bfb6 d340 3fb7 e4be 7536
000001b0: eefc 86b6 2776 3d37 ef2f 89b8 f61f 05b8
000001c0: 7fc9 ea36 7e3a 0837 d506 8b35 905b 6cb6
000001d0: 84ed 2f37 ff84 f337 7433 95b7 6b96 ecb5
000001e0: b4be 07b7 5040 36b7 6567 8337 aa4f b036
000001f0: c7d2 66b6 d24b 43b7 f84b 7b38 ae5e 98b7
-1.891223e-05 6.6374355e-06 7.6203723e-06 -1.6629629e-05 4.7513153e-05 3.6696617e-06 1.0092315e-06 -8.5660463e-07
-1.1813254e-05 1.9750476e-05 -2.484094e-05 -1.5582254e-05 -2.379045e-05 1.0998931e-05 2.3502229e-05 -2.2080028e-05
3.8660824e-06 7.207561e-06 -9.551231e-06 -7.721983e-06 3.312689e-05 -7.094364e-06 1.0043936e-05 -8.7464205e-06
-2.255648e-06 -2.9383753e-05 -4.939136e-06 1.2910761e-05 -7.100356e-06 -1.9761153e-05 5.497182e-05 -7.882869e-06
-8.690553e-06 -6.6294325e-07 1.7068864e-05 -4.1322196e-06 3.595762e-05 6.9504877e-06 -7.738859e-06 -2.601621e-05
6.3179314e-06 9.234721e-06 -9.240903e-06 -2.3432705e-05 1.7339351e-05 -1.0960927e-05 1.27291105e-05 2.103361e-06
-1.4119289e-05 2.547747e-06 6.178078e-06 -1.4707981e-05 2.037338e-06 -8.04928e-06 1.1259339e-05 -1.0448691e-06
-3.447914e-06 5.2106852e-06 1.2053293e-06 -3.3015546e-08 -2.0618495e-06 -6.9782695e-06 -2.5840195e-06 7.221862e-05
1.6252758e-05 -3.9313825e-05 -1.5583517e-05 1.848753e-05 5.2314448e-05 -9.249425e-06 -1.5816238e-05 -1.6571337e-05
1.0385612e-05 3.6659585e-05 -9.195974e-06 -5.599798e-06 5.840842e-06 2.8012655e-06 2.2943434e-05 -1.1283091e-05
2.3947163e-05 -1.2901965e-05 -6.0725056e-06 1.1351405e-05 7.1763225e-06 1.2190771e-05 -8.145183e-06 -2.4018061e-06
9.609508e-06 1.0179731e-05 -1.3581833e-05 1.1603439e-06 -1.9403693e-05 6.802035e-06 -8.821715e-06 1.3850731e-05
1.1882954e-05 -2.2850415e-06 1.8742065e-05 2.5003228e-05 1.2535402e-05 6.678995e-06 7.3289186e-05 5.0392566e-05
1.0417192e-05 -5.694143e-06 -1.139958e-05 3.6618958e-06 -4.022956e-06 1.1292787e-05 -6.5415974e-05 -3.1739437e-05
6.9972007e-06 8.1198505e-06 1.0358295e-06 -3.5220037e-06 1.0486114e-05 2.9029788e-05 -1.7786144e-05 -1.7627148e-06
-8.091029e-06 -1.0863019e-05 1.5664564e-05 5.254483e-06 -3.439536e-06 -1.1640559e-05 5.9913815e-05 -1.81639e-05

layer2.1.weight f4 [128]
00000000: 9804 743f 5d06 263f 1249 393f 04be 463f
00000010: 1f3c 853f 2bf3 773f 47df 443f ce90 4a3f
00000020: 78d6 503f 96d4 523f 2601 703f 2536 673f
00000030: 028a 673f b6bc 593f c2e9 5b3f 561e 6e3f
00000040: f910 2a3f c2ab 563f 8473 843f 41f3 763f
00000050: c184 4b3f f3d8 5a3f 9a56 333f b0aa 853f
00000060: 6678 443f 7890 803f 74db 753f 9401 823f
00000070: ba40 213f ba69 813f b535 7c3f 4a12 5b3f
00000080: 0615 403f 25fc 7d3f ead1 353f 9ee3 503f
00000090: 5d7e 693f b72a 5c3f 6861 7c3f da16 643f
000000a0: 0423 433f 143c 563f c734 513f 7219 823f
000000b0: c8d6 5b3f 5865 3c3f bcab 6b3f 6ac5 443f
000000c0: e48d 4a3f 88be 523f 4d53 523f 51b9 493f
000000d0: c58e 273f f08f 2c3f d61d 2b3f 2f25 453f
000000e0: d989 2d3f 406a 603f 02f0 283f 42f8 393f
000000f0: 1389 803f 4669 673f cf1a 2b3f 6fa6 873f
00000100: d3a8 543f 4d08 893f 41f7 823f 5445 5f3f
00000110: d287 813f 004f 603f a128 2b3f 02bf 7d3f
00000120: 1818 723f 444c 803f 6a9e 543f 7e05 463f
00000130: 7628 1b3f 550d 563f 12fb 4d3f c341 483f
00000140: 20e7 683f dfe0 553f 1f2b 5c3f 2862 863f
00000150: 06b6 513f 1d8c 7d3f 285e 573f 9b49 223f
00000160: d0e3 2f3f 3434 3d3f ed82 2a3f cb1b 523f
00000170: 8828 4f3f 3349 263f 1098 4e3f 25f4 5e3f
00000180: 296b 7f3f 5fed 723f f235 673f 30a1 523f
00000190: 1b7b 4e3f 0be2 673f 7767 5f3f a996 743f
000001a0: ce0f 303f 0400 493f 9f47 6c3f 849e 373f
000001b0: 4144 3e3f 7707 513f ab50 863f 9397 763f
000001c0: 9549 6b3f d38e 6b3f 93a5 253f 7fa5 253f
000001d0: ad3d 4e3f f0e1 4f3f e659 873f 7988 743f
000001e0: 0a1e 5e3f 2d65 6d3f 9b3b 583f 95c8 633f
000001f0: ee8e 4e3f 2e3d 5e3f 3006 763f 3b2c 4b3f
0.9531951 0.6485346 0.7237712 0.7763369 1.0408973 0.9685542 0.76903194 0.79127204
0.81577253 0.8235563 0.9375175 0.90316993 0.9044496 0.85053575 0.8590356 0.9301504
0.6643215 0.8385583 1.0347753 0.96464926 0.7949944 0.8548729 0.7005402 1.0442715
0.76746213 1.0044088 0.96037984 1.0156732 0.6298939 1.011039 0.9851945 0.8557478
0.7503208 0.9921287 0.7102343 0.81597316 0.9120844 0.8600268 0.9858613 0.8909737
0.76225305 0.8368542 0.81721157 1.0164015 0.85874605 0.7359214 0.9205892 0.7686373
0.7912276 0.8232198 0.82158357 0.78798395 0.65452224 0.6740713 0.668424 0.7700986
0.67788464 0.87662125 0.6599122 0.72644436 1.0041832 0.9039501 0.6683778 1.0597667
0.83070105 1.0705658 1.0231706 0.8721516 1.0119574 0.87620544 0.6685887 0.9911958
0.94568014 1.0023274 0.8305422 0.7735213 0.60608613 0.83614093 0.8046123 0.78225344
0.9097767 0.8354625 0.860033 1.0498705 0.8191837 0.9904192 0.84128046 0.63393563
0.6870699 0.7390778 0.66606027 0.8207366 0.8092122 0.64955443 0.8070078 0.87091285
0.9977289 0.9489345 0.9031669 0.822772 0.80656594 0.9057929 0.8726725 0.9554239
0.68774116 0.7851565 0.92296785 0.7172625 0.743229 0.81652015 1.0493368 0.96325034
0.9190915 0.9201481 0.6470577 0.6470565 0.8056286 0.8120413 1.057431 0.9552074
0.86764586 0.92732507 0.8446595 0.8897794 0.80686843 0.868121 0.9610319 0.79364365

layer2.1.bias f4 [128]
00000000: 290c 0cbe ec92 b6be b2e9 8ebe d5b9 a8be
00000010: f1a9 3bbe f8e6 54be b3ad 98be b18f 7dbe
00000020: 5cf7 65be af65 69be b931 53be 280f 62be
00000030: 30a3 96be 3cef 5abe b619 6fbe 9e90 11be
00000040: 101f bbbe 5f00 3abe ccd6 d8bd 4d86 8ebe
00000050: 32c3 79be 9c9d 91be 492f a4be a070 4ebe
00000060: ac2d 5dbe 69e7 75be c8cc 88be 1bce 16be
00000070: bf57 a7be 4d54 3ebe a845 47be bdb3 57be
00000080: 392b 95be 82ce 4abe b285 a4be 1575 85be
00000090: e87b 40be 4ea0 46be a985 7cbe 3ac0 5abe
000000a0: 4808 8cbe 1279 50be fdb4 8bbe cfb1 96be
000000b0: 43e4 89be f241 64be 5fc2 cfbd 68c6 92be
000000c0: 8751 97be e804 5ebe ae0d 59be 68b6 6abe
000000d0: f0a3 a5be 7767 b9be 6c33 a0be dbb0 81be
000000e0: 2ca8 afbe 2e68 52be cf1e b0be 2e78 99be
000000f0: 9d4b 96bd a21d 25be f0c2 bfbe ffb8 24be
00000100: ce01 6ebe a420 83be fc67 6dbe 80bf 80be
00000110: a989 2ebe f36b 34be 80f8 8bbe 4c86 1dbe
00000120: 81d9 26be d45b 41be f9f4 81be 74ba 8fbe
00000130: 865c c3be 7bf6 59be 414f 64be 96f7 74be
00000140: 3111 44be 3601 a1be 6539 9ebe 57b4 2bbe
00000150: 4531 42be b6ce 55be 9010 35be 059f 9cbe
00000160: 02a9 9ebe 91aa 80be 8759 9dbe fbd3 61be
00000170: 8208 73be 0333 b1be 5930 71be 990b 95be
00000180: ca3b 2fbe fce6 4cbe adbe 89be c28e 63be
00000190: 276e 8ebe 7e00 69be dd65 87be b159 58be
000001a0: 5477 97be 2097 a9be a69a 9abe dcdd 8dbe
000001b0: 0033 b5be ea25 86be c71f 7fbe e334 e3bd
000001c0: bca2 1bbe b369 86be d7fc 8cbe e26e bdbe
000001d0: bcb8 87be b321 87be f11a 1abe 7ec4 8abe
000001e0: 28f7 40be 4a19 91be 4da0 82be d7e0 3cbe
000001f0: 1b70 95be 6d50 3abe de80 1dbe 939e 58be
-0.13676514 -0.35658967 -0.2791267 -0.3295428 -0.18326546 -0.20791233 -0.29820022 -0.24761845
-0.22457641 -0.22792695 -0.20624436 -0.22076094 -0.29421377 -0.21380323 -0.23349652 -0.14215323
-0.36547136 -0.18164204 -0.10587844 -0.27836838 -0.24390867 -0.2844056 -0.32067326 -0.2016015
-0.21599454 -0.24014057 -0.26718736 -0.1472706 -0.32684132 -0.18586846 -0.19460166 -0.21064658
-0.2913454 -0.19805339 -0.3213325 -0.2606589 -0.18797266 -0.19397089 -0.24660362 -0.21362391
-0.27350068 -0.20358685 -0.2728652 -0.29432532 -0.26931962 -0.22290781 -0.10144495 -0.28666997
-0.29554388 -0.21681559 -0.21196625 -0.22921145 -0.32351637 -0.3621175 -0.31289232 -0.25330243
-0.34307992 -0.20547554 -0.34398505 -0.29974502 -0.07338641 -0.16124585 -0.37453413 -0.16086195
-0.23242876 -0.2561084 -0.23184198 -0.25146103 -0.170447 -0.17619304 -0.27338028 -0.15383261
-0.16293909 -0.18882686 -0.25382212 -0.2807194 -0.38156527 -0.21285431 -0.22295858 -0.23922572
-0.19147183 -0.31446236 -0.30903164 -0.16768013 -0.18964107 -0.20879635 -0.176821 -0.30590072
-0.30988318 -0.25130132 -0.30732366 -0.2205352 -0.23733714 -0.3460923 -0.235536 -0.2911041
-0.17112651 -0.20009989 -0.26903287 -0.22222427 -0.27818415 -0.22754094 -0.26444903 -0.21127965
-0.29583228 -0.33123112 -0.30196112 -0.27708328 -0.35390472 -0.262008 -0.24914466 -0.11094072
-0.15198797 -0.26252517 -0.27536651 -0.3699866 -0.2650813 -0.26392898 -0.1504934 -0.27103037
-0.18844283 -0.28339607 -0.25512925 -0.18445145 -0.29187092 -0.18194743 -0.1538119 -0.21154241

layer2.1.running_mean f4 [128]
00000000: 5665 1c3e 8a62 67c0 bfa0 88c0 d364 a9be
00000010: 6697 30bf 512b 4c3f 1fef 91bf 3ed1 11bf
00000020: e3bb 6cc0 e55a 87bf ea30 7ec0 04e6 41c0
00000030: ce40 ccbf 8e13 98bf 098a d2bf 3716 24c0
00000040: c6e8 78c0 cd16 3740 7303 e33f f0ed 99be
00000050: 746f 9abf c9f9 25bf 88c3 cfbf c050 a9be
00000060: 9f19 02c0 5df8 07bf 4e3f c33f 5816 c13f
00000070: e9b1 6fc0 da40 0b3e bf00 0fbd aeef 41c0
00000080: 09d8 1ac0 0e73 383f a38b 2dc0 18b6 c4bf
00000090: 1bef 0ebd b0e8 55c0 a1b6 893e 0722 6cc0
000000a0: 6006 1bc0 c7fb 8dc0 92a3 0940 ca1d b4bd
000000b0: 8b8d 51c0 deb4 53c0 322a 8840 e67a 16c0
000000c0: d901 00c0 8a00 22c0 e176 24bf 91ff 5dc0
000000d0: de7e 8fc0 62c8 a7bf 8b23 81c0 d93d 10c0
000000e0: cb74 ed3e 2ef7 c5bf f785 ecbf efd4 503f
000000f0: 322a cc3f 04ca cc40 7dde 7cc0 cfed f9be
00000100: 6b0f 6ac0 b138 843e 134c 0c3e e0a5 0dc0
00000110: 85bf 19bf a7bc aec0 6107 5ac0 deab febe
00000120: c56e efbe ac78 df3c 6d16 9c3f 7bb1 31c0
00000130: 0dc5 1bc0 d997 dbbf e076 8ec0 992a a8bf
00000140: dae4 efbe 04e8 7abf 2c46 40c0 85d6 a13b
00000150: 8187 99c0 4867 fd3f b39c 03c0 ca12 e9bf
00000160: e35f 84c0 c6ba a3bf c654 c5bf 0f10 1dc0
00000170: 5d4f 4bc0 9694 56c0 ce14 3ec0 c661 91c0
00000180: 3c7a c2bb c050 f03f 2a12 41bf a76e 33be
00000190: 7a9f 5ebf abdd 04bf ba04 d3bf de09 07be
000001a0: 3b63 0ec0 5ad3 eabe 5f65 7dbf c990 c5bf
000001b0: b15c 5cc0 50d4 2fc0 2806 383f adc9 ce3f
000001c0: 4b97 fb3f 00a1 333f bbb1 73c0 b216 3ac0
000001d0: 583c 97bf c227 62c0 dbfe a03f 596f 25bf
000001e0: d7b7 70c0 381f 89c0 0c36 cfbf 4a52 04c0
000001f0: e4a4 eabf 37a9 c940 6b1a 8dbe 412a 51c0
0.15273032 -3.6153893 -4.2696223 -0.33084735 -0.68981016 0.79753596 -1.1401099 -0.56959903
-3.6989677 -1.0574614 -3.9717355 -3.029664 -1.5957277 -1.1880968 -1.6448375 -2.563856
-3.8892074 2.8607666 1.7735428 -0.30064344 -1.2065263 -0.64834267 -1.6231546 -0.3306942
-2.0328138 -0.5311335 1.5253694 1.5084944 -3.7452338 0.13598958 -0.03491282 -3.030254
-2.4194357 0.7205056 -2.7116477 -1.5368071 -0.034895997 -3.342327 0.26897147 -3.6895769
-2.422264 -4.4369845 2.1506085 -0.08794744 -3.274264 -3.3079143 4.255151 -2.3512511
-2.0001128 -2.531283 -0.64243895 -3.4687235 -4.4842367 -1.3108027 -4.0355887 -2.253775
0.46378168 -1.5466058 -1.8478383 0.8157491 1.5950377 6.39966 -3.9510796 -0.48814246
-3.657191 0.25824502 0.13700895 -2.2132492 -0.6005786 -5.460529 -3.4067004 -0.497405
-0.46764198 0.02727922 1.2194344 -2.7764575 -2.433902 -1.7155715 -4.452011 -1.3138
-0.46854287 -0.9801028 -3.004283 0.004938903 -4.797791 1.9797144 -2.0564392 -1.8208859
-4.136705 -1.2791374 -1.5416496 -2.4541051 -3.176719 -3.352819 -2.9700198 -4.543185
-0.0059349816 1.8774643 -0.7541834 -0.1752268 -0.8696209 -0.5190074 -1.6485817 -0.13187358
-2.2248065 -0.45864373 -0.98982805 -1.543481 -3.4431574 -2.7473335 0.71884394 1.6155297
1.9655546 0.7016754 -3.8077228 -2.9076352 -1.181529 -3.5336766 1.2577776 -0.6462303
-3.7612207 -4.285061 -1.6188369 -2.0675225 -1.8331571 6.301906 -0.27559218 -3.268204

layer2.1.running_var f4 [128]
00000000: 0fa8 6341 408e 9c41 f091 8e41 60be 8a41
00000010: a9c2 4a41 97dc 6c41 41ee 7341 d337 6a41
00000020: 94cd ba41 dd40 0c42 f667 ef41 6958 a841
00000030: 0425 7c41 89c3 7741 5286 d041 7222 eb41
00000040: 0e9b cd41 6c6d 7f41 61da a241 f24c d741
00000050: e47a 6441 37b1 8641 5f37 6d41 e602 6a41
00000060: cf45 bd41 4f9d a941 c0e3 5c41 f407 a141
00000070: bc1d b841 fd94 7741 1378 0841 b107 8541
00000080: 99fc 8c41 8261 5e41 1028 8c41 1715 9741
00000090: 6c51 2541 b290 f841 a930 9941 2632 d541
000000a0: 3305 9541 4e69 d841 222a 3f41 bcf6 e241
000000b0: ce1e d241 669a 9d41 9268 b341 f649 9341
000000c0: 51e6 5c41 7f51 f641 b8a7 2c41 747d a441
000000d0: a7c2 0842 bd5e 3241 0048 0842 0a81 7d41
000000e0: 09eb 4241 4252 9b41 b477 4f41 4aa0 4a41
000000f0: 879e 8841 1d64 0842 773f 9e41 40df 5d41
00000100: 7080 8841 41bd 0142 7f41 f541 da70 3841
00000110: 1b0c 6241 866c 0842 a750 9f41 0274 5441
00000120: 1153 ca41 7bc2 5441 d037 4e41 956b c041
00000130: 6a65 7e41 9f6f 8741 8569 cc41 a5b5 0641
00000140: 444d 4e41 b2b8 b141 62d5 bf41 d7c4 3a41
00000150: 4e0a e141 628b 3741 c1e9 4b41 0cd2 8741
00000160: c228 ed41 8d08 9941 ff75 6641 7502 8141
00000170: 73e6 9e41 9e08 b541 d4d5 e941 acaa 1a42
00000180: d3fe 5241 7219 4341 40f5 b141 095c 2541
00000190: 68c0 6f41 53c8 5341 8a5d ae41 6814 6741
000001a0: a7c0 c541 beaf 8841 cb0d e041 876d 8441
000001b0: d1b2 ab41 186c 9b41 9806 c441 3831 6f41
000001c0: 8c72 6041 0a27 5141 584a c641 1826 8341
000001d0: 7962 3841 58ca 2442 eaac ca41 aa2d b441
000001e0: 5ad1 9a41 ca9d 0842 1892 6141 3335 9f41
000001f0: 1e12 9241 6301 0242 02a9 4441 e534 9041
14.22853 19.569458 17.821259 17.342957 12.672524 14.803855 15.245667 14.638629
23.35038 35.063343 29.925762 21.043169 15.759037 15.485238 26.065586 29.391819
25.70071 15.964214 20.35663 26.91257 14.280003 16.83653 14.826018 14.625708
23.659086 21.20181 13.805603 20.128883 23.014519 15.473874 8.529315 16.628756
17.623339 13.898806 17.519562 18.885298 10.332378 31.070652 19.14876 26.649487
18.627539 27.051418 11.947786 28.370476 26.265041 19.70039 22.42606 18.411114
13.80623 30.789793 10.790947 20.561256 34.19009 11.148129 34.070312 15.844004
12.182382 19.415165 12.966724 12.664133 17.077406 34.097767 19.780989 13.867004
17.062714 32.43482 30.65698 11.527552 14.127955 34.10598 19.914381 13.278322
25.29056 13.297481 12.888626 24.05253 15.899759 16.929502 25.551523 8.419347
12.893864 22.215183 23.97919 11.673057 28.130032 11.471529 12.744569 16.977562
29.644901 19.129175 14.403808 16.1262 19.862524 22.629208 29.229408 38.66667
13.187213 12.193712 22.244751 10.3349695 14.984474 13.236407 21.795673 14.442482
24.719069 17.085812 28.006735 16.55348 21.462313 19.42778 24.50322 14.949516
14.027966 13.072031 24.7863 16.3936 11.524041 41.1976 25.33443 22.522297
19.352222 34.15409 14.098167 19.900976 18.258846 32.501354 12.291262 18.025827

linear1.weight f4 [4, 16000]
00000000: 271d 393d 66ed f63c 0beb 59bd ff7c cdbd
00000010: 8012 81bd b053 9bbc dca6 9f3c bc22 8ebd
00000020: de90 293d 16cb 1ebc 9cea 873b 1631 59bd
00000030: 41f6 12bd cb3f c23c e91c 4b3d 07d4 3b3b
00000040: c4ef 6bbd 07e5 1fbb 152c 1c3d 4c4f d93c
00000050: 9267 7b3c 3cb0 fdbc 38ab f63c 39f7 393d
00000060: ae86 8d3d 3122 ea3c 005e 54bd d331 79bc
00000070: 497f 84bc 1e9c b7bd 2f71 46bd aeb2 d339
00000080: 614b e03c 9aef 0e3d 5f0b 4c3b bc88 0b3d
00000090: 9069 f5bc 929b dabc b1d2 39bb 5a80 0fbc
000000a0: 8915 f43c 7c18 913c 8bb3 033a 59a8 73bd
000000b0: 7af4 c5bd 72d0 8abd 79b3 753c bc78 3a3c
000000c0: 1ee8 69bd f629 9c3c be8b 66bd a619 93bc
000000d0: 0c73 63bd bf79 5cbc b04b 5f3d 258b 1b3c
000000e0: 57ac 55bd 8aeb 7abd aa47 68bb fcf8 5abd
000000f0: dbf3 18bc e6d1 1a3d fa4e 20bd 8fd6 acbb
00000100: a853 a33d 578e 2f3d a230 73bc 8915 9fbb
00000110: 6924 54bd fcae 9ebc 8334 46bd 38c8 f2bc
00000120: f7e9 bebc 19ae 6dbc a926 943d 1179 5cbd
00000130: 370b 1b3d b2a1 a0bd 2bc4 b63d 0b78 7b3a
00000140: 39b3 0abb 9841 97bd 0420 0ebb 17bc e8bb
00000150: 7cfc e13c ef39 9e3c a16f 3abd 402a 09bd
00000160: b5d5 90bd 4ddc b1bd cebf a9bd 6f52 41bd
00000170: 7d64 a4bc 84d2 30bd cd05 11bd d37f e03c
00000180: 9c78 9abc c8f5 61bd 2072 a1bd 698f 41bd
00000190: 5e4b 9dbd b161 08bc cf5f 2a3d e8d9 313d
000001a0: f3d7 993d 3c1b a13b 0b24 7bba 1ef1 46bd
000001b0: 19cb 39bc bfad 253d 4989 45bd 5a27 66bc
000001c0: 0397 e4bb 00f6 a83a c1b1 613c 87e2 5bbd
000001d0: 0812 40bc a0f8 173c 8db1 92bc 1a08 c33c
000001e0: 00fc 36bd 1259 9b3c c532 513d 9df7 0c3d
000001f0: 2237 203d d5ee 7abd 9101 94bd 2f06 99bd
00000200: 8646 c1bd 3427 c4bd e3c2 bebd 9b61 a7bd
00000210: 5992 08be 73d7 01be a0c5 6bbd 4eb3 8dbd
00000220: a87b afbd 7d38 b9bd 6452 fbbd 4543 b3bd
00000230: a072 85bd d491 a2bd e557 edbd b7ae e5bc
00000240: 1d80 3bbd ef2e f9bd e577 30bd b252 f3bd
00000250: 2fa6 69bd 0805 afbd 1e07 9cbd d1bb 00bd
00000260: 87a1 9bbd 2649 0cbe 85d8 debd 2bb0 fabd
00000270: 1140 dcbd 1a47 d7bd a78e bebd 9ea0 3cbd
00000280: 2199 b9bd d7f2 bcbd baf6 92bd 2348 aebd
00000290: 6fde 75bd 97a0 ebbd e3a1 c3bd 14cf 9ebd
000002a0: 386c b1bd 97b7 00be f387 07be 9691 dfbd
000002b0: cbf4 43bd f94e 82bd 9324 a5bd 9d12 f7bd
000002c0: 1ef4 b4bb fc65 ccbd 7354 2dbd 1ae9 04be
000002d0: 88fd 19be 6f44 b8bd 844d 0abe 26b7 87bc
000002e0: 87cb edbc d3fe 02be 7e27 d2bd b638 62bd
000002f0: 7b95 05be 966a 08be 799a bfbd 7e99 70bd
00000300: c438 b2bd 664a 09be 5850 a4bd 53f7 b0bd
00000310: 4174 08be c693 c9bd c4be 5bbd 25e4 0abe
00000320: e9ea a4bd 8de1 26be f8a7 b6bd d438 e8bd
00000330: a37c 98bd 7e4f f6bd 0fa5 afbd 521b 91bb
00000340: 6f19 57bd 13d5 3fbd 1cc0 3abd df36 a7bd
00000350: 4861 c3bd 5ba6 09bd 2d2a d0bd eb28 abbd
00000360: 72d1 01be f8a7 97bd 7087 01be da09 7cbd
00000370: ba6c d7bd 0d45 dcbd a8f1 93bd 3d97 37be
00000380: cc3b babd 09ce 12be 71e3 34bd 8183 8fbc
00000390: 63d9 7bbd 0fd2 7abd c7fc 86bd 3e54 adbd
000003a0: d322 b1bd ca52 9abd 1ddd 8bbd 4321 88bd
000003b0: 9418 a5bd 55ed c5bd 50e3 b8bd 3d13 d1bd
000003c0: 3699 0abe 9a98 08be 4712 c4bd 74bf 4bbd
000003d0: 1928 3ebd ad4b 07be 9734 97bd 1369 8bbd
000003e0: 1e8f 58bd 2ba0 2ebb 8f96 1fbd b8c0 a23c
000003f0: f676 2cbc 6e80 ab3c e24f ce3d 8e23 29bd
0.045193817 0.030142497 -0.05320267 -0.10033607 -0.06302357 -0.018960804 0.019488744 -0.06940219
0.04139792 -0.009691974 0.0041478407 -0.053025328 -0.035879377 0.02371206 0.049588118 0.0028660314
-0.057601705 -0.0024397986 0.038127977 0.02652707 0.015344517 -0.030967824 0.03011094 0.045401786
0.06910454 0.028580757 -0.051847458 -0.015209633 -0.016173976 -0.08965324 -0.048447784 0.00040378183
0.027379693 0.03489647 0.0031134707 0.034065947 -0.029957563 -0.02668551 -0.0028354342 -0.008758629
0.029795425 0.01771187 0.00050240074 -0.05948672 -0.09665771 -0.06778039 0.014996403 0.011381324
-0.05710613 0.019062977 -0.056285612 -0.017956566 -0.05552964 -0.013456761 0.05451554 0.009493624
-0.05216631 -0.061259784 -0.0035443106 -0.053460106 -0.009335483 0.03779783 -0.039137818 -0.005274601
0.079749405 0.042860355 -0.014843138 -0.004854862 -0.051792536 -0.019370548 -0.048389923 -0.029636487
-0.023304923 -0.01450684 0.07233936 -0.053826395 0.037852492 -0.07843341 0.08924135 0.0009592778
-0.0021163954 -0.07385558 -0.0021686563 -0.0071025 0.027586214 0.019314734 -0.045516614 -0.03348756
-0.070720114 -0.08684597 -0.08288537 -0.047197755 -0.020067448 -0.043169513 -0.035405923 0.027404701
-0.01885634 -0.055166036 -0.07883096 -0.047255907 -0.07680391 -0.008324073 0.041595276 0.043420702
0.07511892 0.0049165767 -0.0009580261 -0.04856979 -0.011339926 0.0404489 -0.04822663 -0.014047468
-0.00697601 0.0012890697 0.01377529 -0.05368283 -0.011723049 0.009275585 -0.017906928 0.023807574
-0.04467392 0.01896337 0.05107381 0.03441583 0.03911508 -0.061262924 -0.07226861 -0.074718826
-0.094372794 -0.0957779 -0.093145154 -0.08172914 -0.13337077 -0.12679844 -0.057561517 -0.06918965
-0.085685074 -0.090439774 -0.12271574 -0.08753065 -0.065160036 -0.07937971 -0.1158903 -0.028037412
-0.045776475 -0.12167155 -0.04308309 -0.11881007 -0.05704325 -0.085458815 -0.07618545 -0.031429116
-0.07599168 -0.13699779 -0.108811416 -0.122406326 -0.10754407 -0.105116084 -0.093045525 -0.046051614
-0.0906241 -0.092260055 -0.071759656 -0.08509853 -0.060026582 -0.115052395 -0.09552362 -0.07754341
-0.08663219 -0.12570034 -0.13235454 -0.1091644 -0.047840875 -0.06362719 -0.080636166 -0.12064097
-0.005522265 -0.099803895 -0.042316865 -0.12979546 -0.15038121 -0.08997428 -0.13506132 -0.016566824
-0.029027713 -0.1279252 -0.10261439 -0.055229865 -0.13045304 -0.1332191 -0.09355635 -0.05874013
-0.087022334 -0.13407287 -0.08023137 -0.08640923 -0.13325597 -0.09842639 -0.053648725 -0.13563593
-0.08052618 -0.16296978 -0.08918756 -0.11338964 -0.074456476 -0.12026881 -0.08576404 -0.0044283057
-0.05251449 -0.046834063 -0.045593366 -0.08164763 -0.09540039 -0.033605915 -0.101642944 -0.08357414
-0.12677553 -0.07405084 -0.12649322 -0.061532833 -0.10518785 -0.10755358 -0.07223827 -0.17928787
-0.090934366 -0.14336409 -0.044162218 -0.01751876 -0.061486613 -0.061235484 -0.06591182 -0.084633335
-0.0864922 -0.07535322 -0.068292834 -0.06646969 -0.080613285 -0.09664408 -0.090277314 -0.102087475
-0.13535008 -0.13339463 -0.095737986 -0.04974313 -0.04642496 -0.13212462 -0.073830776 -0.06807151
-0.052870862 -0.002664576 -0.038961943 0.019867286 -0.010526409 0.020935263 0.1007383 -0.041293673

linear1.bias f4 [4]
00000000: 4792 8cbd 539d c93c 1f37 c03c a59f a0bc
-0.06863838 0.02461115 0.023463784 -0.019607374
