bearings/outdated/CWRU/Model/model_12k_9k.pth (torch, 431754 bytes, 14 tensors)

layer1.0.weight f4 [64, 1, 9]
-0.2854416 0.113677755 0.14211173 0.20427941 0.20518579 -0.22431481 -0.37107074 -0.20929535
-0.31699586 0.2501541 -0.030727899 0.23289913 -0.17667964 0.27190903 -0.12571421 0.017445201
-0.26417625 -0.10792686 -0.32661286 0.27487803 -0.13302185 -0.19192088 -0.22733656 -0.30549583
0.050999716 -0.5069479 0.07698089 -0.23297878 0.17427696 0.17676455 -0.43136984 0.33304906
-0.11469653 -0.121854395 0.14992252 -0.04115471 -0.048263866 -0.33053198 -0.18067083 0.13040966
0.08356805 0.20517498 -0.18573232 -0.41766387 -0.09636924 0.20905076 0.035937503 -0.3166845
-0.2172862 0.32070273 0.32840022 -0.1475444 -0.28126988 -0.022301609 0.058203124 -0.19380133
0.08557351 0.064485945 -0.107367545 0.2993486 0.17220204 0.27257636 -0.40339828 -0.27006826
0.12969363 0.12047408 0.051393945 -0.055557124 -0.100570224 -0.18630187 0.34979463 -0.17297287
-0.08812844 0.0502047 -0.3155169 0.1641905 -0.05451041 0.05416139 0.044280887 -0.22919378
0.0137085775 0.045332257 0.06727864 -0.121901095 0.1966807 -0.30844352 0.28032127 -0.28498897
0.21890824 -0.20080672 -0.06604733 -0.34202287 0.20627643 0.004841795 -0.15898651 -0.27652824
-0.04984699 -0.010258745 -0.46173343 0.15280356 0.18679409 0.2758615 -0.16134042 -0.11071977
0.11020481 0.38459247 0.06568438 0.15791035 0.013192327 -0.32283738 0.28421935 -0.055575002
0.24918394 -0.023120206 0.11720495 0.07233116 -0.21856315 -0.1924038 -0.17866929 -0.3882941
-0.2893373 -0.06255884 -0.2674499 -0.22529273 0.023115866 0.010506944 0.3277785 0.18551353
0.2780168 -0.015880961 0.36530703 0.090494305 0.2996722 0.044594973 0.37431768 -0.23786438
-0.26085585 -0.06659074 -0.17674842 -0.30518517 -0.07818481 -0.33791003 -0.17490084 -0.2061055
-0.17564206 -0.39056963 -0.036682878 -0.16443457 -0.16221236 0.17860942 0.31877154 0.15143442
0.35665357 0.082979016 0.109755196 -0.04980503 0.017149815 -0.25613585 -0.38416684 -0.31610778
-0.22987552 -0.09480958 0.14537942 -0.24731423 -0.075739264 -0.22463362 0.05363359 -0.10408089
-0.017982664 -0.33459145 0.027090585 -0.06655811 0.094152264 -0.33071157 0.34967706 -0.30678725
0.27598414 -0.26210675 0.24600752 -0.26229587 0.16484153 -0.35230625 0.15586904 -0.120787166
-0.049015503 -0.13417198 0.056241166 0.21152255 -0.35996836 0.1586193 -0.09406391 -0.04064625
-0.032655448 0.12500912 -0.11940032 0.18606718 -0.3267901 0.28008354 -0.18541364 -0.2488884
0.1997855 -0.43407908 0.11597505 -0.38484943 -0.009860681 0.21179561 -0.045268107 -0.27343073
0.020780677 -0.31960455 0.08618188 -0.12788177 0.10132709 -0.32176378 -0.0881061 -0.38904992
0.25549427 0.14884628 0.11671069 0.15295011 0.1558529 0.14645632 0.28386497 0.21070404
0.2907259 0.0331795 -0.3175332 0.06496903 0.29664928 0.08325726 -0.23300748 0.07104252
-0.107063524 -0.35353237 0.27344128 -0.14534728 -0.15420222 -0.097325794 -0.2802303 0.069004565
-0.2845062 0.24534877 -0.36619237 -0.23083743 0.098073006 0.044001326 0.26979798 -0.040523347
0.18789823 -0.07069764 0.36158326 0.033335194 -0.21981172 0.0458164 -0.33139944 0.15250947
00000000: 6725 92be e2cf e83d bd85 113e 9f2e 513e
00000010: 391c 523e c8b2 65be fcfc bdbe 8551 56be
00000020: 484d a2be 3314 803e 13b9 fbbc 1c7d 6e3e
00000030: 82eb 34be a937 8b3e 3abb 00be 3de9 8e3c
00000040: 1c42 87be c208 ddbd cd39 a7be d0bc 8c3e
00000050: e136 08be e886 44be eaca 68be f369 9cbe
00000060: 14e5 503d 56c7 01bf 28a8 9d3d fd91 6ebe
00000070: a975 323e c401 353e 82dc dcbe 6885 aa3e
00000080: 04e6 eabd cc8e f9bd 4a85 193e d791 28bd
00000090: 55b0 45bd 7d3b a9be c601 39be 1c8a 053e
000000a0: ba25 ab3d 6419 523e 9d30 3ebe 0ad8 d5be
000000b0: 3c5d c5bd 6711 563e 3433 133d 7924 a2be
000000c0: 4680 5ebe 2633 a43e 1324 a83e e115 17be
000000d0: 9b02 90be ddb1 b6bc 6666 6e3d db73 46be
000000e0: 2a41 af3d 3511 843d 84e3 dbbd 3844 993e
000000f0: bb55 303e 218f 8b3e 388a cebe 6346 8abe
00000100: 68ce 043e 1dbb f63d 7582 523d de8f 63bd
00000110: c3f7 cdbd ebc5 3ebe 4818 b33e cd1f 31be
00000120: af7c b4bd 72a3 4d3d 6e8b a1be 8e21 283e
00000130: 4f46 5fbd 55d8 5d3d e05f 353d c6b1 6abe
00000140: f199 603c 51ae 393d 62c9 893d 48a7 f9bd
00000150: aa66 493e 4fec 9dbe 4586 8f3e 13ea 91be
00000160: 7b29 603e 47a0 4dbe d343 87bd 9f1d afbe
00000170: 213a 533e eca7 9e3b 5ccd 22be 1c95 8dbe
00000180: 5b2c 4cbd 4c14 28bc 5368 ecbe 8978 1c3e
00000190: f346 3f3e b83d 8d3e 6c36 25be 0cc1 e2bd
000001a0: 0fb3 e13d 4ee9 c43e 8885 863d 40b3 213e
000001b0: a124 583c f14a a5be 3385 913e 9da2 63bd
000001c0: 132a 7f3e 9666 bdbc 2609 f03d 5c22 943d
000001d0: 05cf 5fbe 8005 45be 15f5 36be 7cce c6be
000001e0: 0524 94be d91e 80bd 31ef 88be 23b3 66be
000001f0: 7c5d bd3c 5125 2c3c 95d2 a73e 42f7 3d3e
00000200: 3858 8e3e ca18 82bc 8609 bb3e 1455 b93d
00000210: a26e 993e 38a9 363d 91a6 bf3e b892 73be
00000220: e68e 85be ba60 88bd 8afd 34be 3b41 9cbe
00000230: 5c1f a0bd 8b02 adbe 3519 33be 520d 53be
00000240: 83db 33be bef8 c7be c940 16bd 8961 28be
00000250: ff1a 26be 63e5 363e 0636 a33e a011 1b3e
00000260: 4c9b b63e e7f0 a93d 55c7 e03d 5c00 4cbd
00000270: c57d 8c3c 3d24 83be 84b1 c4be e1d8 a1be
00000280: 7d64 6bbe 862b c2bd 58de 143e f13f 7dbe
00000290: 301d 9bbd 5b06 66be e5ae 5b3d 5d28 d5bd
000002a0: 6150 93bc 924f abbe 13ed dd3c 9e4f 88bd
000002b0: e7d2 c03d 0753 a9be df08 b33e 3813 9dbe
000002c0: cb4d 8d3e db32 86be 65e9 7b3e a54b 86be
000002d0: 38cc 283e 7c61 b4be 229c 1f3e 435f f7bd
000002e0: 7bc4 48bd 6164 09be 235d 663d 5e99 583e
000002f0: c64d b8be 196d 223e 94a4 c0bd af7c 26bd
00000300: b8c1 05bd 6402 003e 2888 f4bd 6588 3e3e
00000310: 0851 a7be 1c67 8f3e 13dd 3dbe 9adc 7ebe
00000320: 9294 4c3e 9d3f debe 5484 ed3d fc0a c5be
00000330: b28e 21bc f3e0 583e 0d6b 39bd 1dff 8bbe
00000340: 3d3c aa3c 35a3 a3be 2080 b03d 70f3 02be
00000350: 9484 cf3d 39be a4be f970 b4bd 8d31 c7be
00000360: 25d0 823e 296b 183e 0406 ef3d f49e 1c3e
00000370: e797 1f3e a5f8 153e c056 913e cdc2 573e
00000380: 06da 943e 3ae7 073d b693 a2be 7c0e 853d
00000390: 6ae2 973e c882 aa3d 8399 6ebe be7e 913d
000003a0: 1f44 dbbd 3202 b5be 7f00 8c3e ebd5 14be
000003b0: 30e7 1dbe bf52 c7bd 597a 8fbe 4452 8d3d
000003c0: ccaa 91be b53c 7b3e 917d bbbe a660 6cbe
000003d0: 80da c83d bc3a 343d f622 8a3e cffb 25bd
000003e0: 6568 403e edc9 90bd 7121 b93e 7c8a 083d
000003f0: 5316 61be faa9 3b3d 30ad a9be 712b 1c3e

layer1.0.bias f4 [64]
-7.358537e-05 0.00049595267 0.00018646182 5.2585987e-05 5.80316e-05 -0.00019752879 5.4327524e-05 0.00018726739
0.0001655242 7.558293e-05 -2.0951125e-05 -0.00015213895 0.00015265316 -1.2317863e-05 -2.9112423e-05 0.00020803466
-0.00017877074 9.1252514e-05 -0.00019723356 -0.00018958896 -0.00023870241 0.00023810417 7.181003e-05 8.934634e-05
3.1565265e-05 -7.249899e-05 -0.0002231412 0.00028601233 0.0002140916 0.0004998089 0.000118961456 0.00017407154
-8.622531e-05 6.342638e-06 -1.47091805e-05 3.2287477e-05 0.000185309 -0.0006061513 0.00060551136 -1.263622e-05
3.6736685e-05 -4.051197e-05 0.00030028645 3.0603755e-05 -0.00019047069 0.0003914796 -0.00034891456 0.0004676655
4.6114947e-05 -5.644991e-05 2.3013696e-05 0.00012265454 1.1338647e-05 0.00016319289 0.00029439505 0.0006483751
-0.00011937668 0.00041644156 -1.7768765e-05 -0.00050345296 0.00046654415 -0.00016804619 -2.8764454e-05 9.132105e-06
00000000: d851 9ab8 d202 023a f784 4339 c68f 5c38
00000010: f566 7338 bb1f 4fb9 bcdd 6338 355d 4439
00000020: 9090 2d39 4782 9e38 33c0 afb7 7d87 1fb9
00000030: 8511 2039 d2a8 4eb7 7436 f4b7 e123 5a39
00000040: 6874 3bb9 d25e bf38 7bd0 4eb9 66cc 46b9
00000050: 314c 7ab9 9aab 7939 b798 9638 735f bb38
00000060: f264 0438 990a 98b8 03fb 69b9 edf3 9539
00000070: c77d 6039 9c05 033a f27a f938 f986 3639
00000080: dcd3 b4b8 d8d2 d436 73c7 76b7 6a6c 0738
00000090: 824f 4239 20e6 1eba 2ebb 1e3a 2700 54b7
000000a0: b715 1a38 66eb 29b8 c46f 9d39 885c 0038
000000b0: 16b9 47b9 813f cd39 85ee b6b9 0031 f539
000000c0: 8c6b 4138 a1c4 6cb8 890d c137 d49c 0039
000000d0: 1e3b 3e37 c21e 2b39 0959 9a39 b7f7 293a
000000e0: de59 fab8 d755 da39 220e 95b7 28fa 03ba
000000f0: 7f9a f439 8e35 30b9 324b f1b7 1836 1937

layer1.1.weight f4 [64]
0.75244176 1.0512753 1.0353808 0.8017699 0.7953002 0.93884933 0.89115465 0.85762477
0.836936 1.0237473 0.89176077 0.824296 0.89991057 0.89841604 1.0904446 0.9245249
0.8783914 0.9707929 0.9589496 1.0458974 0.9689578 0.8285163 0.82674575 0.9594197
0.99397504 0.85687757 1.021094 0.89397055 0.8422961 0.99469686 0.853632 0.8674027
1.0001526 0.9856817 0.9493905 1.0071814 1.3791289 1.0553548 1.3016148 1.0232716
1.0574502 0.890557 0.88788146 0.79317486 0.89883304 1.0521902 0.9599747 1.09193
0.81790364 0.8750761 1.0365002 0.8882129 1.133625 0.91031337 0.930265 1.3126153
0.79531026 0.9037319 0.8763279 1.0279909 0.93110174 0.9317956 0.85173863 0.8408431
00000000: 06a0 403f 3090 863f 5c87 843f cb40 4d3f
00000010: cb98 4b3f 6e58 703f b622 643f 4c8d 5b3f
00000020: 7041 563f 270a 833f 6f4a 643f 1005 533f
00000030: 8a60 663f 98fe 653f b093 8b3f aaad 6c3f
00000040: 42de 603f e285 783f b97d 753f f7df 853f
00000050: 9e0d 783f a519 543f 9ca5 533f 889c 753f
00000060: 2675 7e3f 545c 5b3f 35b3 823f 41db 643f
00000070: b8a0 573f 74a4 7e3f a087 5a3f 1a0e 5e3f
00000080: 0005 803f a355 7c3f 410b 733f 52eb 803f
00000090: 4c87 b03f de15 873f 509b a63f 90fa 823f
000000a0: 875a 873f 8bfb 633f 334c 633f 820d 4b3f
000000b0: ec19 663f 2bae 863f e7c0 753f 5dc4 8b3f
000000c0: 2262 513f fd04 603f 0aac 843f ec61 633f
000000d0: a01a 913f 4c0a 693f d925 6e3f c703 a83f
000000e0: 7499 4b3f f95a 673f 0657 603f 3595 833f
000000f0: af5c 6e3f 288a 6e3f 8b0b 5a3f 7e41 573f

layer1.1.bias f4 [64]
-0.33281335 -0.29147547 -0.5065642 -0.053732663 -0.35069877 -0.2625485 -0.550548 -0.098240554
-0.03094852 -0.23291305 -0.31361994 -0.24806862 -0.39589685 -0.41200513 -0.21586353 -0.37697193
-0.3707065 -0.43995273 -0.023390925 -0.21713303 -0.35434312 -0.075610094 -0.03078458 -0.11085323
0.07276369 -0.43246186 -0.39028105 -0.06330467 -0.6116595 -0.15718526 -0.057231463 -0.23683299
-0.24485092 -0.3162457 -0.46445668 -0.18203564 -0.072969764 -0.13438098 -0.022607857 -0.28069687
-0.25265342 -0.2835402 -0.3920544 -0.516508 -0.113047175 -0.27419108 -0.13077338 -0.19330075
-0.3898487 -0.39169917 -0.25795934 -0.4117023 -0.11345513 -0.454981 -0.032786403 -0.039848108
-0.40647113 -0.36285278 -0.16055305 -0.09197131 -0.47598612 -0.26674047 -0.52507675 -0.38335466
00000000: 8366 aabe 463c 95be 31ae 01bf c816 5cbd
00000010: ca8e b3be c26c 86be b7f0 0cbf 5832 c9bd
00000020: c087 fdbc c280 6ebe cb92 a0be b305 7ebe
00000030: feb2 cabe 56f2 d2be 540b 5dbe 7702 c1be
00000040: 3ecd bdbe 7c41 e1be 539e bfbc 1f58 5ebe
00000050: 766c b5be 77d9 9abd f22f fcbc 0507 e3bd
00000060: 2105 953d a46b ddbe ebd2 c7be e1a5 81bd
00000070: b895 1cbf 2cf5 20be 8a6b 6abd 5984 72be
00000080: 33ba 7abe f5ea a1be 44cd edbe 8d67 3abe
00000090: 2c71 95bd 2b9b 09be 1d34 b9bc 80b7 8fbe
000000a0: ca5b 81be 2e2c 91be 5bbb c8be de39 04bf
000000b0: 4785 e7bd c662 8cbe 75e9 05be a2f0 45be
000000c0: 409a c7be cb8c c8be 3f13 84be a5ca d2be
000000d0: 2a5b e8bd 45f3 e8be 094b 06bd c537 23bd
000000e0: fc1c d0be d7c7 b9be 0568 24be 745b bcbd
000000f0: 74b4 f3be 3592 88be 6e6b 06bf 1047 c4be

layer1.1.running_mean f4 [64]
-0.00028453287 0.00032844068 -0.00027954715 -6.642857e-05 -0.0002540576 -0.00020300494 0.0003392737 9.885385e-05
-7.6932585e-05 0.00012541562 -0.00049307465 0.00023030266 0.00017443618 -0.0006543731 0.00079531036 -0.00073432166
-4.0285464e-05 -0.00051344786 -0.00036249435 -6.8171794e-05 -0.00030923597 0.00015925008 -0.00024508554 -0.00045364912
0.0008042154 -0.00023530818 -0.0004241235 0.00076627487 0.00028640404 -0.00042773143 -3.9743274e-05 0.00036757477
-0.00037102815 0.00054653874 0.00012322536 -5.1719264e-05 0.0008173057 -0.000979373 -0.00018923424 -0.00087111676
-0.00027680895 -0.00012417 3.313483e-05 0.00012690308 -2.6829677e-05 0.00079284754 6.229641e-07 3.0270976e-05
-6.700443e-05 2.8187622e-05 4.2490967e-05 0.000120842145 -0.00056530116 3.139665e-05 -9.903039e-05 0.00081488787
-0.00022527933 0.0006540494 0.00015202285 -0.00056814397 0.00044865266 0.00021026617 -8.064356e-05 6.416843e-05
00000000: 5b2d 95b9 9032 ac39 2f90 92b9 914f 8bb8
00000010: 0933 85b9 b9dd 54b9 8ce0 b139 c24f cf38
00000020: de56 a1b8 0082 0339 ae41 01ba 667d 7139
00000030: dbe8 3639 3c8a 2bba 607c 503a 7e7f 40ba
00000040: 30f8 28b8 e798 06ba 2b0d beb9 74f7 8eb8
00000050: f320 a2b9 5efc 2639 d37e 80b9 c1d7 edb9
00000060: fbd1 523a 0fbd 76b9 e45c deb9 d6df 483a
00000070: 8028 9639 2441 e0b9 04b2 26b8 0db7 c039
00000080: 8e86 c2b9 9845 0f3a 0e36 0139 23ed 58b8
00000090: 7540 563a 4e5e 80ba 2e6d 46b9 a85b 64ba
000000a0: ab20 91b9 a133 02b9 41fa 0a38 4911 0539
000000b0: 4b10 e1b7 19d7 4f3a c439 2735 6dee fd37
000000c0: bb84 8cb8 7574 ec37 5438 3238 a26c fd38
000000d0: b830 14ba e5af 0338 89ae cfb8 339e 553a
000000e0: f638 6cb9 8374 2b3a 5368 1f39 7fef 14ba
000000f0: 2439 eb39 e57a 5c39 2e1f a9b8 2a92 8638

layer1.1.running_var f4 [64]
0.5245441 0.11538393 0.6439643 0.9540856 0.34998623 0.23478019 0.31455922 0.34125265
0.22737937 0.13469905 0.464115 0.23436944 0.25321212 0.44350034 0.41276687 0.45119002
0.57025975 0.35952845 0.14955716 0.1390619 0.36406997 0.21774971 0.59125274 0.25653917
0.36350614 0.45964414 0.36426938 0.15720478 0.22900221 0.06267069 0.40528727 0.24789327
0.30701607 0.37451974 0.18304116 0.37891358 0.3205158 0.30489987 0.42179883 0.5531263
0.1334334 0.33949575 0.30582306 0.6332091 0.28126982 0.33389944 0.16862743 0.17054255
0.64415133 0.35709593 0.11437307 0.30948594 0.22966562 0.4380293 0.38570577 0.42997485
0.36945403 0.22623764 0.22943895 0.07796242 0.2418121 0.2777426 0.18772699 0.6527449
00000000: 8648 063f 694e ec3d d8da 243f f43e 743f
00000010: 6531 b33e 386a 703e e80d a13e abb8 ae3e
00000020: 23d6 683e 8cee 093e 7ba0 ed3e 8bfe 6f3e
00000030: 05a5 813e 7a12 e33e 2e56 d33e 6102 e73e
00000040: 8bfc 113f 1d14 b83e 8325 193e 3e66 0e3e
00000050: 6167 ba3e c8f9 5e3e 575c 173f 1a59 833e
00000060: 7a1d ba3e 7a56 eb3e 8481 ba3e 4afa 203e
00000070: 8e7f 6a3e 7e59 803d d081 cf3e bcd7 7d3e
00000080: 3631 9d3e 0dc1 bf3e 246f 3b3e f600 c23e
00000090: a61a a43e d61b 9c3e 04f6 d73e af99 0d3f
000000a0: c4a2 083e 63d2 ad3e d794 9c3e fe19 223f
000000b0: 9902 903e def4 aa3e abac 2c3e b5a2 2e3e
000000c0: 1ae7 243f 47d5 b63e 6e3c ea3d f174 9e3e
000000d0: 772d 6b3e 6045 e03e 3a7b c53e aa25 dc3e
000000e0: 1429 bd3e d7aa 673e 0bf2 6a3e c3aa 9f3d
000000f0: 979d 773e 4734 8e3e 813b 403e 4a1a 273f

layer2.0.weight f4 [128, 64, 5]
-0.051156543 -0.06482814 0.02736758 -0.031038696 0.01713058 -0.067349836 -0.039071225 -0.02359308
-0.043228377 0.09073812 0.008680606 0.06850811 -0.073291145 0.00038754 0.050718904 -0.08148074
-0.121886745 -0.067355216 -0.007838502 -0.12541094 -0.0034425536 -0.0060570403 0.09640302 0.041134305
0.08274157 -0.060174122 -0.07947517 0.00965638 0.06530948 0.09349001 0.04332048 -0.0641177
0.071372464 -0.056255046 -0.0347274 -0.035269637 -0.08807251 -0.017660802 0.022799008 0.010910754
0.06304438 0.028129881 0.104962274 -0.050338786 0.07667289 0.0514668 0.023737282 0.03407976
0.10542154 0.08906898 0.17682621 -0.0014327242 0.077900626 -0.0008669886 0.11714625 0.04193598
0.025352128 -0.03851878 -0.05630069 -0.08877832 0.083452865 -0.07059864 0.0019908154 -0.022893034
-0.041171663 -0.0010109082 0.05322457 -0.010012397 -0.043648593 -0.13552289 -0.10676374 -0.078541815
-0.09535727 -0.096703194 -0.11671438 0.15251946 -0.012498321 -0.0140780145 -0.016189309 0.1304431
-0.06836571 0.0018270239 -0.085172705 -0.114267685 -0.14816198 -0.09133705 -0.12711373 -0.1111977
0.0038902059 -0.032695904 0.106471024 0.09149511 0.028669339 0.026183268 0.14477897 0.1183681
-0.03279476 0.13450359 0.12010807 0.05977962 0.113727644 0.025828695 0.0038242028 -0.080435395
0.00056696165 -0.018862331 -0.010556563 -0.09952845 0.0040361723 0.06633886 0.15555471 0.10041306
0.06935106 -0.022426492 -0.031494 0.078214474 0.13934588 0.06946137 0.10026462 0.10503921
-0.009023749 -0.03368302 -0.1378445 -0.1754096 -0.19618374 -0.10789088 -0.16496536 -0.09774543
-0.047001738 -0.024254521 0.17787759 0.025028761 -0.017243307 0.11371805 0.18371677 -0.05315371
-0.035453275 -0.03979058 -0.09182326 -0.09386263 0.110683136 -0.032232918 -0.118983716 -0.024496982
-0.09719295 -0.042235326 -0.0043506958 0.064528264 -0.083344646 -0.06025804 -0.15339437 -0.09141496
-0.09616264 -0.0692462 0.08891259 0.0434038 -0.025420165 -0.17009582 -0.15886931 -0.035710137
0.17785744 0.14492862 0.17065941 0.12905343 0.13526925 0.02194126 -0.011920629 -0.04564418
-0.008470652 -0.10257548 0.047148086 0.018307898 0.0008226774 0.015465237 0.05411501 0.101949245
-0.005836465 0.022174492 0.120344795 0.10580971 -0.054733783 0.04514769 0.06359008 -0.16592191
-0.19995308 0.11758203 -0.050334748 -0.039920785 -0.0027574147 0.08835173 0.16995667 0.1406674
0.069177 0.06542157 0.043421283 0.17491601 0.069783 0.11701007 0.13790411 0.17144623
0.043789137 0.11407402 0.017076753 0.059852835 0.04594774 -0.09153812 0.019258678 -0.05435559
-0.06304746 -0.012098351 -0.043169808 -0.06858495 -0.087287225 -0.030681038 -0.027379792 -0.09667925
-0.09922376 -0.081729576 -0.17826356 -0.13730267 0.034779843 0.046008952 0.010092696 0.05298488
-0.05393268 -0.034090586 0.009490278 -0.05724306 -0.08504526 -0.12015763 0.0032358486 0.071844086
0.08177899 -0.10549463 -0.015429191 0.18831196 0.17104773 0.07428219 0.07285854 0.073605925
-0.17349796 -0.06582671 -0.030758053 -0.101052985 -0.12641753 -0.05699664 -0.054795746 -0.023783017
-0.07311739 -0.045486752 0.06291563 0.016689863 0.10784621 -0.0098164845 -0.041728534 0.091886334
00000000: 8689 51bd 9ec4 84bd fa31 e03c dd44 febc
00000010: 6e55 8c3c b6ee 89bd 2609 20bd 4646 c1bc
00000020: 3d10 31bd e8d4 b93d 1a39 0e3c fb4d 8c3d
00000030: ab19 96bd bd2e cb39 a0be 4f3d 60df a6bd
00000040: c29f f9bd 88f1 89bd 0f6d 00bc ba6b 00be
00000050: 779c 61bb 237a c6bb f26e c53d 727c 283d
00000060: 6a74 a93d 2479 76bd e1c3 a2bd cb35 1e3c
00000070: fac0 853d b177 bf3d d170 313d 2450 83bd
00000080: ba2b 923d b16b 66bd 513e 0ebd e576 10bd
00000090: 5c5f b4bd 63ad 90bc fcc4 ba3c 05c3 323c
000000a0: 691d 813d a370 e63c 76f6 d63d 0b30 4ebd
000000b0: ad06 9d3d dace 523d b074 c23c 3897 0b3d
000000c0: 40e7 d73d cc69 b63d ee11 353e 3fca bbba
000000d0: 5d8a 9f3d 9f46 63ba 60ea ef3d 10c5 2b3d
000000e0: 44af cf3c dec5 1dbd 8d9b 66bd 68d1 b5bd
000000f0: 56e9 aa3d 0596 90bd 5778 023b 2c8a bbbc
00000100: 9ea3 28bd 7380 84ba 0202 5a3d 090b 24bc
00000110: dec8 32bd 83c6 0abe f3a6 dabd 88da a0bd
00000120: ac4a c3bd 530c c6bd f307 efbd 102e 1c3e
00000130: c2c5 4cbc 79a7 66bc 719f 84bc e092 053e
00000140: 5203 8cbd c078 ef3a 076f aebd 2d05 eabd
00000150: c6b7 17be eb0e bbbd 1a2a 02be 9fbb e3bd
00000160: d3f2 7e3b 24ec 05bd 7b0d da3d ca61 bb3d
00000170: f6db ea3c 4b7e d63c f040 143e f96a f23d
00000180: cc53 06bd 4fbb 093e 38fb f53d 7adb 743d
00000190: 0aea e83d b396 d33c 7a9f 7a3b 50bb a4bd
000001a0: 27a0 143a 2d85 9abc 6ff5 2cbc 92d5 cbbd
000001b0: de41 843b abdc 873d bc49 1f3e 5da5 cd3d
000001c0: ee07 8e3d c3b7 b7bc daff 00bd e92e a03d
000001d0: b0b0 0e3e c341 8e3d 8957 cd3d cc1e d73d
000001e0: 59d8 13bc 35f7 09bd 1c27 0dbe 939e 33be
000001f0: 64e4 48be e5f5 dcbd aeec 28be c22e c8bd
00000200: e584 40bd 6bb1 c6bc 8b25 363e 1e09 cd3c
00000210: d641 8dbc 02e5 e83d 4020 3c3e b4b7 59bd
00000220: 7437 11bd 72fb 22bd d50d bcbd 0d3b c0bd
00000230: d7ad e23d aa06 04bd bcad f3bd e5ad c8bc
00000240: 190d c7bd f3fe 2cbd 4890 8ebb 6527 843d
00000250: 99b0 aabd 22d1 76bd 6a13 1dbe c437 bbbd
00000260: ebf0 c4bd f4d0 8dbd ce17 b63d 2fc8 313d
00000270: f33d d0bc 992d 2ebe a3ae 22be cb44 12bd
00000280: 4320 363e 2b68 143e 57c1 2e3e 9526 043e
00000290: 0684 0a3e 28be b33c be4e 43bc 64f5 3abd
000002a0: 7dc8 0abc 1813 d2bd 5a1e 413d 72fa 953c
000002b0: f2a8 573a e861 7d3c b3a7 5d3d c4ca d03d
000002c0: d13f bfbb 48a7 b53c 5577 f63d c3b2 d83d
000002d0: 8830 60bd c9ec 383d 843b 823d 6fe7 29be
000002e0: 80c0 4cbe d9ce f03d cf2b 4ebd fa83 23bd
000002f0: beb5 34bb c0f1 b43d 1f09 2e3e 1d0b 103e
00000300: acac 8d3d befb 853d 84da 313d 2f1d 333e
00000310: 64ea 8e3d faa2 ef3d bc36 0d3e 9a8f 2f3e
00000320: 3d5c 333d a49f e93d 8ce4 8b3c 3f28 753d
00000330: b333 3c3d 5678 bbbd 60c4 9d3c f8a3 5ebd
00000340: 071f 81bd 2938 46bc d3d2 30bd 4476 8cbd
00000350: a5c3 b2bd cd56 fbbc 964b e0bc c5ff c5bd
00000360: d435 cbbd d661 a7bd b98a 36be 1299 0cbe
00000370: 4f75 0e3d e273 3c3d d65b 253c ac06 593d
00000380: 84e8 5cbd 92a2 0bbd 1c7d 1b3c b377 6abd
00000390: 362c aebd 3415 f6bd 8810 543b fe22 933d
000003a0: be7b a73d 920d d8bd b8ca 7cbc dad4 403e
000003b0: 2327 2f3e 4321 983d dc36 953d b4be 963d
000003c0: 73a9 31be 27d0 86bd 50f8 fbbc def4 cebd
000003d0: 9973 01be 4f75 69bd 8171 60bd 9ad4 c2bc
000003e0: 92be 95bd 5150 3abd e9d9 803d 2eb9 883c
000003f0: 79de dc3d 52d5 20bc 8aeb 2abd e72e bc3d

layer2.0.bias f4 [128]
1.9803024e-06 3.0274603e-05 0.0002715822 -2.6613881e-05 2.5042647e-05 2.1686159e-05 -4.3709646e-05 -4.5550555e-06
-3.564273e-05 2.0331106e-05 5.6862777e-05 5.3652802e-05 -4.0486253e-07 2.9735702e-06 -6.904536e-05 5.5920004e-06
2.4947392e-05 -0.00017354105 1.6926299e-06 5.6057295e-05 0.00025193 4.818927e-05 -2.7981652e-05 0.00012070011
2.4391853e-05 1.48784775e-05 1.8726323e-05 6.155629e-06 4.2876396e-05 3.161891e-05 3.4836874e-05 1.6429727e-06
-2.6377125e-05 -1.7011682e-05 2.5259656e-05 -7.758496e-06 -5.7435213e-05 -9.922294e-06 -7.797231e-05 3.8109495e-06
-1.1884364e-05 3.390603e-05 -6.725449e-05 3.825092e-06 1.5934167e-05 -4.5409066e-05 -7.680489e-06 1.785173e-05
-0.00011180982 9.84789e-06 -1.1542569e-05 -5.2726377e-06 -2.187794e-05 -8.399855e-06 -8.565899e-06 1.3964006e-05
1.6331511e-06 6.892799e-06 -0.00010626312 3.508292e-05 -4.591939e-05 -4.177098e-05 -5.6962923e-05 -1.2321655e-05
-1.2122878e-05 1.2588888e-05 -5.022074e-06 -4.789747e-07 1.292445e-05 -2.5133268e-05 -5.217035e-05 1.7369928e-05
-7.5322685e-05 3.9542065e-05 1.0245617e-06 5.5236655e-06 -3.6507216e-05 -1.659714e-05 -1.0232889e-05 -9.321412e-06
2.427024e-05 -8.886014e-06 5.5012224e-05 -9.33825e-06 -1.8496665e-05 -3.7613477e-06 -4.0242165e-05 0.0001496484
-3.862544e-05 3.5702655e-05 -3.3361197e-05 1.5241485e-05 5.918697e-06 1.3282191e-05 -3.0196477e-05 -9.938528e-05
2.8803183e-06 -7.2457035e-05 -1.0358219e-05 -5.7275474e-06 1.4233046e-05 0.00011053313 5.9042472e-06 3.1495954e-05
-2.8982115e-06 5.5830506e-06 2.033333e-05 -5.9361897e-05 -9.49485e-06 8.209937e-06 -1.691119e-05 -2.4863873e-05
0.00028163596 -0.0001269617 -2.163628e-05 -1.4319239e-05 3.2062922e-05 -1.2757169e-05 4.8192465e-05 -1.6529959e-05
3.3115208e-05 -3.9476934e-05 0.00017058683 -5.248795e-06 -3.0748954e-05 1.5563231e-05 6.650331e-05 4.698986e-05
00000000: 56e5 0436 37f6 fd37 2563 8e39 e040 dfb7
00000010: ad12 d237 acea b537 e054 37b8 a1d7 98b6
00000020: 177f 15b8 b88c aa37 f17f 6e38 4209 6138
00000030: e25b d9b4 8c8d 4736 72cc 90b8 eba2 bb36
00000040: 1e46 d137 92f8 35b9 522e e335 101f 6b38
00000050: 7915 8439 d61e 4a38 24ba eab7 6120 fd38
00000060: 1b9d cc37 939e 7937 7916 9d37 738c ce36
00000070: 2ed6 3338 8c9e 0438 cf1d 1238 1d84 dc35
00000080: 7244 ddb7 4fb4 8eb7 b3e4 d337 7d2a 02b7
00000090: 97e6 70b8 ee77 26b7 1185 a3b8 9dbf 7f36
000000a0: f462 47b7 5336 0e38 fb0a 8db8 4a59 8036
000000b0: 5daa 8537 9d75 3eb8 73db 00b7 4cc0 9537
000000c0: 717b eab8 5e38 2537 f5a6 41b7 9deb b0b6
000000d0: 8586 b7b7 1aed 0cb7 42b6 0fb7 f346 6a37
000000e0: a532 db35 b148 e736 94d9 deb8 0026 1338
000000f0: 9299 40b8 4033 2fb8 79eb 6eb8 1bb9 4eb7
00000100: 5d63 4bb7 dd34 5337 4a83 a8b6 e492 00b5
00000110: 17d6 5837 48d5 d2b7 7dd1 5ab8 a3b5 9137
00000120: 8ff6 9db8 f8d9 2538 ac83 8935 ed57 b936
00000130: 531f 19b8 163a 8bb7 ecad 2bb7 2963 1cb7
00000140: f297 cb37 2415 15b7 edbc 6638 7aab 1cb7
00000150: 4929 9bb7 766b 7cb6 b2c9 28b8 f0ea 1c39
00000160: c001 22b8 6fbf 1538 50ed 0bb8 aeb5 7f37
00000170: 3899 c636 93d6 5e37 714e fdb7 116d d0b8
00000180: 7e4b 4136 13f4 97b8 36c8 2db7 422f c0b6
00000190: 78ca 6e37 06ce e738 191d c636 861a 0438
000001a0: e57e 42b6 0a56 bb36 7e91 aa37 5afb 78b8
000001b0: 124c 1fb7 69bd 0937 81dc 8db7 c392 d0b7
000001c0: 8aa8 9339 0621 05b9 8f7f b5b7 aa3c 70b7
000001d0: 4d7b 0638 a007 56b7 4422 4a38 d1a9 8ab7
000001e0: 2fe5 0a38 0994 25b8 8edf 3239 ce1e b0b6
000001f0: 70f8 00b8 c98d 8237 b177 8b38 fa16 4538

layer2.1.weight f4 [128]
0.9947119 0.9097214 0.9182663 0.8739216 0.97610927 0.77473634 0.98305696 0.8875765
0.9961325 0.7056271 0.92728484 0.79133266 0.75912726 1.0462006 0.9053276 0.95466256
0.8525325 0.90125626 0.66952235 0.8869668 0.96560746 0.85627794 0.8103187 0.9507188
0.91028804 0.7673157 0.93724036 0.84352547 0.97555506 1.0722119 0.8351492 0.8089096
0.77444077 0.8819381 0.9174474 0.9362349 0.8821558 0.683209 0.98257923 0.91452354
0.9041063 1.001644 0.9727237 0.8894178 0.9502234 0.88262093 0.92313606 1.0570303
1.0440762 0.93435556 0.8725747 0.88360894 0.9310357 0.9243685 0.88645726 0.92074263
0.7446583 1.0001507 1.0212075 1.0151017 0.81757694 0.9638256 1.0455219 0.9541264
0.7849327 0.95534664 0.8832149 0.95138854 1.0520422 0.93208444 0.9481109 0.72557557
0.80498904 0.93868506 0.92049927 0.85710984 0.8658821 0.834239 1.1122025 0.7614228
0.78083366 0.8090941 0.8122983 0.9448049 0.6919947 0.96113217 0.9473499 0.82104856
0.819215 0.97214484 1.0048726 0.9530529 1.0360162 0.9574583 0.8741972 1.0247847
0.96100277 1.0144988 0.81708014 0.7945371 0.9189584 0.8605567 0.9416157 0.998145
0.813343 1.0535882 0.84726274 0.94186145 0.7928576 1.0148708 0.9758491 0.7749173
0.96153533 0.889432 0.86310804 0.77149993 0.768321 0.98567754 0.87498075 0.8511972
1.0356039 0.96900165 0.9360692 0.76056707 0.884392 0.9349428 0.9414666 1.1061869
00000000: 70a5 7e3f 80e3 683f 8013 6b3f 53b9 5f3f
00000010: 4ce2 793f 1f55 463f 9fa9 7b3f 3738 633f
00000020: 8a02 7f3f faa3 343f 8a62 6d3f c794 4a3f
00000030: 2a56 423f e7e9 853f 8dc3 673f c464 743f
00000040: 923f 5a3f bbb8 663f d165 2b3f 4210 633f
00000050: 0d32 773f 0835 5b3f 0c71 4f3f 4f62 733f
00000060: a308 693f cd6e 443f fcee 6f3f 49f1 573f
00000070: fabd 793f 3d3e 893f 57cc 553f b314 4f3f
00000080: c041 463f b2c6 613f d5dd 6a3f 17ad 6f3f
00000090: f6d4 613f c9e6 2e3f 508a 7b3f 371e 6a3f
000000a0: 8373 673f df35 803f 6c04 793f e3b0 633f
000000b0: d741 733f 72f3 613f a552 6c3f c54c 873f
000000c0: 4aa4 853f ed31 6f3f 0e61 5f3f 3234 623f
000000d0: 5b58 6e3f 6aa3 6c3f ddee 623f cab5 6b3f
000000e0: eda1 3e3f f004 803f edb6 823f daee 813f
000000f0: b94c 513f 46bd 763f a9d3 853f a141 743f
00000100: 59f1 483f 9991 743f 5f1a 623f 338e 733f
00000110: 52a9 863f 169d 6e3f 65b7 723f 52bf 393f
00000120: c313 4e3f aa4d 703f d7a5 6b3f 8d6b 5b3f
00000130: 73aa 5d3f b090 553f a75c 8e3f 9bec 423f
00000140: b7e4 473f ca20 4f3f c8f2 4f3f bcde 713f
00000150: 9126 313f c20c 763f 8685 723f 3d30 523f
00000160: 13b8 513f 7cde 783f aa9f 803f 46fb 733f
00000170: 2e9c 843f fd1b 753f 63cb 5f3f 252c 833f
00000180: 4704 763f 19db 813f 2a2c 513f c966 4b3f
00000190: dc40 6b3f 724d 5c3f ba0d 713f 6e86 7f3f
000001a0: 3f37 503f fadb 863f 36e6 583f d51d 713f
000001b0: b7f8 4a3f 49e7 813f 3fd1 793f fb60 463f
000001c0: 2e27 763f d1b1 633f a6f4 5c3f 0581 453f
000001d0: afb0 443f 5d55 7c3f bdfe 5f3f 0fe8 593f
000001e0: ab8e 843f 7e10 783f 3ba2 6f3f 86b4 423f
000001f0: 8467 623f 6958 6f3f f503 713f 8897 8d3f

layer2.1.bias f4 [128]
-0.12961659 -0.20972453 -0.17289495 -0.15756707 -0.08717857 -0.2837638 -0.09147878 -0.19024132
-0.092501916 -0.3044807 -0.08897059 -0.2439288 -0.2610676 -0.18166748 -0.13283154 -0.19986798
-0.1610859 -0.1121429 -0.28169137 -0.23411539 -0.13550009 -0.18959665 -0.24565214 -0.11428149
-0.065886624 -0.22056189 -0.093565896 -0.2559045 -0.10464616 -0.19338574 -0.2260769 -0.21106939
-0.19804972 -0.22736275 -0.20542859 -0.09340436 -0.12865496 -0.30015334 -0.099108845 -0.20378096
-0.16230781 -0.12635808 -0.10113718 -0.21155559 -0.08963506 -0.12176109 -0.12681453 -0.19193402
-0.0418623 -0.24787508 -0.20505849 -0.22238062 -0.14019287 -0.17836145 -0.24346714 -0.16081491
-0.26487425 -0.17330478 -0.071946524 -0.089831755 -0.17598034 -0.08379598 -0.16722101 -0.17298837
-0.20374681 -0.17889537 -0.10289967 -0.1818616 -0.17990789 -0.19932139 -0.22751327 -0.25523484
-0.16401231 -0.12906101 -0.09892369 -0.143005 -0.17245585 -0.20310879 -0.07166836 -0.26918215
-0.1874226 -0.20119491 -0.27776167 -0.18569317 -0.23102352 -0.14747128 -0.118103236 -0.18492287
-0.20281917 -0.15499912 -0.08052313 -0.23203866 -0.21820438 -0.17759095 -0.11975813 -0.06779893
-0.14632128 -0.11442613 -0.15794072 -0.20148945 -0.18843907 -0.18201257 -0.07734472 -0.18072107
-0.20735495 -0.17440656 -0.2237694 -0.18391882 -0.18813719 -0.14003365 -0.21685912 -0.1984936
-0.17198907 -0.106604286 -0.14669704 -0.19437404 -0.19043489 -0.1588755 -0.25940984 -0.20467177
-0.17618759 -0.131341 -0.18129952 -0.25317913 -0.19846427 -0.21334985 -0.1386028 -0.17060144
00000000: 36ba 04be 07c2 56be 600b 31be 4359 21be
00000010: ae8a b2bd 7d49 91be 3a59 bbbd 9fce 42be
00000020: a571 bdbd e5e4 9bbe 3636 b6bd 79c8 79be
00000030: a7aa 85be 0a07 3abe fe04 08be 31aa 4cbe
00000040: b4f3 24be 2dab e5bd da39 90be f2bb 6fbe
00000050: 89c0 0abe a025 42be 3c8c 7bbe 6a0c eabd
00000060: 91ef 86bd fada 61be 7a9f bfbd ea05 83be
00000070: ba50 d6bd e906 46be b480 67be 9322 58be
00000080: 8ccd 4abe c8d1 68be df5b 52be c94a bfbd
00000090: 20be 03be b3ad 99be 94f9 cabd f5ab 50be
000000a0: 0534 26be 0364 01be 0321 cfbd 07a2 58be
000000b0: 9692 b7bd e15d f9bd abdb 01be 5a8a 44be
000000c0: ce77 2bbd f7d2 7dbe dafa 51be bfb7 63be
000000d0: b88e 0fbe 62a4 36be 734f 79be aaac 24be
000000e0: 999d 87be cf76 31be b358 93bd b6f9 b7bd
000000f0: 3134 34be 3a9d abbd fc3b 2bbe dd23 31be
00000100: 01a3 50be 5930 37be 10bd d2bd ed39 3abe
00000110: c639 38be e81a 4cbe 3df9 68be 24ae 82be
00000120: d8f2 27be 9228 04be 8198 cabd e76f 12be
00000130: 4498 30be c0fb 4fbe dcc6 92bd 3ed2 89be
00000140: b6eb 3fbe 0a06 4ebe c736 8ebe 5a26 3ebe
00000150: 6e91 6cbe b602 17be 1ce0 f1bd 6c5c 3dbe
00000160: d4af 4fbe 17b8 1ebe 50e9 a4bd 8b9b 6dbe
00000170: f870 5fbe 67da 35be c043 f5bd 2ada 8abd
00000180: 3fd5 15be 3f58 eabd 36bb 21be 4053 4ebe
00000190: 2cf6 40be 8161 3abe e966 9ebd f20e 39be
000001a0: db54 54be a297 32be ce23 65be 3755 3cbe
000001b0: 09a7 40be fb64 0fbe 5110 5ebe e841 4bbe
000001c0: e71d 30be 5953 dabd c037 16be fd09 47be
000001d0: 5d01 43be 42b0 22be 5ed1 84be 7a95 51be
000001e0: 856a 34be 417e 06be 95a6 39be b2a0 81be
000001f0: 383a 4bbe 6278 5abe e4ed 0dbe 25b2 2ebe

layer2.1.running_mean f4 [128]
0.011329123 -3.6250012 -2.1946037 -4.0714793 0.7338947 -4.6098843 0.6739393 1.6458665
2.2996402 -2.0163631 -1.4394574 -2.0322983 -3.6365504 0.9195923 -0.0038256447 0.3349928
0.5498787 -4.8169518 -0.23588717 -5.3779516 -2.36741 -0.13202693 -4.982482 -0.99813837
0.70141286 -1.6389911 0.82920384 -0.7155781 0.90323347 2.4123182 -3.138485 -0.49638107
-1.0029422 1.8174222 -3.0689948 4.3495708 -3.5098295 -3.283582 0.09588032 -5.1239333
-0.30360356 1.6365161 0.831038 -0.6644699 5.1667113 -0.21204834 0.49632457 0.2596571
0.4176062 -0.35672536 -1.6817883 -2.5602498 -0.029373739 -3.2520308 0.14132057 1.8373998
-1.118004 -0.1980009 1.0746349 2.3594697 -4.70079 0.5387703 0.9526857 2.104959
-4.2781506 1.7810464 0.23617661 2.2701705 0.050258238 0.60894215 0.40012744 -1.6607122
-2.3950646 0.31693482 3.5918725 -5.3740544 -0.21822825 1.3047898 2.855526 -4.089923
-3.382282 -2.8146098 -5.367106 1.1348792 -1.3914179 2.2945442 -0.2527647 -1.2790331
-0.48519984 -0.33738926 0.76484203 -0.48173538 -0.1456271 0.31643915 -0.22552119 0.51883113
0.13286719 0.49800003 0.3095931 -5.35474 0.43219626 -2.5309787 0.26181355 0.68308073
1.7993048 -0.08887003 -3.781847 2.074355 0.15005153 0.5424902 1.527884 -2.3348937
-2.2375407 -1.8321234 3.8571632 -0.6360581 -0.014778522 2.8257344 -4.48937 2.028584
0.71095943 -0.15178175 -3.5308328 -4.0729117 -3.4081373 -0.39478865 -1.7829963 0.9019204
00000000: c99d 393c 0500 68c0 6374 0cc0 8f49 82c0
00000010: 86e0 3b3f 2c84 93c0 4987 2c3f c1ab d23f
00000020: 4e2d 1340 180c 01c0 2440 b8bf 2d11 02c0
00000030: 3ebd 68c0 676a 6b3f abb7 7abb 2d84 ab3e
00000040: dac4 0c3f 7824 9ac0 688c 71be 2e18 acc0
00000050: a583 17c0 1132 07be 7e70 9fc0 ff85 7fbf
00000060: cb8f 333f 76ca d1bf b446 543f 2030 37bf
00000070: 4f3a 673f 6c63 1a40 f0dc 48c0 a925 febe
00000080: 6960 80bf 4aa1 e83f 696a 44c0 af2f 8b40
00000090: 0ca1 60c0 3526 52c0 e75c c43d 43f7 a3c0
000000a0: ed71 9bbe 5c79 d13f e8be 543f b31a 2abf
000000b0: b355 a540 3323 59be 411e fe3e c7f1 843e
000000c0: 7bd0 d53e b5a4 b6be d744 d7bf 22db 23c0
000000d0: 32a1 f0bc 4621 50c0 57b6 103e eb2f eb3f
000000e0: c11a 8fbf bfc0 4abe a38d 893f 8d01 1740
000000f0: df6c 96c0 daec 093f 36e3 733f a6b7 0640
00000100: 9ce6 88c0 54f9 e33f 48d8 713e 794a 1140
00000110: 95db 4d3d a2e3 1b3f 81dd cc3e 3892 d4bf
00000120: bd48 19c0 4845 a23e 3de1 6540 41f8 abc0
00000130: 3a77 5fbe 5a03 a73f f0c0 3640 a6e0 82c0
00000140: 4f77 58c0 9122 34c0 55bf abc0 b943 913f
00000150: fb19 b2bf d0d9 1240 606a 81be 5bb7 a3bf
00000160: 1d6c f8be 49be acbe b0cc 433f 05a6 f6be
00000170: 451f 15be 5004 a23e 07ef 66be 1ed2 043f
00000180: 560e 083e dcf9 fe3e fd82 9e3e 085a abc0
00000190: d448 dd3e 8efb 21c0 6d0c 863e 61de 2e3f
000001a0: 9f4f e63f 7e01 b6bd c809 72c0 3bc2 0440
000001b0: 1ca7 193e a3e0 0a3f b491 c33f e66e 15c0
000001c0: de33 0fc0 0583 eabf c3db 7640 b4d4 22bf
000001d0: 9d21 72bc d5d8 3440 eba8 8fc0 52d4 0140
000001e0: 7001 363f ad6c 1bbe 2af9 61c0 4b55 82c0
000001f0: ec1e 5ac0 bd21 cabe 3939 e4bf 41e4 663f

layer2.1.running_var f4 [128]
18.601805 18.462595 11.763963 18.613388 8.196842 17.364162 9.521735 15.719611
13.306293 9.505764 20.858736 20.339472 16.774992 24.943695 11.194818 24.574028
6.165229 23.135536 10.533419 25.412573 18.151186 6.1899266 20.153456 8.480614
10.89609 10.730133 9.33646 21.695662 17.339182 31.518969 11.580338 7.3204265
17.683243 12.821863 18.508791 17.345858 19.283176 17.091381 7.3008857 26.079575
20.169102 13.927479 7.4552693 20.000113 23.846601 7.1678224 11.019636 29.76054
9.09107 26.61768 14.486102 13.9970665 9.8837185 17.443493 22.758364 14.7111025
14.868575 26.422564 8.266609 14.573681 30.781412 8.202643 10.810087 13.525198
39.559254 10.440375 8.693309 12.52789 16.030516 8.946281 10.118716 10.215614
12.36753 9.778127 16.107758 44.549942 7.8957586 9.058311 18.59359 25.208714
33.969162 22.521908 23.503813 8.013727 7.7065206 14.42146 8.550493 8.42453
15.583716 20.812828 10.031564 27.150343 29.13108 23.852617 23.343424 7.2429495
18.127542 7.8022113 5.1186485 43.9191 18.238132 20.441597 8.861983 27.915888
8.737746 25.308403 24.700342 12.973332 7.853181 24.87743 9.710315 16.716187
9.184846 6.7195835 15.95237 8.419932 7.1020913 15.519291 18.065987 12.352531
21.631441 9.127012 20.075617 20.92032 18.405127 26.006613 16.541862 26.495445
00000000: 7fd0 9441 65b3 9341 3139 3c41 38e8 9441
00000010: 4426 0341 cee9 8a41 0759 1841 8783 7b41
00000020: 93e6 5441 9c17 1841 b1de a641 3db7 a241
00000030: 2f33 8641 b08c c741 f91d 3341 9c97 c441
00000040: 8e49 c540 9415 b941 e288 2841 f34c cb41
00000050: a135 9141 e113 c640 473a a141 98b0 0741
00000060: 6256 2e41 a0ae 2b41 2462 1541 b790 ad41
00000070: a5b6 8a41 d926 fc41 1049 3941 ef40 ea40
00000080: 4877 8d41 5a26 4d41 0112 9441 51c4 8a41
00000090: f243 9a41 26bb 8841 dba0 e940 f8a2 d041
000000a0: 525a a141 f4d6 5e41 9191 ee40 3b00 a041
000000b0: d7c5 be41 cd5e e540 6e50 3041 9615 ee41
000000c0: 0675 1141 02f1 d441 13c7 6741 fcf3 5f41
000000d0: b623 1e41 468c 8b41 2111 b641 ad60 6b41
000000e0: afe5 6d41 6961 d341 0844 0441 cc2d 6941
000000f0: 5540 f641 073e 0341 1ef6 2c41 3667 5841
00000100: ad3c 1e42 c70b 2741 cb17 0b41 3d72 4841
00000110: 7f3e 8041 f823 0f41 43e6 2141 2873 2341
00000120: 67e1 4541 3573 1c41 b0dc 8041 2433 3242
00000130: 0eaa fc40 d8ee 1041 acbf 9441 72ab c941
00000140: 6ce0 0742 de2c b441 cf07 bc41 3a38 0041
00000150: d19b f640 4dbe 6641 d2ce 0841 e0ca 0641
00000160: e756 7941 ac80 a641 4981 2041 e733 d941
00000170: 740c e941 29d2 be41 55bf ba41 3ec6 e740
00000180: 3505 9141 b7ab f940 f8cb a340 29ad 2f42
00000190: b2e7 9141 6488 a341 afca 0d41 bd53 df41
000001a0: cfcd 0b41 9c77 ca41 4d9a c541 c592 4f41
000001b0: 424d fb40 fa04 c741 735d 1b41 c0ba 8541
000001c0: 21f5 1241 d406 d740 e83c 7f41 0bb8 0641
000001d0: 5544 e340 044f 7841 2487 9041 f8a3 4541
000001e0: 310d ad41 3e08 1241 dd9a a041 d15c a741
000001f0: b33d 9341 8b0d d041 bc55 8441 acf6 d341

linear1.weight f4 [4, 16000]
0.0039528133 -0.008437323 0.09015122 0.102539614 0.13043632 0.14942797 0.120364815 0.093619615
0.06745314 0.058720354 0.06908812 0.08765393 0.046813596 0.014014877 -0.017690925 0.064527705
0.0013556709 -0.038522534 0.008536712 0.07227723 0.09237811 0.09476355 0.060701773 -0.036381103
0.002438047 0.10026265 0.08780444 0.093399905 0.06780384 0.06298238 0.032777037 0.005156245
0.08532625 0.08837443 0.010583885 0.04941788 0.010147773 0.01070537 0.10162078 0.0920215
0.115887836 0.008176694 0.01238236 0.0409402 0.017791009 0.077517666 0.058975983 0.052718688
0.053177804 0.03394029 -0.02788309 0.007946961 0.062349133 0.07841499 0.070582 0.07500489
0.03183287 0.07565192 0.055382475 0.06336674 0.020467693 -0.022464713 0.028446812 0.0023106493
0.076046556 0.074117385 0.0056876354 0.017240537 0.040134855 0.020934299 -0.004495263 0.062000178
-0.008710787 0.058600344 0.07216768 0.085798144 0.054089405 0.035575304 0.03193062 0.095336094
0.051637694 0.013231247 0.12637365 0.018222239 0.018680343 0.08848244 0.010004428 0.068306156
0.09149588 0.08100597 0.060210545 0.045780346 0.055668972 0.043044627 0.00023266207 0.020265695
-0.009569156 0.027585229 -0.006880428 0.0020371997 0.03860502 0.08665439 0.06468275 0.04423354
0.009952375 0.0020530093 -0.046812292 0.034648452 0.0021645818 0.10042583 0.13999502 -0.0085396245
0.002728644 0.026001686 0.078233525 0.08006031 0.052188475 -0.016235871 0.018283911 0.043270838
0.09044216 0.033922482 0.054971997 0.033963885 0.009208854 -0.02770571 -0.011554107 0.0009989429
0.10894771 0.045228194 0.0653469 0.09525285 0.17242493 -0.006045364 0.08973696 0.047316656
0.08459928 0.030574821 0.030424874 0.039254498 0.06310979 0.028700005 -0.027931878 -0.0024408414
0.033379655 0.03811837 0.01917831 0.022911917 0.0071087503 -0.0048766118 0.044401 0.064160734
0.04096888 0.0031143392 0.010761138 0.021548733 0.046503484 -0.030413797 0.040865105 0.024775842
-0.010553443 0.021060726 -0.030272879 0.011145276 -0.016229264 -0.0023750935 0.003965208 0.035991006
0.034664758 0.013779021 0.0070879282 -0.0020897973 -0.056158718 0.07551662 0.023771994 0.014169935
0.02192968 0.02003019 -0.0060346816 0.04269543 0.04294312 0.016709493 -0.0032021739 0.07735857
0.06455621 0.03436807 -0.038992837 0.022207942 0.04783016 0.02014615 -0.030638788 -0.0019397911
0.045937087 0.015310919 -0.028163921 -0.033472873 0.006423971 0.0016190925 0.023706997 0.04305111
0.056585703 0.049279995 0.04317491 -0.0010372748 0.09270853 0.04041028 0.019675182 -0.013643027
0.08441613 0.077131025 0.045581758 0.03626431 0.018692067 0.01677645 0.038789842 0.005993567
0.041848842 0.012723593 -0.0053255134 -0.009072219 0.027682938 0.010118447 -0.05332562 0.052105393
0.017862674 0.040496904 0.042918414 0.008596712 0.029082496 0.03646976 -0.0017296233 0.00086117367
0.060105335 0.049817923 0.06466094 0.0150464745 -0.01875633 0.016043393 0.056359142 0.00037995903
-0.02534233 -0.0022742052 0.021124009 0.009379139 0.021631617 0.0104849 0.037605118 0.059731107
0.025430124 -0.084053956 -0.03858439 -0.044081695 -0.050386827 -0.051097114 -0.028048491 -0.10035761
00000000: 9a86 813b b33c 0abc 34a1 b83d 4a00 d23d
00000010: 1991 053e a503 193e d481 f63d a4bb bf3d
00000020: df24 8a3d c184 703d 127e 8d3d e783 b33d
00000030: 9dbf 3f3d a89e 653c 8fec 90bc 1a27 843d
00000040: c4b0 b13a cec9 1dbd 91dd 0b3c 1606 943d
00000050: bc30 bd3d 6413 c23d 6ca2 783d 5a04 15bd
00000060: a4c7 1f3b 8156 cd3d d0d2 b33d 7348 bf3d
00000070: bddc 8a3d e8fc 803d 3741 063d b8f5 a83b
00000080: 87bf ae3d a7fd b43d 0868 2d3c 676a 4a3d
00000090: d842 263c 9465 2f3c 8e1e d03d c575 bc3d
000000a0: 9a56 ed3d 8af7 053c 62df 4a3c e9b0 273d
000000b0: 73be 913c 95c1 9e3d cd90 713d 8def 573d
000000c0: f8d0 593d f904 0b3d 146b e4bc f833 023c
000000d0: ce61 7f3d 0a98 a03d 4c8d 903d 2a9c 993d
000000e0: 2f63 023d 65ef 9a3d bcd8 623d 6cc6 813d
000000f0: ddab a73c eb07 b8bc 4a09 e93c 436e 173b
00000100: 4cbe 9b3d dbca 973d 585f ba3b 073c 8d3c
00000110: 7264 243d 687e ab3c 004d 93bb e6f3 7d3d
00000120: b0b7 0ebc ea06 703d a6cc 933d f0b6 af3d
00000130: da8c 5d3d 69b7 113d afc9 023d 923f c33d
00000140: 0c82 533d dfc7 583c 1868 013e ce46 953c
00000150: 8507 993c 4836 b53d 9de9 233c 19e4 8b3d
00000160: 3162 bb3d 75e6 a53d 559f 763d 2c84 3b3d
00000170: 2605 643d 904f 303d c0f6 7339 3e04 a63c
00000180: f3c7 1cbc 6bfa e13c 3775 e1bb 8a82 053b
00000190: 4c20 1e3d db77 b13d 6478 843d 3a2e 353d
000001a0: 490f 233c c88b 063b 3fbe 3fbd 89eb 0d3d
000001b0: a8db 0d3b 0fac cd3d db5a 0f3e c8e9 0bbc
000001c0: 0dd3 323b 7d01 d53c e638 a03d a9f6 a33d
000001d0: 95c3 553d 1701 85bc 24c8 953c c33c 313d
000001e0: bd39 b93d 4df2 0a3d 512a 613d b71d 0b3d
000001f0: bce0 163c 16f7 e2bc 704d 3dbc f6ee 823a
00000200: fa1f df3d 3341 393d 98d4 853d ed13 c33d
00000210: 2990 303e 3018 c6bb 03c8 b73d 1ccf 413d
00000220: 6342 ad3d 0c78 fa3c 963d f93c 53c9 203d
00000230: b53f 813d 461c eb3c 65d1 e4bc 86f6 1fbb
00000240: 1bb9 083d 0222 1c3d d51b 9d3c c6b1 bb3c
00000250: 85f0 e83b fccb 9fbb d3dd 353d b466 833d
00000260: fcce 273d f119 4c3b 7c4f 303c f886 b03c
00000270: 707a 3e3d 5b26 f9bc 2b62 273d b5f6 ca3c
00000280: 59e8 2cbc 8b87 ac3c d4fe f7bc ad9a 363c
00000290: 3cf3 84bc 75a7 1bbb 93ee 813b 4e6b 133d
000002a0: a2fc 0d3d 67c1 613c da41 e83b fbf4 08bb
000002b0: af06 66bd 75a8 9a3d 7cbd c23c 0429 683c
000002c0: dfa5 b33c 5a16 a43c 94be c5bb 67e1 2e3d
000002d0: 20e5 2f3d 59e2 883c 90db 51bb 2c6e 9e3d
000002e0: 0c36 843d 89c5 0c3d f4b6 1fbd 6eed b53c
000002f0: 8fe9 433d 8a09 a53c 32fe fabc 9740 feba
00000300: 8728 3c3d a6da 7a3c 06b8 e6bc da1a 09bd
00000310: 2d80 d23b bb37 d43a 2d35 c23c 5c56 303d
00000320: 69c6 673d d2d9 493d 2dd8 303d 2bf5 87ba
00000330: f8dd bd3d 4085 253d d92d a13c 0187 5fbc
00000340: 5de2 ac3d dff6 9d3d f0b3 3a3d e389 143d
00000350: 1b20 993c c46e 893c 19e2 1e3d af65 c43b
00000360: b169 2b3d 9e76 503c a581 aebb a5a3 14bc
00000370: 54c7 e23c d8c7 253c f76b 5abd 776c 553d
00000380: be54 923c 15e0 253d 38cb 2f3d 39d9 0c3c
00000390: 6a3e ee3c 5161 153d 87b4 e2ba 63c0 613a
000003a0: 0331 763d e10d 4c3d f46c 843d 7d85 763c
000003b0: e0a6 99bc 6f6d 833c d8d8 663d 3d35 c739
000003c0: b89a cfbc d50a 15bb 420c ad3c f6aa 193c
000003d0: ca34 b13c dcc8 2b3c d307 1a3d 9ba8 743d
000003e0: d652 d03c 7b24 acbd aa0a 1ebd 028f 34bd
000003f0: 6b62 4ebd 354b 51bd f3c5 e5bc 4a88 cdbd

linear1.bias f4 [4]
-0.061721053 0.027398378 0.03826581 -0.050993405
00000000: 37cf 7cbd 9072 e03c 9cbc 1c3d 76de 50bd
