bearings/outdated/CWRU/Model/model_9k.pth (torch, 431674 bytes, 14 tensors)

layer1.0.weight f4 [64, 1, 9]
0	0xbdcfb1f2	-0.10141362
1	0xbdbbe621	-0.09174753
2	0xbe5ed300	-0.21760178
3	0x3e01157a	0.12605849
4	0xbeba2ccc	-0.36362302
5	0x3e1d17cb	0.15341108
6	0xbe973d4f	-0.29538962
7	0x3da5317f	0.08066081
8	0xbe93b3f3	-0.28848228
9	0xbe23005b	-0.15918104
10	0x3e2b2c76	0.16716179
11	0x3d898b1a	0.06715985
12	0x3eb5e03f	0.3552265
13	0x3e95b092	0.29236275
14	0x3e8a721b	0.2704018
15	0xbdf403ff	-0.11914825
16	0xbd93ba94	-0.07213321
17	0xbeb02d7c	-0.34409702
18	0x3e3cd776	0.18441567
19	0xbd91204d	-0.07086239
20	0xbe22f482	-0.15913585
21	0xbeba8fce	-0.3643784
22	0x3d7020f6	0.058625184
23	0x3d86d35a	0.06583281
24	0xbd4b5f10	-0.049651206
25	0xbe97825b	-0.2959164
26	0xbe83dcb9	-0.25754336
27	0xbeba4b43	-0.36385545
28	0x3d9d5c1d	0.07683585
29	0xbdc22501	-0.09479714
30	0x3c4c31ad	0.0124630155
31	0xbe19b245	-0.1500941
32	0x3d5256c3	0.051352274
33	0xbe9f2eaf	-0.31090304
34	0xbe27cb10	-0.16386056
35	0xbebe7032	-0.37194973
36	0xbdf71e42	-0.12066318
37	0x3e164d3f	0.14677905
38	0xbea1445b	-0.31497464
39	0xbca23565	-0.019800851
40	0xbe4ad556	-0.19807944
41	0x3e752abd	0.23942085
42	0xbd4fc84b	-0.050728124
43	0x3d859a67	0.065235905
44	0xbec695d3	-0.38786182
45	0x3d86c91a	0.06581326
46	0x3e917603	0.28410348
47	0xbea1005b	-0.31445584
48	0xbca49205	-0.020089159
49	0xbd123092	-0.03569085
50	0x3e1a1f37	0.1505097
51	0xbe8daf61	-0.27672866
52	0x3da8c994	0.08241573
53	0x3e8c7f9f	0.27441117
54	0xbd15d499	-0.036579702
55	0xbe229713	-0.15877943
56	0xbe905919	-0.28192976
57	0x3da0a896	0.07844655
58	0xbebaee88	-0.3651011
59	0xbe436c76	-0.19084343
60	0x3ea32e1b	0.31871113
61	0x3e9c63c3	0.30544862
62	0x3e9e278e	0.30889553
63	0xbe76e3fd	-0.24110408
64	0xbce7e572	-0.02830765
65	0xbe444d53	-0.19170122
66	0xbe57df56	-0.2108129
67	0x3dff4615	0.12464539
68	0xbe3533e3	-0.17695574
69	0x3e9811ab	0.2970098
70	0xbe1a3738	-0.15060127
71	0x3ee4070f	0.44536635
72	0x3dade947	0.0849176
73	0x3e981667	0.29704592
74	0x3e5bf1e5	0.21478994
75	0xbdfeb5a5	-0.1243699
76	0xbe9535ee	-0.29142708
77	0x3e48e604	0.19618994
78	0x3ebe3e18	0.3715675
79	0x3e17ceb1	0.1482494
80	0xbe019f1f	-0.12658356
81	0x3ded4d1f	0.11586975
82	0x3e814e86	0.2525522
83	0x3e3c5961	0.1839347
84	0xbe9c9e6d	-0.3058962
85	0xbe6b93eb	-0.23005645
86	0x3ea479f9	0.32124308
87	0x3ec6a66a	0.3879884
88	0xbdaeae32	-0.08529319
89	0xbe0dfd52	-0.13866165
90	0xbd824089	-0.06359965
91	0x3e554c0d	0.20829792
92	0xbe5f8388	-0.21827519
93	0x3e250772	0.16116121
94	0xbea5c121	-0.32373908
95	0x3e95672e	0.29180282
96	0xbdff0a9d	-0.12453196
97	0x3e577163	0.21039347
98	0xbe49c383	-0.19703488
99	0xbe667dba	-0.22508898
100	0xbe17167d	-0.14754672
101	0xbe942348	-0.28933167
102	0xbe0b1f13	-0.13586073
103	0xbe193464	-0.14961392
104	0xbda5e9b4	-0.08101216
105	0xbe51553e	-0.20442674
106	0xbe02e409	-0.12782301
107	0xbe533fd2	-0.20629814
108	0x3de2882d	0.1106113
109	0x3e746d2e	0.23869774
110	0xbda43041	-0.08017016
111	0x3e52870f	0.20559333
112	0xbe8d7f19	-0.2763603
113	0xbe87234c	-0.26394117
114	0xbea08de1	-0.31358245
115	0x3c2d1095	0.0105630355
116	0x3eb34009	0.35009792
117	0x3c798a46	0.015230721
118	0xbe87955e	-0.26481146
119	0x3e24773f	0.16061114
120	0xbe237608	-0.15962994
121	0x3e238564	0.15968853
122	0xbd1f2900	-0.03885746
123	0x3e54c161	0.20776893
124	0xbe99fc5a	-0.3007534
125	0x3ea9f2f2	0.33193165
126	0x3e6eb627	0.23311673
127	0x3e55ca72	0.20878008
128	0xbe033233	-0.12812118
129	0xbe8a06d1	-0.26958326
130	0x3e607e6e	0.21923229
131	0x3eb4b948	0.35297608
132	0x3d96a39d	0.073554255
133	0xbe0808f6	-0.13284668
134	0x3c85fd4d	0.016356135
135	0x3e955b75	0.2917134
136	0xbeb8dc66	-0.3610565
137	0x3e7a43ae	0.2443988
138	0xbebd1a6d	-0.36934224
139	0x3e6f1e52	0.2335141
140	0xbaf70bb0	-0.0018848088
141	0x3bc74383	0.006081046
142	0xbcde0286	-0.027100813
143	0x3cd94975	0.026524285
144	0x3e75615c	0.23962921
145	0xbe15c84b	-0.14627187
146	0x3e4c4c64	0.19951016
147	0xbe571051	-0.21002318
148	0x3dc4c002	0.09606935
149	0xbc9158ed	-0.017742598
150	0x3dc6697a	0.09688087
151	0xbed2d37a	-0.4117697
152	0x3e0b50b0	0.13604999
153	0xbeae6d96	-0.34067982
154	0xbe104489	-0.14088644
155	0xbbb663c4	-0.005566092
156	0xbd3b4ea4	-0.045729294
157	0x3e811588	0.2521174
158	0x3d92425a	0.07141562
159	0x3e4c50e8	0.19952738
160	0xbe46d8f5	-0.194187
161	0xbe177f92	-0.14794758
162	0xbec79a4e	-0.38984913
163	0xbeab9cd3	-0.33518085
164	0xbdf1e418	-0.118110836
165	0xbe1d9470	-0.15388656
166	0xbd827131	-0.06369246
167	0xbe6a737f	-0.22895621
168	0xbcdcf8e7	-0.026974155
169	0x3c528fca	0.012851665
170	0xbec38110	-0.38184404
171	0x3ea501c8	0.3222792
172	0x3e089f82	0.13342097
173	0x3e7b465c	0.24538559
174	0xbc9ef684	-0.019404657
175	0x3d90fe7d	0.0707979
176	0x3c8c3d42	0.017119054
177	0x3e81c457	0.25345108
178	0x3e207a64	0.15671688
179	0x3e8f65f4	0.28007472
180	0xbe84ccdc	-0.25937545
181	0x3dd1c39d	0.102423884
182	0x3dfe20ed	0.12408624
183	0xbdd62eaf	-0.10458123
184	0xbe5fe8aa	-0.21866098
185	0x3e7c8d1b	0.24663202
186	0x3e248d44	0.16069514
187	0xbe3ecf7f	-0.18633841
188	0xbdabfb29	-0.083975144
189	0x3e304c0a	0.17216507
190	0x3e1e6ed4	0.15471965
191	0x3e8b11c4	0.27161992
192	0x3e54429e	0.20728537
193	0x3e5317a8	0.20614493
194	0x3d80e552	0.062937394
195	0xbe811398	-0.2521026
196	0xbe7dbafa	-0.24778357
197	0xbe7f1ac5	-0.24912556
198	0x3e827431	0.25479272
199	0x3ea1d448	0.3160727
200	0x3ed31f9b	0.4123505
201	0x3e2b7495	0.16743691
202	0x3d718e92	0.058973856
203	0xbd512c8c	-0.051067874
204	0xbe0ae400	-0.13563538
205	0xbde4b339	-0.111669965
206	0xbe023e8f	-0.12719177
207	0x3deaa477	0.114571504
208	0x3e6cdcec	0.2313115
209	0xbd330034	-0.043701366
210	0xbe81aa8b	-0.25325426
211	0x3e83ba33	0.25727996
212	0x3edd609e	0.43237776
213	0x3df6c69f	0.12049603
214	0xbe55c82d	-0.20877142
215	0x3d28c4f6	0.04120346
216	0x3e7ed3f0	0.24885535
217	0xbc028417	-0.007966063
218	0xbd41810b	-0.047242206
219	0xbdc32863	-0.095291875
220	0x3da7e837	0.08198588
221	0xbe3fb0e2	-0.18719819
222	0x3e882165	0.26587978
223	0xbec3c654	-0.3823725
224	0x3e87b791	0.26507238
225	0xbe190744	-0.14944178
226	0xbda5692f	-0.08076703
227	0x3e8dea14	0.2771765
228	0xbd71a2c3	-0.058993112
229	0x3e34f3c2	0.17671111
230	0x3d992c59	0.07479162
231	0x3ef00e8d	0.468861
232	0x3e91ecfc	0.28501117
233	0x3dfd9de4	0.12383631
234	0xbee4dc5f	-0.4469938
235	0xbca6cdd8	-0.020361826
236	0x3dd0135f	0.10159945
237	0x3e1c790a	0.15280548
238	0xbe6cb007	-0.23114024
239	0xbd313a90	-0.04326874
240	0xbe380167	-0.17969285
241	0x3dbc3aad	0.09190879
242	0x3dc8e572	0.09809388
243	0x3ed2d005	0.4117433
244	0xbe9bb22f	-0.3040938
245	0x3d890d8e	0.066920385
246	0xbe882005	-0.2658693
247	0x3ea1bc63	0.3158904
248	0xbe0d84fa	-0.13820258
249	0xbd171c0a	-0.036891975
250	0xbd646e5e	-0.055769317
251	0xbe79a5f3	-0.24379711
252	0xbe1ee3c0	-0.15516567
253	0xbdcffa29	-0.10155136
254	0x3dcd1485	0.100136794
255	0x3e96cabc	0.2945155

layer1.0.bias f4 [64]
0	0xb8cd0062	-9.775233e-05
1	0xb94967b4	-0.00019207486
2	0xba30ae44	-0.0006739835
3	0xb8f41113	-0.00011638007
4	0xb90c6a65	-0.00013391075
5	0xb90ee4a3	-0.00013627349
6	0xb8cee4f9	-9.865495e-05
7	0x37fbe860	3.002974e-05
8	0xb9b0e4b9	-0.00033739748
9	0xb945baca	-0.00018856968
10	0xba28e071	-0.0006442136
11	0xb55ce030	-8.228262e-07
12	0xb8952b9d	-7.112997e-05
13	0xb697badd	-4.5219044e-06
14	0xb999dbbb	-0.00029346146
15	0xb81e1d17	-3.7697228e-05
16	0xb92327de	-0.00015559743
17	0x3890c4da	6.9031215e-05
18	0xb8a10aff	-7.6791264e-05
19	0xb88a8843	-6.6057335e-05
20	0x386c2cd3	5.630853e-05
21	0xb93c78b3	-0.00017974041
22	0x39e000d5	0.0004272523
23	0xb825e8b5	-3.955579e-05
24	0x3871518c	5.7534824e-05
25	0xb8ac9722	-8.22975e-05
26	0x38b1e05c	8.481808e-05
27	0x39300710	0.00016787299
28	0xba4add2e	-0.0007738647
29	0x37de9ce2	2.6537517e-05
30	0xb7c6ef8d	-2.3714989e-05
31	0x39b88e2f	0.0003520115
32	0xb8bd4e7c	-9.026841e-05
33	0xb872be63	-5.7874608e-05
34	0x386c0f3e	5.628098e-05
35	0xb86ea344	-5.6895675e-05
36	0xb9a51c84	-0.00031492498
37	0xb8d9ccd1	-0.00010385516
38	0xb8806e61	-6.124075e-05
39	0xb93ec251	-0.000181922
40	0xb9837876	-0.00025076017
41	0x397a5229	0.00023872465
42	0x38cb0b71	9.6819254e-05
43	0x38cb456a	9.692724e-05
44	0x39221402	0.00015456977
45	0x36ab7a75	5.110453e-06
46	0xb8d483ba	-0.00010133484
47	0xb89410d9	-7.060328e-05
48	0x38895a5f	6.549502e-05
49	0x38bef7e7	9.1060814e-05
50	0x38521ca0	5.009456e-05
51	0x3983a49f	0.0002510892
52	0xb7e3a1b0	-2.71358e-05
53	0xb882aa2b	-6.230579e-05
54	0xb6c7aa2a	-5.950472e-06
55	0x3888aa18	6.516668e-05
56	0x39a63c95	0.00031707124
57	0xb8e45110	-0.00010886986
58	0x37bde17a	2.2635551e-05
59	0xb6cdd2da	-6.1340224e-06
60	0x386a9cf8	5.5936136e-05
61	0x394851dd	0.00019103983
62	0xb77ebba9	-1.5183273e-05
63	0xb9916fcf	-0.0002773986

layer1.1.weight f4 [64]
0	0x3f884957	1.0647382
1	0x3f6704fb	0.90241975
2	0x3f8bb67c	1.0915065
3	0x3f601d1a	0.87544405
4	0x3f7eed68	0.99581003
5	0x3f63ad42	0.88936245
6	0x3f3c19ea	0.7347704
7	0x3f6d8762	0.927847
8	0x3f82b7c3	1.021233
9	0x3f667fae	0.90038574
10	0x3f8dd4b5	1.1080538
11	0x3f993cd4	1.1971688
12	0x3f60c226	0.87796247
13	0x3f5bfeb7	0.8593554
14	0x3f7a2209	0.97708184
15	0x3f65b0ab	0.897227
16	0x3f488295	0.7832425
17	0x3f66ac96	0.90107095
18	0x3f4ef988	0.80849504
19	0x3f8e8f6e	1.1137521
20	0x3f521c24	0.8207419
21	0x3f8994eb	1.0748571
22	0x3f9f150e	1.24283
23	0x3f60e77f	0.87853235
24	0x3f5bac45	0.8580974
25	0x3f5f685f	0.8726863
26	0x3f6a6cff	0.91572565
27	0x3f7f2b5f	0.99675554
28	0x3f76483e	0.9620398
29	0x3f714d6b	0.94258755
30	0x3f5f9319	0.8733383
31	0x3f89c6c0	1.0763779
32	0x3f5eb08a	0.8698813
33	0x3f4f092c	0.8087337
34	0x3f80c5a2	1.0060313
35	0x3f5c43dc	0.86041045
36	0x3f68b20f	0.90896696
37	0x3f84675f	1.0344046
38	0x3f67d107	0.90553325
39	0x3f6b4613	0.919038
40	0x3fa820d1	1.3135015
41	0x3f6059b8	0.876369
42	0x3f5803df	0.84380907
43	0x3f5a3359	0.852346
44	0x3f842442	1.0323565
45	0x3f6f80e2	0.93556035
46	0x3f5a30f4	0.85230947
47	0x3f5ea6db	0.8697335
48	0x3f64871f	0.8926868
49	0x3f5019d9	0.8128944
50	0x3f734e15	0.9504102
51	0x3f342f16	0.7038435
52	0x3f8423dd	1.0323445
53	0x3f5f185c	0.87146544
54	0x3f747ce5	0.95503074
55	0x3f5424e9	0.8286882
56	0x3f76cc35	0.96405345
57	0x3f8d10e7	1.1020783
58	0x3f62fadb	0.88664025
59	0x3f7dafad	0.99096185
60	0x3f7c06c3	0.9844782
61	0x3f9a8bb6	1.2073886
62	0x3f526f4d	0.8220108
63	0x3f834956	1.0256755

layer1.1.bias f4 [64]
0	0xbe1e914d	-0.15485115
1	0xbebb876c	-0.36626756
2	0xbe0d725b	-0.13813154
3	0xbecad9ec	-0.39619386
4	0xbe041ced	-0.1290166
5	0xbeffa7a7	-0.49932596
6	0xbeca1ec5	-0.394766
7	0xbef5c171	-0.47999147
8	0xbdd46d2d	-0.10372386
9	0xbea4450c	-0.3208393
10	0xbe4994f7	-0.19685732
11	0xbe47468c	-0.19460505
12	0xbe76e138	-0.24109352
13	0xbedb547a	-0.42837888
14	0xbe9c9951	-0.3058572
15	0xbdab5d0e	-0.08367358
16	0xbea5fa52	-0.32417542
17	0xbee1583a	-0.44012624
18	0xbe838223	-0.25685224
19	0xbded5976	-0.11589329
20	0xbefdec14	-0.49594176
21	0xbd6d065d	-0.057867397
22	0xbd40ae2b	-0.0470411
23	0xbec3bb1a	-0.38228685
24	0xbdbd2bb5	-0.09236852
25	0xbe99115e	-0.29896063
26	0xbe7a3239	-0.24433221
27	0xbe84715d	-0.2586774
28	0xbe18bf60	-0.14916754
29	0xbf0a1e1e	-0.53952205
30	0xbec4b4ae	-0.38419098
31	0xbe586351	-0.21131636
32	0xbe9199a5	-0.28437534
33	0xbee0e942	-0.43927962
34	0xbe92c6da	-0.28667337
35	0xbf109e25	-0.5649131
36	0xbed70ec6	-0.4200346
37	0xbe01a91f	-0.12662171
38	0xbcd30d53	-0.02576319
39	0xbecdba13	-0.40181026
40	0xbd7134cb	-0.058888238
41	0xbd5cc173	-0.053895425
42	0xbc4d11a1	-0.01251641
43	0xbee82572	-0.45341069
44	0xbe722cc8	-0.23649895
45	0xbedcf89b	-0.4315842
46	0xbe2ebbbf	-0.17063807
47	0xbe6385de	-0.22219035
48	0xbdf6b66f	-0.12046515
49	0xbec189f4	-0.37800562
50	0xbec52611	-0.38505605
51	0xbea0cc43	-0.3140584
52	0xbe950fdf	-0.2911367
53	0xbd8bc1a5	-0.06824044
54	0xbebdfac0	-0.3710537
55	0xbe97831a	-0.2959221
56	0xbe7e298c	-0.24820536
57	0xbed14645	-0.40873924
58	0xbe338086	-0.17529497
59	0xbe2ff3bb	-0.1718282
60	0xbe782c26	-0.24235591
61	0xbd827cf5	-0.0637149
62	0xbf015be3	-0.50530833
63	0xbe29807f	-0.16552924

layer1.1.running_mean f4 [64]
0	0xb9d38931	-0.00040347272
1	0xb7cf6fff	-2.4728475e-05
2	0xba5db5c8	-0.00084575685
3	0xba1818ab	-0.00058020157
4	0xb9e2afe6	-0.00043237134
5	0xb7df6366	-2.6629958e-05
6	0xb91e6915	-0.000151072
7	0x383f8c88	4.566883e-05
8	0x39b436ab	0.00034373006
9	0x39601b44	0.00021372462
10	0xba3da365	-0.00072341255
11	0xb9ff2613	-0.00048665758
12	0xb9001861	-0.00012216113
13	0x3833e759	4.2892385e-05
14	0x390b929b	0.00013310688
15	0x38df2084	0.00010639525
16	0xb8855c9a	-6.3591826e-05
17	0xb8f86e00	-0.000118460506
18	0xba3fefb7	-0.0007321792
19	0x39e88e97	0.00044356726
20	0xb8893243	-6.542031e-05
21	0x38ed228f	0.00011307478
22	0x3a208923	0.00061239506
23	0x398edfca	0.00027251086
24	0x390cc673	0.00013425369
25	0x39e21b66	0.00043126493
26	0xb98a0d84	-0.0002633148
27	0xb90251f5	-0.00012428297
28	0xba5ab24c	-0.00083426083
29	0xb801b045	-3.092016e-05
30	0x388ca275	6.70598e-05
31	0x398f176e	0.00027292542
32	0xba11fd1b	-0.00055690267
33	0xb99af72b	-0.00029557323
34	0x3908f899	0.0001306258
35	0xb9669871	-0.00021991298
36	0xb9c70d61	-0.00037966206
37	0x37151ac3	8.887323e-06
38	0xb805ec0a	-3.19295e-05
39	0xb8fe9e2d	-0.00012141126
40	0xba5af5cc	-0.00083526666
41	0xb85ed969	-5.3131404e-05
42	0x36111a59	2.162202e-06
43	0x399feed1	0.00030504775
44	0x3878c0e9	5.930747e-05
45	0xb951f427	-0.00020022747
46	0xb71fcf67	-9.525428e-06
47	0xba323264	-0.000679767
48	0xb8db92f7	-0.00010470108
49	0x397ed39a	0.00024302155
50	0xb9125372	-0.00013954731
51	0xb94fa101	-0.00019801037
52	0xba351a4b	-0.000690852
53	0xb75605d7	-1.2756754e-05
54	0x393d753b	0.00018068116
55	0x384a3f4d	4.8219506e-05
56	0x39600869	0.00021365438
57	0x3a30b969	0.00067414955
58	0xb7c255d1	-2.3166564e-05
59	0x39f6c72d	0.00047069174
60	0x3a33aa94	0.0006853726
61	0x3a2109ce	0.00061431236
62	0x39c9b2e1	0.00038470983
63	0xb81c76f1	-3.730407e-05

layer1.1.running_var f4 [64]
0	0x3e372224	0.17884117
1	0x3eb8f725	0.36126056
2	0x3e31196a	0.17294851
3	0x3ea5e188	0.3239863
4	0x3e152fb1	0.14568974
5	0x3e98c77b	0.29839692
6	0x3f0bea41	0.5465432
7	0x3eb7f3f3	0.35928306
8	0x3e5b63ae	0.21424744
9	0x3e8dd117	0.27698585
10	0x3d7eef91	0.062240187
11	0x3e8a4754	0.27007544
12	0x3ec30e65	0.3809692
13	0x3e6b246b	0.22963111
14	0x3e4aff58	0.19823968
15	0x3e8efc39	0.27926806
16	0x3e67c732	0.2263458
17	0x3e8e1265	0.2774841
18	0x3f1031e2	0.56326115
19	0x3e8ad096	0.27112263
20	0x3e8317e7	0.25604174
21	0x3ea29de3	0.31761083
22	0x3eaebd9b	0.34129032
23	0x3e906ea3	0.2820941
24	0x3ea4dc20	0.32199192
25	0x3eb48e93	0.35265025
26	0x3e44f931	0.19235684
27	0x3e8e8580	0.27836227
28	0x3dcb9d01	0.099420555
29	0x3eb1a8fb	0.34699234
30	0x3f0b6ad5	0.5445989
31	0x3d87f276	0.06638043
32	0x3e679eb1	0.2261913
33	0x3eaf7d6e	0.34275383
34	0x3e05ce77	0.13067041
35	0x3ebdb6e4	0.37053597
36	0x3eaf07c9	0.34185627
37	0x3e11c674	0.1423586
38	0x3f540214	0.8281567
39	0x3e3d6f04	0.1849938
40	0x3ee1c16c	0.44092882
41	0x3e57fa31	0.21091534
42	0x3f042582	0.5161973
43	0x3ed35d1e	0.4128198
44	0x3eec28aa	0.46124774
45	0x3edee4e4	0.43534005
46	0x3e2cbed2	0.16869667
47	0x3ef5edbc	0.4803294
48	0x3eceb5cc	0.40373075
49	0x3ed45fc3	0.4147931
50	0x3dfdba09	0.12388999
51	0x3effa4b1	0.49930337
52	0x3ef2d2ab	0.47426352
53	0x3f9a9ca2	1.207905
54	0x3e994786	0.2993738
55	0x3f08375f	0.5320949
56	0x3e532be2	0.20622209
57	0x3ea2ca8e	0.31795162
58	0x3eacb951	0.33735135
59	0x3e7aed37	0.24504553
60	0x3eacfb21	0.33785346
61	0x3edd7654	0.4325434
62	0x3f0d0eaa	0.551005
63	0x3db640db	0.08899089

layer2.0.weight f4 [128, 64, 5]
0	0xbe1e4efe	-0.1545982
1	0xbd79f4f6	-0.06102463
2	0xbddd63d5	-0.10810057
3	0xbd11f6f0	-0.03563589
4	0xbc9979c6	-0.018734824
5	0x3d385f4f	0.04501277
6	0x3d8017ef	0.06254565
7	0x3cdee82f	0.027210323
8	0x3e039c9f	0.12852715
9	0x3df7090b	0.12062272
10	0xbd501aeb	-0.05080692
11	0xbccc8282	-0.024964575
12	0x3d55ce2c	0.052198574
13	0x3e2a5647	0.16634475
14	0x3d061ae6	0.032740496
15	0xbdb203bb	-0.08692118
16	0xbdeb49fb	-0.1148872
17	0xbe2ab91f	-0.1667218
18	0x3d339373	0.04384179
19	0x3cb8f0bc	0.022575729
20	0xbcde8e3e	-0.027167436
21	0xbd23cfe1	-0.03999317
22	0xbd5ed271	-0.05439991
23	0xbc03d7cd	-0.008047056
24	0x3d830805	0.06398014
25	0xbceb461c	-0.028719954
26	0xbda26e54	-0.079312
27	0xbddee81c	-0.10884115
28	0xbe2945ee	-0.16530582
29	0xbe2dbf34	-0.1696747
30	0xbd5fd718	-0.05464849
31	0xbd9cbad0	-0.07652819
32	0xbd27e88d	-0.040993262
33	0x3dba8599	0.09107513
34	0xbe58805b	-0.21142714
35	0xbcaba684	-0.020953424
36	0x3d242375	0.040072877
37	0xbdaa1440	-0.08304644
38	0xbd019a15	-0.031641085
39	0xbdabf4f4	-0.083963305
40	0x3cfe89eb	0.031071624
41	0x3d2c2470	0.042026937
42	0xbd6ca6f6	-0.057776414
43	0xbd9747ed	-0.07386766
44	0xbb9cdfb9	-0.004787412
45	0xbc61309c	-0.0137445
46	0xbd22a1ac	-0.039704964
47	0x3c779237	0.015110544
48	0xbe04d8ac	-0.12973279
49	0xbba9ae21	-0.0051782285
50	0x3ca1ca45	0.01974977
51	0x3dcd99ff	0.10039138
52	0xbd4a2e10	-0.049360335
53	0xbced989b	-0.029003432
54	0xbd7bf6c8	-0.061514646
55	0xbd5a0020	-0.053222775
56	0x3d3d88a6	0.046272896
57	0x3d3f778c	0.04674487
58	0x3dfb4025	0.12268094
59	0x3de5417b	0.1119413
60	0x3b847094	0.0040417407
61	0x3d249114	0.04017742
62	0xbd9cea93	-0.07661929
63	0x3d0e2194	0.03469999
64	0x3cc3f2b8	0.023919448
65	0xbc40c6a6	-0.0117661115
66	0x3d3dc702	0.046332367
67	0xbb3365f9	-0.0027374013
68	0x3d98c859	0.07460088
69	0x3d809f2e	0.06280361
70	0x3c927a3b	0.01788055
71	0xbaf3866b	-0.0018579488
72	0xbd13ba15	-0.036066134
73	0xbd864493	-0.06556048
74	0xbdb281e7	-0.08716183
75	0xbc844613	-0.016146695
76	0xbd3397af	-0.04384583
77	0x3d10da10	0.03536421
78	0x3b9d8ab0	0.0048077926
79	0x3deda1d7	0.11603134
80	0x3ba05aad	0.004893622
81	0xbca84b7d	-0.020543808
82	0xbdc409f5	-0.09572212
83	0x3d122192	0.035676546
84	0x3d132656	0.035925232
85	0xbd7949de	-0.06086146
86	0x3d4d1116	0.050065123
87	0x3d4006e8	0.046881586
88	0xbd661dd9	-0.05618081
89	0xbba29201	-0.0049612527
90	0x3d0adf72	0.0339045
91	0xbd8e2c53	-0.06942048
92	0xbdbbe51d	-0.09174559
93	0xbdbfe892	-0.09370531
94	0xbc6b709f	-0.014370113
95	0x3d3ca806	0.046058677
96	0x3e0a2a40	0.1349268
97	0x3d51ab3f	0.051188704
98	0x3da0aa5c	0.078449935
99	0x3d8d2714	0.06892219
100	0xbe1716a2	-0.14754727
101	0xbe0ac013	-0.13549833
102	0xbd60ac21	-0.054851655
103	0xbd91c78b	-0.07118138
104	0xbd9c22b9	-0.0762381
105	0x3dcdb49e	0.100442156
106	0x3dddd534	0.10831681
107	0x3df451bd	0.11929653
108	0x3dd4935b	0.10379668
109	0x3e3d16a4	0.18465668
110	0x3e83db2c	0.25753152
111	0x3dd29089	0.10281474
112	0x3e310edc	0.17290825
113	0x3e837811	0.2567754
114	0x3e6161cd	0.22009964
115	0xbd637316	-0.055529676
116	0xbc996001	-0.018722536
117	0xbccb27f8	-0.024799332
118	0xbdbeb827	-0.09312468
119	0xbdaac298	-0.08337897
120	0xbdb6fbf0	-0.08934772
121	0x3c0da328	0.0086448565
122	0xbd408a1a	-0.047006704
123	0x3dc8aea3	0.09798934
124	0x3dcb3e2f	0.0992397
125	0x39627df6	0.00021599964
126	0x3d2d217f	0.042268272
127	0x3d6a7cb5	0.057247836
128	0xbd5f1543	-0.054463636
129	0xbdede8fb	-0.11616703
130	0xbe0d113c	-0.13776106
131	0xbe24832c	-0.16065663
132	0xbd9ca77e	-0.07649134
133	0x3d41e85b	0.047340732
134	0xbd467bcb	-0.048457902
135	0xbd9b13bd	-0.07572124
136	0x3cede907	0.02904178
137	0x3be46632	0.0069701904
138	0x3cd64eca	0.026160616
139	0xbce0ac59	-0.027425932
140	0x3c69fd05	0.014281516
141	0xbdff130c	-0.12454805
142	0xbe1a74a8	-0.15083563
143	0xbe50d10a	-0.20392242
144	0xbd9d94b8	-0.076943815
145	0xbd69cee3	-0.05708207
146	0xbd13ba25	-0.036066193
147	0xbd8f38f0	-0.06993282
148	0xbd84c043	-0.064819835
149	0x3c43b342	0.011944594
150	0xbdad8062	-0.08471753
151	0xbdd6212d	-0.104555465
152	0x3acd3abc	0.0015657763
153	0x3cd89572	0.026438449
154	0xbc874b90	-0.016515523
155	0xbd36b13d	-0.04460262
156	0xbc431caf	-0.011908694
157	0x3d31e48f	0.04343086
158	0x3d32cae7	0.043650534
159	0x3d28af82	0.041183002
160	0x3db0530d	0.08609591
161	0xbb22a011	-0.0024814645
162	0x3ce46972	0.027882311
163	0xbd2f1cba	-0.042752005
164	0x3d89ba8a	0.06725033
165	0xbe2f0cc7	-0.17094718
166	0xbe37080f	-0.17874168
167	0x3d5bb831	0.053642455
168	0x3d9589e1	0.07301689
169	0xbddce265	-0.10785369
170	0xbd339ff1	-0.043853704
171	0x3b5d0a98	0.0033728238
172	0xbda49433	-0.08036079
173	0x3da33200	0.07968521
174	0xbd6b5966	-0.057458304
175	0xb984f4c7	-0.00025359375
176	0xbc85effb	-0.016349783
177	0xb97a9ded	-0.0002390069
178	0x3dcd0e88	0.10012537
179	0x3c6fd46e	0.0146380495
180	0x3d578781	0.05261946
181	0xbc8bba91	-0.017056735
182	0x3d3c1496	0.04591807
183	0xbbcd00a5	-0.0062561803
184	0x3dbe2119	0.092836566
185	0x3dccd05b	0.10000678
186	0x3d0403a2	0.032230027
187	0xbdbcddbb	-0.09221979
188	0xbca3feae	-0.020018902
189	0xbe396013	-0.18103056
190	0x3c526191	0.012840644
191	0x3de8a10b	0.113588415
192	0x3ca90036	0.020629983
193	0x3e1d0f7c	0.15337938
194	0x3dda2a6e	0.10652624
195	0x3d4920e7	0.049103644
196	0x3c9a9ebc	0.018874519
197	0xbdbf0681	-0.093274124
198	0xbe0d9b0a	-0.13828674
199	0xbd9e93e5	-0.077430524
200	0x3d419b02	0.047266968
201	0x3e36390e	0.17795202
202	0x3e0b0a92	0.13578251
203	0x3e29ae67	0.16570435
204	0x3e61e175	0.22058661
205	0xbd213a12	-0.03936202
206	0xbbeb00a9	-0.0071717096
207	0x3d6c0ddf	0.057630416
208	0x3d23e2af	0.040011104
209	0x3d9464ba	0.072457746
210	0xbd6ef4e0	-0.058339
211	0x3d2f8e49	0.042860303
212	0x3c8dc9b1	0.017308088
213	0x3e13b9fc	0.14426416
214	0x3d339ad1	0.043848816
215	0xbd32948c	-0.043598697
216	0xbd385727	-0.04500499
217	0xbd5b6886	-0.05356648
218	0xbdf92dec	-0.12166962
219	0xbe35558d	-0.17708416
220	0xbcdc9e6b	-0.026931008
221	0x3c20cffc	0.009815212
222	0xbcce5330	-0.025186151
223	0x3da30ce7	0.07961445
224	0x3ce73352	0.028222714
225	0x3ce3c94e	0.02780595
226	0xba24f8da	-0.0006293185
227	0xbd0cbaa9	-0.0343577
228	0x3d8bd129	0.068270035
229	0xbb1d6561	-0.0024016725
230	0xbccde55f	-0.025133787
231	0x3c970d4e	0.018438961
232	0xbd571932	-0.052514262
233	0xbe2631e6	-0.16229972
234	0xbe08c31a	-0.13355675
235	0xbe025b26	-0.12730083
236	0x3cbed3e3	0.023294395
237	0x3d5555c5	0.05208375
238	0x3e1eee78	0.15520656
239	0x3db3b932	0.087755576
240	0xbd7c0ff6	-0.06153866
241	0xbdc750f4	-0.097322375
242	0xbdaba499	-0.08381004
243	0x3d6d8022	0.057983525
244	0x3dbf4ff1	0.093414195
245	0xbcd7340f	-0.02626994
246	0xba4585a4	-0.00075348676
247	0xbc03bf3f	-0.008041202
248	0x3d014765	0.031562228
249	0xbd36ecb8	-0.044659346
250	0xbe3fcd58	-0.18730676
251	0xbda6f929	-0.08152992
252	0xbdca72d3	-0.09885182
253	0xbcf50a86	-0.029912245
254	0xbcd6e431	-0.026231857
255	0xbd898b34	-0.06716004

layer2.0.bias f4 [128]
0	0xb7d9e907	-2.5976928e-05
1	0x36dfaddd	6.6661582e-06
2	0xb6eaeed5	-7.001547e-06
3	0x37c31c50	2.3258995e-05
4	0xb812bf99	-3.498755e-05
5	0x37f5d56d	2.930566e-05
6	0x389fee89	7.6261415e-05
7	0xb86a1955	-5.581354e-05
8	0x382b71f3	4.08757e-05
9	0x38373ae6	4.3685453e-05
10	0x364e09c8	3.0702085e-06
11	0xb8a0cae3	-7.667185e-05
12	0xb8acf269	-8.2467515e-05
13	0xb81d2480	-3.746571e-05
14	0xb66114ad	-3.3539648e-06
15	0xb75e7da5	-1.3261485e-05
16	0xb79c0fc8	-1.8603998e-05
17	0x37b7e3d1	2.1921385e-05
18	0xb8ad293b	-8.2569626e-05
19	0xb6b32792	-5.3392223e-06
20	0x37e3cd77	2.7156186e-05
21	0x367066db	3.5822657e-06
22	0xb888f251	-6.53012e-05
23	0xb72ebada	-1.0414713e-05
24	0xb89af45e	-7.388809e-05
25	0x37bf2022	2.2783937e-05
26	0x38135761	3.512891e-05
27	0x37449061	1.1716126e-05
28	0xb84a83e0	-4.828337e-05
29	0x37f6abb3	2.9405439e-05
30	0x36008502	1.9150907e-06
31	0x3814fdab	3.5522196e-05
32	0xb8660ed0	-5.485007e-05
33	0x38096e33	3.2765976e-05
34	0x373badd3	1.118654e-05
35	0x37d43386	2.5296362e-05
36	0xb5de1aa1	-1.6548039e-06
37	0x379aae4d	1.8439396e-05
38	0x3855eb09	5.100205e-05
39	0xb7e90254	-2.7776849e-05
40	0x3805cd0a	3.190063e-05
41	0x3896f388	7.1979186e-05
42	0x35697672	8.6971625e-07
43	0x37229c96	9.6924105e-06
44	0x378fcdd0	1.7142767e-05
45	0xb8d90827	-0.00010348885
46	0xb77d41ee	-1.5095326e-05
47	0xb8346a1b	-4.3014163e-05
48	0x36cb974f	6.067486e-06
49	0x378fc7cf	1.7139972e-05
50	0x38484003	4.774333e-05
51	0x37bf4e7e	2.2805525e-05
52	0x375ef788	1.3289864e-05
53	0x389bf429	7.436454e-05
54	0x37ed6245	2.8298362e-05
55	0xb881b6b5	-6.185231e-05
56	0x37848873	1.5799165e-05
57	0x389cde4e	7.480067e-05
58	0x38c03cfc	9.166633e-05
59	0x387540a4	5.8472753e-05
60	0x373cd770	1.1255834e-05
61	0x37352689	1.0797413e-05
62	0xb590e4a3	-1.0795378e-06
63	0x382c1bab	4.1033763e-05
64	0xb69b2c77	-4.6245364e-06
65	0x37af8d8c	2.0927539e-05
66	0x382f88ac	4.1850537e-05
67	0x389233b8	6.971456e-05
68	0xb7fc83ca	-3.010211e-05
69	0x362be80d	2.5616057e-06
70	0xb73aefce	-1.1142298e-05
71	0xb857c338	-5.1441806e-05
72	0x373c5ef2	1.1227779e-05
73	0x388ac2a0	6.6166045e-05
74	0xb82f90b9	-4.1858035e-05
75	0xb6fb27f7	-7.4850354e-06
76	0x382fca89	4.1911877e-05
77	0xb5cbf737	-1.5196628e-06
78	0x3811454c	3.463523e-05
79	0xb5287e60	-6.2768777e-07
80	0xb7932569	-1.7541186e-05
81	0xb886ca98	-6.427354e-05
82	0xb6d1d69c	-6.253669e-06
83	0x371d8f77	9.391332e-06
84	0xb897fe0e	-7.2475625e-05
85	0xb693deaa	-4.406863e-06
86	0xb50097bb	-4.790451e-07
87	0x38276dee	3.9918283e-05
88	0xb2b36ce9	-2.088787e-08
89	0xb682192e	-3.877233e-06
90	0xb812f7d8	-3.5039935e-05
91	0xb820066e	-3.815296e-05
92	0xb8b9e847	-8.8647525e-05
93	0x3768e083	1.3880551e-05
94	0x388b0c8a	6.630372e-05
95	0x38944a8b	7.071075e-05
96	0xb718b80e	-9.10276e-06
97	0xb650b84d	-3.1101692e-06
98	0xb7ef6e00	-2.8542243e-05
99	0xb613000a	-2.190473e-06
100	0xb759a37c	-1.2972272e-05
101	0x37ad4a45	2.0657792e-05
102	0xb70efad1	-8.522257e-06
103	0xb7f7532f	-2.948343e-05
104	0xb7b53aa7	-2.1604194e-05
105	0x383815c9	4.3889308e-05
106	0x378f2c2f	1.7067503e-05
107	0x374c9621	1.2194302e-05
108	0xb793b909	-1.760993e-05
109	0xb83c4488	-4.4886518e-05
110	0xb7c5a12a	-2.3559278e-05
111	0xb7d2105c	-2.5041569e-05
112	0xb8fbb1c5	-0.00012001725
113	0x37f5a4aa	2.9282954e-05
114	0x38246907	3.919846e-05
115	0xb72bf7fd	-1.02501335e-05
116	0xb684b689	-3.9551564e-06
117	0xb81a02c5	-3.671904e-05
118	0xb7e74e11	-2.7573698e-05
119	0xb8473ffe	-4.7504895e-05
120	0x3800841f	3.0640625e-05
121	0x389690d7	7.179536e-05
122	0x37125ad9	8.72343e-06
123	0xb65c205d	-3.2801393e-06
124	0xb65f1463	-3.3241456e-06
125	0xb8bfbef4	-9.1431575e-05
126	0xb78fbc62	-1.7134651e-05
127	0xb78e0c2d	-1.6933389e-05

layer2.1.weight f4 [128]
0	0x3f67213b	0.9028508
1	0x3f583b5d	0.8446558
2	0x3f51f1b2	0.8200942
3	0x3f49a0ac	0.7876079
4	0x3f89ed3b	1.0775522
5	0x3f5c15f4	0.85971
6	0x3f63058a	0.88680327
7	0x3f80b010	1.005373
8	0x3f7d14c1	0.9885979
9	0x3f76ba9e	0.96378505
10	0x3f32f997	0.69912094
11	0x3f655593	0.895837
12	0x3f7d5790	0.98961735
13	0x3f4c8841	0.79895407
14	0x3f8778ee	1.058378
15	0x3f77e872	0.9683906
16	0x3f65480b	0.89563054
17	0x3f5611e5	0.83621055
18	0x3f5f1060	0.8713436
19	0x3f849521	1.035801
20	0x3f8e0a54	1.1096902
21	0x3f5ecb6e	0.8702916
22	0x3f8fd105	1.1235663
23	0x3f5e21d3	0.8677036
24	0x3f5cca41	0.86246115
25	0x3f4f9b7c	0.81096625
26	0x3f54b355	0.8308614
27	0x3f65aace	0.8971375
28	0x3f64724b	0.892369
29	0x3f5864a2	0.84528553
30	0x3f7df69c	0.9920442
31	0x3f77e8d6	0.96839654
32	0x3f64759a	0.89241946
33	0x3f6be3ef	0.92144674
34	0x3f77cf09	0.96800286
35	0x3f513754	0.8172505
36	0x3f65f233	0.8982269
37	0x3f5ec9e6	0.8702682
38	0x3f801e8e	1.0009325
39	0x3f6cd0e7	0.9250626
40	0x3f6ea763	0.9322416
41	0x3f81b577	1.0133504
42	0x3f76ed9f	0.9645633
43	0x3f74c324	0.9561026
44	0x3f7b6d3b	0.9821355
45	0x3f6dfd65	0.92964774
46	0x3f632a34	0.8873627
47	0x3f8f0eb6	1.1176364
48	0x3f2a2bc4	0.6647303
49	0x3f7dedae	0.99190795
50	0x3f5e6114	0.8686688
51	0x3f5cde6f	0.86276907
52	0x3f5e338b	0.867974
53	0x3f7e115b	0.9924523
54	0x3f48d6d3	0.78452796
55	0x3f66fdca	0.90231
56	0x3f71499b	0.9425294
57	0x3f7a8d25	0.9787162
58	0x3f5ad3d6	0.85479486
59	0x3f7bab38	0.98308134
60	0x3f7e9c3c	0.99457145
61	0x3f5e67d9	0.8687721
62	0x3f72f83e	0.9491004
63	0x3f63cdb6	0.88985765
64	0x3f69f341	0.913868
65	0x3f5f1aa9	0.87150055
66	0x3f84b9ce	1.0369203
67	0x3f66fa60	0.9022579
68	0x3f8a8fed	1.0825173
69	0x3f627ddf	0.88473314
70	0x3f6e71a8	0.93142176
71	0x3f6df92b	0.92958325
72	0x3f6e60e8	0.9311662
73	0x3f597e06	0.8495792
74	0x3f76fd25	0.9648002
75	0x3f6d7913	0.9276287
76	0x3f6240e6	0.8838028
77	0x3f461af1	0.7738486
78	0x3f6e0cdb	0.92988366
79	0x3f7c93a1	0.98662764
80	0x3f8597c0	1.0436935
81	0x3f37c63d	0.7178686
82	0x3f78c445	0.97174484
83	0x3f80b48e	1.0055101
84	0x3f6be622	0.9214803
85	0x3f4ee29a	0.80814517
86	0x3f64b0ce	0.8933228
87	0x3f5ba312	0.857957
88	0x3f646f59	0.89232403
89	0x3f28062f	0.65634435
90	0x3f72c85e	0.94836986
91	0x3f876d98	1.058032
92	0x3f769d3b	0.96333665
93	0x3f59a166	0.850119
94	0x3f6f70d0	0.93531513
95	0x3f825440	1.0181961
96	0x3f68f682	0.9100114
97	0x3f52a82f	0.8228788
98	0x3f69e726	0.9136833
99	0x3f8352d4	1.0259652
100	0x3f59419a	0.84865725
101	0x3f64f426	0.8943504
102	0x3f452e81	0.77024084
103	0x3f7f81c8	0.99807405
104	0x3f6aa69c	0.91660476
105	0x3f774f90	0.9660578
106	0x3f61e225	0.88235694
107	0x3f4d8c33	0.8029205
108	0x3f7a27c4	0.9771693
109	0x3f83ffcf	1.0312442
110	0x3f873227	1.056218
111	0x3f4c0227	0.79690784
112	0x3f74bc2f	0.95599645
113	0x3f462264	0.77396226
114	0x3f76d000	0.9641113
115	0x3f551252	0.8323108
116	0x3f62f7b5	0.8865922
117	0x3f8a8d57	1.0824383
118	0x3f6abd43	0.9169504
119	0x3f897a48	1.0740442
120	0x3f664e16	0.899629
121	0x3f6033ec	0.87579226
122	0x3f208278	0.6269908
123	0x3f7ff5b0	0.99984264
124	0x3f3507e1	0.7071515
125	0x3f7056f8	0.93882704
126	0x3f4cff14	0.8007672
127	0x3f8167cc	1.0109801

layer2.1.bias f4 [128]
0	0xbe1407db	-0.14456122
1	0xbe226300	-0.15858078
2	0xbe607837	-0.21920858
3	0xbe152db7	-0.1456822
4	0xbe476dfb	-0.19475548
5	0xbe32f0e8	-0.17474711
6	0xbdfae58c	-0.12250814
7	0xbdf832c0	-0.12119055
8	0xbdaea794	-0.08528057
9	0xbe0984bb	-0.13429539
10	0xbe8d3dfb	-0.2758635
11	0xbe143e46	-0.1447688
12	0xbdf07103	-0.11740305
13	0xbe407013	-0.18792753
14	0xbe158896	-0.14602885
15	0xbdf1c324	-0.11804798
16	0xbe564852	-0.20926026
17	0xbe267e0b	-0.16259019
18	0xbe30ccd5	-0.17265637
19	0xbd58f929	-0.052971993
20	0x3b97014c	0.004608309
21	0xbe40e0fe	-0.18835828
22	0xbe1bdd5d	-0.15221162
23	0xbe07981d	-0.1324162
24	0xbe59e6ee	-0.21279499
25	0xbe16e4e4	-0.14735752
26	0xbe31384d	-0.17306633
27	0xbe591e70	-0.21203017
28	0xbe7314d7	-0.23738419
29	0xbe2840c6	-0.16430959
30	0xbe376639	-0.17910089
31	0xbe7ec602	-0.24880221
32	0xbe0c8fe1	-0.1372676
33	0xbe07d35a	-0.13264218
34	0xbe055f1b	-0.13024561
35	0xbe3d18d8	-0.18466508
36	0xbdfb8ec5	-0.122830905
37	0xbe128ae9	-0.14310803
38	0xbd99122e	-0.074741706
39	0xbe61e406	-0.2205964
40	0xbe568204	-0.20948035
41	0xbdc8cab6	-0.09804289
42	0xbe0c5904	-0.13705832
43	0xbdb06351	-0.08612693
44	0xbe50867c	-0.20363802
45	0xbe0564f3	-0.1302679
46	0xbe08afc1	-0.13348295
47	0xbe21b582	-0.15791896
48	0xbe958875	-0.2920567
49	0xbd5d2b4a	-0.05399636
50	0xbe23f362	-0.16010812
51	0xbe32c585	-0.1745816
52	0xbe1ab2c3	-0.15107255
53	0xbde0c68e	-0.10975371
54	0xbe6195a5	-0.22029741
55	0xbe541c9a	-0.20714036
56	0xbdd844b2	-0.105599776
57	0xbdfc08f9	-0.12306399
58	0xbe1e749e	-0.15474173
59	0xbdc57a5a	-0.09642477
60	0xbd064f20	-0.032790303
61	0xbe08075a	-0.13284054
62	0xbe387aff	-0.1801567
63	0xbe3759c7	-0.17905341
64	0xbdf8a96b	-0.12141689
65	0xbe2f48f9	-0.1711768
66	0xbe792379	-0.24329938
67	0xbdec6997	-0.11543577
68	0xbe195a3e	-0.14975831
69	0xbdbc9b7d	-0.092093445
70	0xbe10d4cf	-0.1414368
71	0xbdf75fd5	-0.120788254
72	0xbdfab87d	-0.122422196
73	0xbe1fee1b	-0.15618174
74	0xbde0470b	-0.1095105
75	0xbe1789a1	-0.14798595
76	0xbdce3639	-0.10068936
77	0xbe39f42b	-0.18159549
78	0xbe0b272d	-0.13589163
79	0xbe5098db	-0.2037081
80	0xbdf36324	-0.11884144
81	0xbea865b6	-0.328901
82	0xbe4dabf0	-0.2008512
83	0xbd951e89	-0.07281215
84	0xbe4aad1f	-0.19792603
85	0xbe167dff	-0.14696501
86	0xbdf5088d	-0.119645216
87	0xbe0efc9a	-0.13963547
88	0xbde72612	-0.11286558
89	0xbea279e7	-0.3173363
90	0xbdd5ec70	-0.104454875
91	0xbe1bcc49	-0.15214647
92	0xbdcfe923	-0.10151889
93	0xbe1fe967	-0.1561638
94	0xbe161e7d	-0.14660068
95	0xbdb0b700	-0.086286545
96	0xbe30189b	-0.17196886
97	0xbe8c2c80	-0.273777
98	0xbe4fb590	-0.20284104
99	0xbda7c1ea	-0.08191283
100	0xbe397b2f	-0.18113397
101	0xbe4d9bf5	-0.20079024
102	0xbe766283	-0.24061017
103	0xbda9803d	-0.08276413
104	0xbdc97a9c	-0.09837839
105	0xbe563551	-0.20918776
106	0xbe3cf9cd	-0.18454666
107	0xbe65d10c	-0.22443026
108	0xbde1b8ad	-0.11021552
109	0xbdd4fcc3	-0.10399773
110	0xbd902271	-0.07037819
111	0xbe76492b	-0.24051349
112	0xbdfec509	-0.12439925
113	0xbe493bb1	-0.19651677
114	0xbdf64e67	-0.12026673
115	0xbe35435a	-0.17701474
116	0xbe5e5c99	-0.2171501
117	0xbd4ee395	-0.050510008
118	0xbe1349dd	-0.14383645
119	0xbe05842b	-0.130387
120	0xbe02b200	-0.12763214
121	0xbe249285	-0.16071518
122	0xbe8f9df0	-0.28050184
123	0xbe0286ca	-0.1274673
124	0xbe9bc7f8	-0.30426002
125	0xbe0fa976	-0.14029488
126	0xbe1879e6	-0.1489025
127	0xbe39230a	-0.18079773

layer2.1.running_mean f4 [128]
0	0x3f6a6abd	0.9156912
1	0xbf1c0ea4	-0.6095984
2	0xc03c1361	-2.9386828
3	0xc02de16b	-2.7168834
4	0x3f84f5a4	1.0387464
5	0xbec32e1c	-0.38121116
6	0xc029ee8c	-2.6551847
7	0x3fdecbaa	1.7405903
8	0x3f28ac17	0.6588759
9	0x3f5efd08	0.87104845
10	0xc01d1d7e	-2.454925
11	0xc0343bdf	-2.8161542
12	0xc02ffafa	-2.7496934
13	0xbf990d85	-1.1957251
14	0x3e976631	0.29570153
15	0x3fa8bf01	1.318329
16	0xbe3081e2	-0.17237046
17	0xc0389d6d	-2.8846085
18	0xc01b6649	-2.428118
19	0xbe9b428e	-0.30324215
20	0x406b62a5	3.6778958
21	0x3fcef4c2	1.6168444
22	0x3ee41042	0.44543654
23	0xbe5a8cc7	-0.21342765
24	0xbffcdb9e	-1.9754522
25	0xbd94b754	-0.072615296
26	0xc05861fb	-3.3809803
27	0xc08298ff	-4.0811763
28	0xc02276c3	-2.5384986
29	0xc05b8acb	-3.4303463
30	0xc0368fa6	-2.8525176
31	0x4016d1aa	2.3565469
32	0xbfa5e7d7	-1.2961377
33	0x3f51068e	0.81650627
34	0x400c5011	2.1923869
35	0xbffc251c	-1.9698825
36	0xbf3e1b64	-0.74260545
37	0xbe39df04	-0.1815148
38	0x3fa5aa6c	1.2942634
39	0xc044c022	-3.0742269
40	0x402495ec	2.5716505
41	0x3ed0c69c	0.40776527
42	0xbf66f27f	-0.9021377
43	0x40ca8617	6.3288684
44	0xbf5c1afb	-0.8597867
45	0xc050bc6e	-3.2615008
46	0x3d0e143e	0.034687273
47	0x3d976bb6	0.07393591
48	0xc0083d36	-2.128736
49	0x407d1085	3.9541333
50	0x3f592802	0.8482667
51	0x3e4e3665	0.20137937
52	0x400058c8	2.0054188
53	0x3f5db79c	0.8660829
54	0xc0173b93	-2.3630111
55	0xbfb5f080	-1.421402
56	0xc0256789	-2.5844443
57	0x3ca136b1	0.0196794
58	0xbffad77e	-1.9597013
59	0x3f8754c5	1.0572745
60	0x40b7d3bd	5.744597
61	0x3e33b773	0.17550449
62	0xc00fd217	-2.2471979
63	0xbe1bbc76	-0.15208611
64	0x401ef9ae	2.4839892
65	0xc04edc5e	-3.2322001
66	0x40049d05	2.0720837
67	0xc0597057	-3.3974817
68	0xbe62a780	-0.22134209
69	0x3f81319a	1.0093262
70	0x3d07e2c9	0.033175264
71	0x3ef7a9e3	0.483718
72	0xbd124249	-0.035707746
73	0xbffd8aa5	-1.9807936
74	0xbf34dc14	-0.7064831
75	0x3fb4d727	1.4128159
76	0xbfc34a70	-1.5257092
77	0xbf8b00a8	-1.0859575
78	0xc06c85df	-3.6956708
79	0x40001d9d	2.0018075
80	0xbeba45ee	-0.36381477
81	0xc088f2fc	-4.279661
82	0xbfdd1fd1	-1.7275335
83	0x4022b220	2.542122
84	0xc06d7040	-3.7099762
85	0xbf8e9737	-1.1139897
86	0x4011939e	2.2746348
87	0xbea864ec	-0.32889497
88	0xc02bb6bd	-2.6830285
89	0xc0386e58	-2.8817348
90	0xbf07efb9	-0.5310016
91	0x3e3cabe1	0.18424942
92	0xbf10d3e3	-0.56573313
93	0xbef8f06e	-0.48620933
94	0xc00a5c0c	-2.161868
95	0x3f14a5ec	0.58065677
96	0xc07bb558	-3.9329433
97	0x3dceee2e	0.10104023
98	0xc04e2595	-3.2210438
99	0xbf8433b6	-1.0328281
100	0xbf9a950b	-1.2076734
101	0xc034c39f	-2.8244398
102	0xc00ca319	-2.1974547
103	0x3de8a58e	0.11359702
104	0x3f674d36	0.9035219
105	0x3f479266	0.7795776
106	0x4008db88	2.1383991
107	0xc01a3a5f	-2.4098127
108	0x3f98c50d	1.1935135
109	0x3fe2f1c5	1.7730032
110	0x40008eac	2.008708
111	0xbfdb279d	-1.7121464
112	0xc013f71b	-2.3119571
113	0xbf65c113	-0.8974773
114	0x3f20a159	0.62746197
115	0xbf35cd16	-0.7101606
116	0xbe80364f	-0.25041434
117	0x3ff000a7	1.8750199
118	0xc02cd4db	-2.7004917
119	0xbebfb11a	-0.37439805
120	0xc0870b9e	-4.220168
121	0x3ecd1d5d	0.40061465
122	0xc0054251	-2.0821726
123	0x40407770	3.00729
124	0xc0ae0502	-5.4381113
125	0xc0373afb	-2.862975
126	0xbe8dac3d	-0.2767047
127	0xc04cafe9	-3.1982367

layer2.1.running_var f4 [128]
0	0x411d9eb4	9.851246
1	0x410343bc	8.204037
2	0x418fdf1c	17.98394
3	0x4192d57e	18.354244
4	0x41df89ce	27.942287
5	0x416e7a80	14.904907
6	0x41425bb4	12.147388
7	0x414cb110	12.793228
8	0x40daaad9	6.8333554
9	0x410ae20e	8.680189
10	0x4169209c	14.570461
11	0x41936a1d	18.426813
12	0x419d47d1	19.660067
13	0x414aad36	12.667288
14	0x41ca831b	25.314016
15	0x410433e7	8.262671
16	0x41b0a837	22.082136
17	0x4182b855	16.340006
18	0x41a1b742	20.214481
19	0x4186b7ea	16.839802
20	0x41a35c0b	20.419943
21	0x4103d076	8.238394
22	0x41ed1d6f	29.639372
23	0x40ff138a	7.971135
24	0x4185487d	16.660395
25	0x40d9d14c	6.806799
26	0x4184ef2b	16.616781
27	0x41a50c80	20.631104
28	0x41a87d85	21.061289
29	0x41859ce2	16.701603
30	0x417b8deb	15.722148
31	0x4108ddc2	8.55414
32	0x4174d41e	15.301786
33	0x40dc21c6	6.8791227
34	0x415917ca	13.568308
35	0x418eaa94	17.83329
36	0x4136621f	11.398955
37	0x40d65fbc	6.6991863
38	0x40cfcc71	6.493706
39	0x418a17b8	17.261581
40	0x417b274c	15.697094
41	0x4106a2b4	8.414722
42	0x416c1630	14.755417
43	0x41f69f10	30.827667
44	0x41818fe5	16.195261
45	0x419f0e13	19.881872
46	0x40d93fc7	6.7890353
47	0x41e55776	28.667706
48	0x411d56ce	9.833693
49	0x41af0344	21.876595
50	0x40bffa3e	5.999297
51	0x415087d5	13.033162
52	0x41072336	8.446096
53	0x40ca6b57	6.325603
54	0x4160c3ea	14.047831
55	0x4124b505	10.294194
56	0x41b97435	23.181742
57	0x40f603ba	7.687955
58	0x411a9ac4	9.662785
59	0x40eeb4e8	7.4595833
60	0x41ff7808	31.933609
61	0x4110d873	9.052844
62	0x4169742d	14.590863
63	0x41311683	11.067996
64	0x4137be75	11.483998
65	0x4164fab3	14.311206
66	0x41327de5	11.155736
67	0x416c8b92	14.784075
68	0x41b950c1	23.16443
69	0x40e9bb6b	7.304128
70	0x413f41e6	11.9535885
71	0x41810b8a	16.130634
72	0x40d013d8	6.5024223
73	0x4140462c	12.017132
74	0x40fefecd	7.9686036
75	0x413a6888	11.65052
76	0x4120c35e	10.047697
77	0x41cb1671	25.385958
78	0x4194aeb1	18.585299
79	0x4124f932	10.310839
80	0x41ae84bc	21.814812
81	0x41ad6b89	21.677507
82	0x419f945f	19.947447
83	0x416536fa	14.325922
84	0x4194f97f	18.621824
85	0x40cc0503	6.375612
86	0x4133ae12	11.229998
87	0x413b474c	11.704906
88	0x417f8047	15.968818
89	0x417eeb9c	15.932522
90	0x412d4723	10.829867
91	0x41d60d12	26.756382
92	0x4106739f	8.403228
93	0x411cbe64	9.796482
94	0x410f4428	8.95414
95	0x410da775	8.853383
96	0x41b9944d	23.197412
97	0x415c50b8	13.769707
98	0x41b05a99	22.044237
99	0x415ef5ed	13.93504
100	0x41200462	10.00107
101	0x416b2cbf	14.698424
102	0x411a2926	9.635046
103	0x41112a69	9.072854
104	0x40ca9ed5	6.3318887
105	0x410e1a70	8.881454
106	0x414def75	12.870961
107	0x415161dc	13.086391
108	0x40d830e8	6.75597
109	0x419b758e	19.4324
110	0x4164165e	14.255461
111	0x417b22f4	15.6960335
112	0x418d77d6	17.683514
113	0x41438e47	12.222236
114	0x4108020f	8.500503
115	0x41923173	18.274145
116	0x41aed8bf	21.855833
117	0x414eca1c	12.924343
118	0x418214a2	16.260075
119	0x41bb4798	23.409958
120	0x418fb9b0	17.965668
121	0x40c698ad	6.206137
122	0x415b190c	13.693615
123	0x418f605c	17.92205
124	0x420154eb	32.332928
125	0x4173f61a	15.247583
126	0x413b232d	11.696088
127	0x4190bf64	18.093452

linear1.weight f4 [4, 16000]
0	0x3bdf6600	0.0068175793
1	0xbc81ddf8	-0.015852913
2	0xba702280	-0.00091604143
3	0xbd83cefa	-0.06435962
4	0xbc8c828d	-0.017152095
5	0x3c195671	0.009358988
6	0xbd7aa5f3	-0.061193418
7	0xbcc7fa70	-0.02441141
8	0x3c462920	0.012094766
9	0xbd9e609a	-0.07733269
10	0xbca49e45	-0.020095
11	0x3d818a02	0.06325151
12	0xbc9354b7	-0.017984731
13	0x3d09f8cc	0.033684537
14	0x39bc7e1b	0.0003595211
15	0xbd48a7c9	-0.048988137
16	0xbc259f49	-0.010108777
17	0xbd488506	-0.048954986
18	0xbda89a10	-0.0823251
19	0x3ce9a0c6	0.028519046
20	0x3c8ce64d	0.01719966
21	0xbd557e4b	-0.052122395
22	0xbd80620e	-0.062687024
23	0xbc298a4f	-0.010347917
24	0xbc8f93ed	-0.017526591
25	0xbbcde644	-0.0062835533
26	0x3d7010ca	0.05860976
27	0x3ca29c7b	0.019850006
28	0x3b799b1f	0.0038086844
29	0xbcf1782c	-0.029476248
30	0xbcabd7be	-0.020976897
31	0xbd6786ca	-0.05652503
32	0xbcc0f7bf	-0.023555635
33	0x3c8e552b	0.017374596
34	0xbdadb66f	-0.08482062
35	0xbd3b1657	-0.0456756
36	0xbdc259f6	-0.09489815
37	0x3d0bf85f	0.034172412
38	0x3b4c878b	0.003120872
39	0xbd3789f1	-0.044809286
40	0x3d237f97	0.0399166
41	0xbcd1d661	-0.02561492
42	0x3d32e2bc	0.043673262
43	0x3cb9d81a	0.022686053
44	0xbd45bd0d	-0.048275996
45	0x3d588d81	0.052869324
46	0xbcb7d51c	-0.022440486
47	0x3cfe22ec	0.031022511
48	0xbdc4b8eb	-0.09605583
49	0xbd31c42a	-0.043399967
50	0x3c84c0f3	0.016205287
51	0x3df02afc	0.117269486
52	0x3d3bbfc7	0.04583719
53	0xbdba9268	-0.09109956
54	0x3bc976cc	0.006148195
55	0xbab234be	-0.0013596041
56	0x3d66177f	0.05617475
57	0xbd7f650e	-0.062352233
58	0xbd8a8ad7	-0.06764763
59	0xbba4dd14	-0.0050312374
60	0xbc872f03	-0.01650191
61	0xbd8b9557	-0.06815594
62	0xbcd8639a	-0.026414681
63	0xbca73014	-0.020408668
64	0xbbc28007	-0.005935672
65	0x3c3e54b1	0.011616872
66	0x3bd1a352	0.006397643
67	0xbc8e13f3	-0.017343497
68	0xbc9bcb9f	-0.019017993
69	0x3b00444f	0.0019571965
70	0xbdbb01fc	-0.09131238
71	0x3cf2c457	0.029634638
72	0xbc6cab4c	-0.014445137
73	0xbdc9b2a6	-0.098485276
74	0xbd006a1b	-0.03135119
75	0x3bee2fdc	0.007268889
76	0x3d36d61a	0.044637777
77	0x3ccd797e	0.025082346
78	0xbc962dcc	-0.018332385
79	0xbd2dcde1	-0.04243267
80	0x3bafe492	0.005367824
81	0xbd7c6d6f	-0.0616278
82	0xbd464521	-0.04840577
83	0x3c5bec45	0.01342303
84	0x3b92b2fc	0.004476903
85	0x3b397b05	0.0028302085
86	0x3d3d5f5f	0.04623353
87	0x39e54e0d	0.00043736436
88	0x3ca0f7f2	0.01964948
89	0xbde7deb7	-0.11321776
90	0xbd905ddc	-0.07049152
91	0xbdfdff71	-0.12402237
92	0x3d7bc349	0.061465535
93	0x3d4bc654	0.049749687
94	0x3ccb2566	0.024798106
95	0xbcab517d	-0.02091288
96	0x3cd969a4	0.026539631
97	0x3d785600	0.06062889
98	0xbd131af0	-0.03591436
99	0xbd02fc9c	-0.03197919
100	0xbddb1390	-0.106970906
101	0x3b845e28	0.0040395446
102	0xbcbd9cfc	-0.023146145
103	0xbc722cd8	-0.014781199
104	0x3c71f1a5	0.014767085
105	0x3dabe42e	0.08393131
106	0xbd6adbdf	-0.05733859
107	0xbcdc4680	-0.026889086
108	0xbd82f690	-0.06394684
109	0x3ab9ebce	0.0014184655
110	0xbc48fef4	-0.012267817
111	0xbc31ef91	-0.01086034
112	0xbd4a3304	-0.04936506
113	0x3c432d0b	0.011912595
114	0xbcd59962	-0.026074115
115	0xbd49ff03	-0.049315464
116	0x3d5b11a9	0.05348364
117	0xbd45aa91	-0.048258368
118	0xbd23ae07	-0.039960887
119	0x3d837430	0.064186454
120	0x3c91e92b	0.017811378
121	0xbc9fee0f	-0.019522695
122	0x3b99fe6b	0.0046995184
123	0xbce22584	-0.02760578
124	0x3cc33cce	0.023832705
125	0x3d35458f	0.04425579
126	0x3c584af4	0.013201464
127	0x3d1c02c7	0.038088586
128	0x3b9c5502	0.004770876
129	0xbb90ab22	-0.004414932
130	0xbca72da0	-0.020407498
131	0x3cd3f2db	0.025872638
132	0xbdd1b1b5	-0.10238973
133	0xbd99e871	-0.07515038
134	0xbc8e8f7f	-0.017402409
135	0x3c167c26	0.009184873
136	0x3caa1de6	0.02076621
137	0xbd3a94c4	-0.04555203
138	0x3d7e0568	0.062016875
139	0xbd92e580	-0.0717268
140	0xbd22f174	-0.03978105
141	0xbc9d9b17	-0.019238992
142	0xbcc10f91	-0.023566993
143	0x3b484be4	0.0030562812
144	0xbd13d650	-0.036093056
145	0xbce4dd27	-0.027937485
146	0x3cedae30	0.029013723
147	0xbcaf9b95	-0.021436492
148	0xbd1bd068	-0.03804055
149	0xbd3fec9e	-0.046856515
150	0xbc7c9846	-0.015417164
151	0xbd4f8759	-0.050666187
152	0xbc8567be	-0.01628482
153	0x3cbec7c6	0.023288619
154	0xbac1758f	-0.0014759767
155	0xbd11759e	-0.03551256
156	0xbd02990e	-0.031884246
157	0xbcb8daea	-0.022565324
158	0xba937253	-0.0011249281
159	0xbc9fcdca	-0.019507308
160	0x3cd35821	0.02579886
161	0xbd357047	-0.04429653
162	0x3d54948d	0.05189948
163	0x3d21219b	0.03933869
164	0x3d1131d4	0.03544791
165	0xbd7b1ee0	-0.06130874
166	0x3d0ee66c	0.034887716
167	0xbb4b01f7	-0.0030976513
168	0xbd599f66	-0.05313053
169	0xbbf05873	-0.0073347627
170	0xbca8a94e	-0.020588543
171	0x3cddb10a	0.027061958
172	0x3d46781d	0.048454393
173	0x3d5b97ea	0.053611673
174	0xbc84c89e	-0.016208943
175	0xbcb63ab7	-0.022244794
176	0xbd41b12e	-0.047288112
177	0x3d616d97	0.055036154
178	0x3d160c88	0.036633044
179	0x3c271b90	0.0101994425
180	0x3d6e964d	0.058248807
181	0xbc4ed505	-0.01262403
182	0x3cb863a0	0.022508442
183	0xbd05e299	-0.032686803
184	0x3d1cc138	0.038270205
185	0x3ca27ed3	0.019835865
186	0xba1a96b0	-0.0005897088
187	0x3dac32ea	0.084081486
188	0x3ce64afa	0.028111923
189	0xbd5cdafe	-0.053919785
190	0x3c6b65fe	0.014367579
191	0xbc9f0990	-0.01941374
192	0x3d88661a	0.06660099
193	0x3d24809e	0.04016172
194	0x3c760461	0.015015692
195	0x3c2e3098	0.010631703
196	0xbc3106d7	-0.010804853
197	0x3d9e04ec	0.077157825
198	0x3d87afab	0.06625303
199	0x3d2cdafb	0.042201024
200	0x3c4aaf8d	0.012370956
201	0x3ba21fe2	0.0049476484
202	0x3d5cb733	0.05388565
203	0x3cdf66de	0.02727073
204	0x3c9156ae	0.017741527
205	0xb997e81f	-0.00028973908
206	0xba1385d9	-0.000562755
207	0x3d92748e	0.07151137
208	0x3c51e32a	0.012810508
209	0x399b85ce	0.00029663596
210	0x3cf9f824	0.03051383
211	0x3dd20160	0.102541685
212	0x3cf51b94	0.029920377
213	0xbdb39ead	-0.087704994
214	0xbce9e5df	-0.028551994
215	0xbb7cfff0	-0.00386047
216	0x3a58e895	0.00082744035
217	0x3cb57723	0.022151535
218	0xbdb28230	-0.087162375
219	0x3d8d3e26	0.068966195
220	0xbca37cf2	-0.01995704
221	0x3db21205	0.08694843
222	0x3dca73bf	0.09885358
223	0x3d3b64ef	0.045750555
224	0x3d6c36a6	0.057669304
225	0xbc1a7e11	-0.009429471
226	0x3d715055	0.0589145
227	0xbd50b675	-0.050955255
228	0x393f4278	0.00018239941
229	0xbced86a7	-0.028994871
230	0x3dd7d4e5	0.10538653
231	0xbc02f562	-0.007993074
232	0x3d630fb1	0.055434886
233	0x3d8e65f2	0.06953038
234	0xbcfed24a	-0.031106133
235	0x3cb0c474	0.021578051
236	0xbd0876f9	-0.033316586
237	0x3c39385c	0.011304941
238	0xb907cde4	-0.00012951304
239	0x3cf3feda	0.029784609
240	0xbdb588b5	-0.088639654
241	0x3d9094a8	0.07059604
242	0x3d68756c	0.056752607
243	0xbcffa1ff	-0.031205175
244	0xbc486409	-0.0122308815
245	0xbc292c7c	-0.010325547
246	0xbd4aff5a	-0.04955993
247	0xbdaed508	-0.08536726
248	0xbd257a6d	-0.040399957
249	0xbcba17f0	-0.022716492
250	0xbcaf495b	-0.021397283
251	0x3b0fcb4c	0.0021941243
252	0x3d78004e	0.060547166
253	0xbcaf98fb	-0.021435251
254	0x3dc5145b	0.09623023
255	0x3cc1bf62	0.023650829

linear1.bias f4 [4]
0	0xbd8ef7cc	-0.06980857
1	0x3d044332	0.032290645
2	0x3cfbd406	0.03074075
3	0xbd124fc2	-0.035720594
