bearings/outdated/CWRU/Model/model_2.pth (torch, 431206 bytes, 14 tensors)

layer1.0.weight f4 [64, 1, 9]
0	0x3e8dfbf3	0.27731284
1	0x3dd60e0a	0.104518965
2	0xbea678cd	-0.3251404
3	0x3e8316b6	0.25603265
4	0xbe5c20ec	-0.21496934
5	0x3e1edb56	0.15513358
6	0x3df8e568	0.12153131
7	0xbe161a35	-0.14658435
8	0xbe6634b2	-0.22481039
9	0x3e17a222	0.14807943
10	0xbc0a6ef6	-0.008449307
11	0xbddb2399	-0.10700149
12	0xbe073eee	-0.132076
13	0x3e0005e6	0.1250225
14	0x3e2e00d1	0.16992499
15	0xbec9de8f	-0.3942761
16	0x3d0e648b	0.034763854
17	0x3e8569f5	0.260574
18	0x3da0d82b	0.07853731
19	0xbed6064f	-0.41801688
20	0x3ea607db	0.32427868
21	0xbddc7bff	-0.10765838
22	0x3d048282	0.032351024
23	0x3e70e62d	0.23525305
24	0xbd8a285d	-0.0674598
25	0x3dda6313	0.10663428
26	0x3e9f4a2d	0.3111128
27	0xbec8b795	-0.39202562
28	0x3ed30026	0.4121105
29	0xbe524155	-0.20532735
30	0x3dbf0b75	0.09328357
31	0xbe3aea44	-0.18253428
32	0xbd5a0988	-0.053231746
33	0x3d682683	0.056677353
34	0x3e843241	0.2581959
35	0xbeb92e47	-0.3616812
36	0xbe8b39fa	-0.2719267
37	0x3e027d33	0.12743072
38	0x3e52f535	0.20601352
39	0xbe042a9d	-0.1290688
40	0xbdac543b	-0.08414503
41	0x3e68656e	0.22694942
42	0xbd633471	-0.055469934
43	0xbe592a81	-0.2120762
44	0xbebea961	-0.372386
45	0x3e01b52e	0.12666771
46	0x3e3ef2a7	0.18647252
47	0x3d85ef55	0.065397896
48	0x3e8815b1	0.2657905
49	0xbc9968ed	-0.01872679
50	0x3e74c0a9	0.23901619
51	0x3e3f2056	0.18664679
52	0x3e1239d1	0.14279868
53	0x3dea4b5d	0.11440156
54	0x3de96479	0.11396117
55	0xbf00c3a2	-0.5029851
56	0xbe3d77f4	-0.1850279
57	0x3e3aac59	0.18229808
58	0xbe731818	-0.2373966
59	0x3ea031e8	0.31288075
60	0x3e5e3f7c	0.21703905
61	0x3d952794	0.072829396
62	0xbe63b92a	-0.22238603
63	0x3ea92658	0.33037066
64	0x3e8d95a5	0.27653232
65	0xbe40aaf8	-0.1881522
66	0x3e734759	0.23757686
67	0xbb357e49	-0.002769368
68	0xbdebb720	-0.11509538
69	0x3e3829fb	0.17984764
70	0xbdd08fbb	-0.101836644
71	0xbed94e09	-0.4244235
72	0xbe6c8970	-0.23099303
73	0x3ed1a2cc	0.40944517
74	0x3e18b915	0.14914353
75	0xbcaf113c	-0.021370523
76	0xbe393223	-0.18085532
77	0xbe224159	-0.1584524
78	0xbe2d0091	-0.16894747
79	0x3ee7e961	0.4529524
80	0x3c1d0220	0.009583026
81	0x3da8d7cd	0.08244286
82	0x3ea64554	0.32474768
83	0x3db0155b	0.08597823
84	0xbd89b561	-0.067240484
85	0xbe8a02a8	-0.26955152
86	0xbdb58edf	-0.08865141
87	0x3e33d633	0.1756218
88	0x3eb17b92	0.3466459
89	0x3d134e7b	0.035963517
90	0xbe83e8de	-0.257636
91	0x3e486e9d	0.19573446
92	0xbe7450e1	-0.23858978
93	0x3db0bcdd	0.08629773
94	0x3da1d58e	0.079020604
95	0xbe896322	-0.26833445
96	0x3ec27462	0.37979418
97	0xbeaca8e5	-0.33722606
98	0x3e5f2c8d	0.21794339
99	0x3ea78291	0.32716802
100	0x3d81e62f	0.06342732
101	0x3e33c90d	0.17557164
102	0xbcddbe77	-0.02706836
103	0xbe19a00f	-0.15002464
104	0x3de5e0be	0.11224507
105	0xbdb28276	-0.0871629
106	0x3e2cbdda	0.16869298
107	0x3e9c9de1	0.30589202
108	0xbe96e4ed	-0.29471532
109	0xbe3fa0e8	-0.18713725
110	0xbb4703ec	-0.0030367328
111	0xbdc22103	-0.09478953
112	0x3e74ea65	0.2391754
113	0x3d5b4862	0.053535827
114	0xbe4b9a13	-0.19882993
115	0x3d247922	0.040154584
116	0xbee1f38c	-0.44131124
117	0x3e7c5538	0.24641883
118	0x3b956381	0.004558981
119	0xbd4b440d	-0.049625445
120	0xbe629ac8	-0.22129357
121	0x3e1ece5d	0.15508409
122	0x3e765652	0.24056366
123	0x3e7d99e9	0.24765743
124	0x3c8df670	0.017329425
125	0xbeb904da	-0.36136514
126	0xbe132417	-0.14369236
127	0xbdcfd2fd	-0.10147665
128	0x3e458287	0.19288073
129	0xbe121bfe	-0.1426849
130	0x3e976a46	0.29573268
131	0x3d2e537f	0.042560097
132	0x3e2fc48c	0.1716482
133	0xbe5a8496	-0.2133964
134	0xbe589338	-0.2114991
135	0x3e4c46d3	0.19948892
136	0x3e2c74b5	0.16841395
137	0x3e5b087f	0.2138996
138	0xbd672c66	-0.056438826
139	0xbe31e756	-0.17373404
140	0xbdcaa3d0	-0.09894526
141	0x3e397b7a	0.18113509
142	0x3e3d823c	0.18506712
143	0x3e8a0ea2	0.2696429
144	0x3d95eff5	0.07321159
145	0xbe43b84b	-0.19113271
146	0x3e6916a6	0.22762546
147	0xbeadf155	-0.33973184
148	0x3ebdd55d	0.37076846
149	0xbe9b44f2	-0.3032604
150	0x3e58c944	0.21170527
151	0xbe1519cc	-0.14560622
152	0x3d019301	0.031634334
153	0x3e7fbcbd	0.24974342
154	0xbebeabf1	-0.37240556
155	0xbc88b1a0	-0.01668626
156	0x3e23bdc1	0.15990354
157	0xbcdb6410	-0.026781112
158	0xbdc53d9e	-0.09630893
159	0x3e996e78	0.29967093
160	0xbdc472a2	-0.09592177
161	0xbe9b54db	-0.30338177
162	0x3e4f8ba3	0.20268111
163	0xbd43edbc	-0.047834143
164	0x3e472ecd	0.19451447
165	0xbe797c43	-0.24363808
166	0xbe5c27e2	-0.21499589
167	0xbeee429d	-0.46535197
168	0xbe704805	-0.23464973
169	0xbe842f57	-0.25817367
170	0xbd05097a	-0.03247974
171	0x3e05aa89	0.13053335
172	0xbdabd4a7	-0.083901696
173	0x3d2fc5ac	0.042913124
174	0x3daacdf0	0.08340061
175	0xbe3caeb9	-0.18426026
176	0xbf084151	-0.53224665
177	0xbe43afc5	-0.1911002
178	0xbebd70a8	-0.37000012
179	0xbe91b299	-0.28456572
180	0x3d803566	0.06260185
181	0x3ec55216	0.3853919
182	0x3d1744a2	0.036930688
183	0xbe8c819f	-0.27442643
184	0xbe27b7a3	-0.16378646
185	0xbcc9d441	-0.024637343
186	0x3e5fb2cd	0.21845551
187	0x3ef1c082	0.47217184
188	0xbe2984bd	-0.16554542
189	0x3dea004c	0.11425838
190	0x3d8e4fc7	0.0694881
191	0xbe5de6a6	-0.21670017
192	0xbd0589a6	-0.032601975
193	0x3e61e958	0.2206167
194	0xbe890c6c	-0.2676729
195	0x3cea3bdf	0.028593002
196	0x3ea349e5	0.31892315
197	0xbe98bcf1	-0.2983165
198	0xbe85c4f4	-0.26126826
199	0x3e5e11a9	0.21686424
200	0x3e3028f9	0.1720313
201	0x3cf1fe8f	0.029540328
202	0xbe14f464	-0.14546353
203	0x3e46c2f0	0.194103
204	0xbe7d7791	-0.24752642
205	0xbe8fd8b0	-0.28095007
206	0x3ec3b6aa	0.382253
207	0x3ece9e4b	0.40355143
208	0x3cdd74a5	0.02703316
209	0x3e5ff3d8	0.21870363
210	0xbe710f73	-0.2354105
211	0xbd535daf	-0.051603016
212	0xbe0269c0	-0.12735653
213	0x3d7906ad	0.060797382
214	0x3e317d93	0.17333059
215	0x3eba5af2	0.3639751
216	0xbeba7adf	-0.36421868
217	0x3e07e9a9	0.13272728
218	0xbe8ec55d	-0.2788495
219	0x3cafd39c	0.021463208
220	0x3db30458	0.08741063
221	0x3e217e8b	0.15770929
222	0xbe79a8cd	-0.24380799
223	0x3e5fbe24	0.21849877
224	0xbea243aa	-0.3169225
225	0x3ebe5fe4	0.37182534
226	0x3eb8ed89	0.36118725
227	0x3dd38749	0.10328538
228	0xbdc9576b	-0.09831127
229	0x3e2020c3	0.15637498
230	0x3e9c1b58	0.30489612
231	0xbdecc784	-0.11561492
232	0xbe90d77a	-0.28289396
233	0xbaf09c60	-0.001835715
234	0xbd9f5dc2	-0.07781555
235	0xbe4d9e62	-0.2007995
236	0x3de0c6a4	0.10975388
237	0x3e8b2068	0.27173162
238	0xbe589f5f	-0.21154545
239	0xbd9d3d3d	-0.07677696
240	0x3eb0d2db	0.3453587
241	0xbda98691	-0.0827762
242	0xbe69969d	-0.2281136
243	0x3d279795	0.040916044
244	0xbe267597	-0.16255794
245	0x3e05b7ce	0.13058397
246	0xbdffffff	-0.12499999
247	0xbd938f16	-0.07205026
248	0x3e824cda	0.25449258
249	0xbeb10f36	-0.34581918
250	0x3e741565	0.23836286
251	0xbe2525b6	-0.16127667
252	0xbcbcde89	-0.023055332
253	0xbeaf20cc	-0.3420471
254	0xbeaa48dd	-0.33258715
255	0xbde9562b	-0.11393388

layer1.0.bias f4 [64]
0	0xb73cda87	-1.1256553e-05
1	0xb6b4bb29	-5.3862063e-06
2	0xb93f4907	-0.00018242384
3	0xb7f1fcd4	-2.8847171e-05
4	0xb83a1425	-4.4364617e-05
5	0x37845049	1.5773012e-05
6	0x3885b0e0	6.37488e-05
7	0x390d4496	0.00013472358
8	0x39832334	0.00025012495
9	0xb8184276	-3.630152e-05
10	0x39f6c1a3	0.00047065047
11	0x380792d7	3.2323263e-05
12	0xba22f925	-0.0006216935
13	0xb82a2eff	-4.0574927e-05
14	0x38438d74	4.662336e-05
15	0x3976e665	0.00023546217
16	0x39f9ac2d	0.00047621262
17	0x37efc299	2.8581637e-05
18	0x391a73e9	0.00014729764
19	0x38361e66	4.3420492e-05
20	0x387c1977	6.0105198e-05
21	0xb887c157	-6.473314e-05
22	0x38a55ad4	7.884731e-05
23	0xb629596a	-2.5235008e-06
24	0xb970d76f	-0.00022968439
25	0x3883c75b	6.2836996e-05
26	0x38ab257d	8.160898e-05
27	0x391656b8	0.0001433742
28	0x38350037	4.3153963e-05
29	0x394658f0	0.00018915883
30	0x391fba79	0.00015232888
31	0xb96cad48	-0.00022571266
32	0x38405b0f	4.5861172e-05
33	0x385b22e0	5.224615e-05
34	0x38d974b8	0.00010369107
35	0xb9450727	-0.00018790048
36	0x3990a64d	0.00027589724
37	0x38dfeb13	0.000106772546
38	0x388f802d	6.842646e-05
39	0x38c5367d	9.403841e-05
40	0x39b1b4aa	0.00033894676
41	0xb9364edf	-0.00017386254
42	0xb9880b32	-0.00025948283
43	0x37eae266	2.8000399e-05
44	0xb9b5df69	-0.00034689464
45	0x37f18403	2.8790912e-05
46	0x382d5d58	4.1333347e-05
47	0xb89fdb46	-7.622554e-05
48	0xb737440d	-1.0923494e-05
49	0xb850b803	-4.976244e-05
50	0x37a49cab	1.9623278e-05
51	0xb88b92ce	-6.655381e-05
52	0x39648af7	0.00021795543
53	0xb88f90b2	-6.845723e-05
54	0x39519d46	0.00019990382
55	0x398f1f0c	0.00027298217
56	0xb9019e32	-0.00012361331
57	0x39d48dfa	0.00040541572
58	0xb80b7890	-3.3252465e-05
59	0x39161c66	0.00014315694
60	0x361c234f	2.3266364e-06
61	0x37b69b79	2.1768488e-05
62	0x39838f30	0.0002509295
63	0x385dc8b5	5.287743e-05

layer1.1.weight f4 [64]
0	0x3f85b41d	1.0445591
1	0x3f4768ec	0.77894473
2	0x3f83c044	1.029305
3	0x3f422fd8	0.75854254
4	0x3f39ac7e	0.7252883
5	0x3f8c50b1	1.0962125
6	0x3f44a994	0.76821256
7	0x3f83d0bb	1.0298074
8	0x3f606ea7	0.8766884
9	0x3f5f9e0a	0.87350523
10	0x3f6804fb	0.906326
11	0x3f86bf23	1.052708
12	0x3f8ba1dd	1.0908772
13	0x3f53848e	0.8262414
14	0x3f27c54d	0.6553543
15	0x3f8f71b0	1.120657
16	0x3f657172	0.8962623
17	0x3f62708d	0.8845299
18	0x3f94f0c5	1.1635977
19	0x3f5273f5	0.82208186
20	0x3f6c7f1d	0.9238146
21	0x3f4ada7b	0.79239625
22	0x3f59dbaf	0.85100836
23	0x3f81e3d2	1.014765
24	0x3f8fcf2e	1.1235101
25	0x3f42ef51	0.7614642
26	0x3f49e0bd	0.7885855
27	0x3f835bdb	1.0262407
28	0x3f53d7bf	0.8275108
29	0x3f828070	1.0195446
30	0x3f52f178	0.823997
31	0x3f893367	1.0718812
32	0x3f9e3cd5	1.2362314
33	0x3f667ba2	0.900324
34	0x3f5b1928	0.8558526
35	0x3f824a43	1.0178913
36	0x3f76f071	0.96460634
37	0x3f842197	1.0322751
38	0x3f4fdfc1	0.81200796
39	0x3f6e4526	0.9307426
40	0x3f7233af	0.9461011
41	0x3f86982e	1.0515192
42	0x3f69273e	0.91075504
43	0x3f462ed5	0.7741521
44	0x3f79995a	0.9749962
45	0x3f8c8292	1.0977347
46	0x3f611c9a	0.8793427
47	0x3f758e7a	0.95920527
48	0x3f3e058b	0.7422721
49	0x3f75f684	0.9607928
50	0x3f4a105a	0.789312
51	0x3f3a2715	0.72715884
52	0x3f84f7c6	1.0388114
53	0x3f6366ab	0.88828534
54	0x3f8028e9	1.0012485
55	0x3f8bee34	1.0932069
56	0x3f85d80d	1.0456558
57	0x3f87b083	1.0600742
58	0x3f4f3b07	0.80949444
59	0x3f502af2	0.8131553
60	0x3f4e4386	0.8057178
61	0x3f8d0f3c	1.1020274
62	0x3f80cb9b	1.0062135
63	0x3f9d98c0	1.2312241

layer1.1.bias f4 [64]
0	0xbef53071	-0.4788852
1	0xbe5ad2dc	-0.21369499
2	0xbe8f688d	-0.28009453
3	0xbde404fb	-0.111337624
4	0xbea10292	-0.31447273
5	0xbdb38447	-0.08765464
6	0xbd886159	-0.066591926
7	0xbe996f31	-0.29967645
8	0xbe1e73d9	-0.1547388
9	0xbdc54185	-0.096316375
10	0xbe5fc88a	-0.21853843
11	0xbe69f64b	-0.2284786
12	0xbe9363fe	-0.28787225
13	0xbecbf003	-0.39831552
14	0xbec9f144	-0.39441884
15	0xbdc55372	-0.096350566
16	0xbeed677e	-0.4636802
17	0xbd274198	-0.04083404
18	0xbd080c99	-0.03321514
19	0xbefc5cf4	-0.49289668
20	0xbe61b504	-0.22041708
21	0xbcef2090	-0.029190332
22	0xbdaf6a2a	-0.08565171
23	0xbe5d84c9	-0.21632685
24	0xbe744d85	-0.23857696
25	0xbec52b40	-0.3850956
26	0xbd8c0c0f	-0.068382375
27	0xbd6bc299	-0.05755863
28	0xbcc859eb	-0.024456939
29	0xbdc90629	-0.09815628
30	0xbd7cabc6	-0.061687253
31	0xbe53f0f4	-0.20697385
32	0xbd8c2b5e	-0.06844209
33	0xbece4781	-0.40288928
34	0xbeb51700	-0.3536911
35	0xbebafad6	-0.36519498
36	0xbdec33ad	-0.11533294
37	0xbeb283d3	-0.348662
38	0xbef2b75e	-0.47405523
39	0xbe07d800	-0.13265991
40	0xbe311170	-0.17291808
41	0xbd84156f	-0.06449401
42	0xbda081db	-0.07837268
43	0xbd1b14b9	-0.03786156
44	0xbd8a9a74	-0.06767741
45	0xbd496ca7	-0.049175885
46	0xbdf2df70	-0.118590236
47	0xbed0c3fe	-0.4077453
48	0xbe1b725c	-0.15180343
49	0xbe93931c	-0.28823173
50	0xbecbfec2	-0.39842802
51	0xbdc3aee5	-0.09554843
52	0x3e39f767	0.18160783
53	0xbe69c294	-0.22828132
54	0xbded5217	-0.11587923
55	0xbe23cedf	-0.15996884
56	0xbe9537cf	-0.2914414
57	0xbe17d6d9	-0.14828052
58	0xbe0985d2	-0.13429955
59	0xbdd9f63d	-0.10642669
60	0xbe0707d3	-0.13186578
61	0xbea521a4	-0.32252228
62	0xbe86cae1	-0.2632666
63	0xbe1e77c9	-0.15475382

layer1.1.running_mean f4 [64]
0	0xb74039ac	-1.145752e-05
1	0x3764374a	1.3602732e-05
2	0xb827bdc7	-3.9992647e-05
3	0xb907fb35	-0.00012968185
4	0xb950a642	-0.00019898362
5	0x39cc4f7b	0.0003896913
6	0x37d62ada	2.5530742e-05
7	0x396248a2	0.00021580097
8	0x39a1f546	0.00030891056
9	0x398bb8e8	0.00026649912
10	0x3992d6d2	0.00028007344
11	0x39a6fea6	0.00031851715
12	0xba3fc070	-0.0007314747
13	0x37991a59	1.825129e-05
14	0xb798a2af	-1.8195567e-05
15	0x39b0d82a	0.0003373039
16	0x3a264b87	0.0006343652
17	0xb85b7a02	-5.2327297e-05
18	0xb99e4cae	-0.0003019324
19	0xb9be198e	-0.00036258664
20	0x39452ab9	0.000188033
21	0xb9863003	-0.00025594243
22	0xb83ca14e	-4.497292e-05
23	0x393fcb04	0.00018290809
24	0xb9d7caea	-0.00041159178
25	0x396a2b33	0.00022332072
26	0x37e493c2	2.7248523e-05
27	0xb91b3ea1	-0.00014805283
28	0x3934a159	0.00017226244
29	0x39be4daa	0.00036297488
30	0x39035c3c	0.00012527494
31	0xb8b002e0	-8.3928695e-05
32	0xb9d8f2f6	-0.0004137975
33	0xb93914c0	-0.00017650705
34	0xb9b1810e	-0.00033856224
35	0xb915c1f8	-0.00014282006
36	0xb82954c6	-4.037169e-05
37	0x393cbf0c	0.00018000248
38	0xb96ee3c8	-0.00022782304
39	0x36989d42	4.54826e-06
40	0x398222d4	0.0002482148
41	0xb91f9011	-0.0001521709
42	0xb9d0022e	-0.00039674476
43	0x37582ad8	1.2884579e-05
44	0xba1d3b30	-0.00059978943
45	0x392f47ff	0.00016716121
46	0x39a3194d	0.00031108633
47	0xb99f259e	-0.0003035487
48	0xb8dd0a15	-0.00010539979
49	0x3942612a	0.00018537478
50	0x393f57c9	0.00018247882
51	0xb872bac1	-5.7871224e-05
52	0x3a2e51c5	0.0006649758
53	0x39986014	0.00029063283
54	0x3935a893	0.00017324304
55	0x3a114f8d	0.0005543165
56	0xb96f7598	-0.00022836623
57	0x3a32b2ed	0.0006816823
58	0xb5047b16	-4.9352946e-07
59	0x39809afd	0.00024529538
60	0x381e4e29	3.7742928e-05
61	0xb9d83059	-0.00041234752
62	0x38b555e6	8.6467524e-05
63	0xb9e55a4a	-0.00043745554

layer1.1.running_var f4 [64]
0	0x3e6c3b59	0.23069514
1	0x3f286e42	0.6579324
2	0x3e48dd18	0.1961559
3	0x3eae39ef	0.34028575
4	0x3f3d02cb	0.73832387
5	0x3e5b3ad7	0.21409164
6	0x3f09d61f	0.5384235
7	0x3eeec8cc	0.4663757
8	0x3ead9920	0.33905888
9	0x3e960d53	0.2930704
10	0x3d5399ea	0.051660456
11	0x3e3d4560	0.18483496
12	0x3e2f488c	0.17117518
13	0x3ead0e96	0.3380019
14	0x3e54f4aa	0.20796457
15	0x3e3da6ba	0.18520632
16	0x3c4ef9ad	0.0126327695
17	0x3f12c2c8	0.5732846
18	0x3eca3b9b	0.394986
19	0x3f238a57	0.63882965
20	0x3edd8733	0.4326721
21	0x3ed48e15	0.4151465
22	0x3f1ba364	0.6079619
23	0x3e76b496	0.24092326
24	0x3df6d338	0.120520055
25	0x3f7086a2	0.93955433
26	0x3f4a2bc5	0.78973037
27	0x3cc85169	0.024452882
28	0x3ef4d8c8	0.4782164
29	0x3e98f259	0.29872397
30	0x3ed8ff2b	0.42382178
31	0x3ea2e379	0.31814173
32	0x3ebc266a	0.36748058
33	0x3e3909e4	0.18070179
34	0x3f37296a	0.7154757
35	0x3e8c20d0	0.27368784
36	0x3e886887	0.26642248
37	0x3e5262a6	0.20545444
38	0x3e4c09b2	0.19925573
39	0x3e62138b	0.22077768
40	0x3e58c751	0.21169783
41	0x3e44d184	0.19220549
42	0x3ddfc9e6	0.10927181
43	0x3f4fbfc0	0.8115196
44	0x3e67e846	0.22647199
45	0x3de9e2a3	0.11420181
46	0x3ee1ccc4	0.44101536
47	0x3e252089	0.16125692
48	0x3d58aeb8	0.052901
49	0x3e1a1de9	0.15050472
50	0x3eed2379	0.46316126
51	0x3ede8bfd	0.43466178
52	0x3ebf8fbd	0.3741435
53	0x3ea1485d	0.3150052
54	0x3e3315a9	0.17488731
55	0x3e190381	0.14942743
56	0x3ec379bf	0.38178822
57	0x3e2ac37f	0.16676138
58	0x3e5a62af	0.21326707
59	0x3ee6a331	0.4504638
60	0x3f2566bf	0.64609903
61	0x3e9a0f27	0.30089685
62	0x3edc51d6	0.43031186
63	0x3eb48548	0.35257936

layer2.0.weight f4 [128, 64, 5]
0	0xbaf1f59a	-0.0018460036
1	0x3d5acdb9	0.05341885
2	0xbada1535	-0.00166384
3	0xbd82d8fa	-0.06389041
4	0xbd052d22	-0.032513745
5	0xbc95a052	-0.018264923
6	0xbd8bbedc	-0.06823513
7	0xbbaa0ede	-0.0051897606
8	0xbbc29aa7	-0.005938846
9	0xbd8b6a0b	-0.068073355
10	0xbd32cf67	-0.043654826
11	0xbdd64864	-0.10463026
12	0xbd2109bf	-0.039315935
13	0xbd83dfea	-0.064391926
14	0xbd16fb0e	-0.03686052
15	0xbe49dfe7	-0.19714318
16	0xbe240988	-0.16019261
17	0xbdffbcf8	-0.12487215
18	0xbde3890f	-0.11110126
19	0xbe5bcdbb	-0.21465199
20	0xbd9de1ad	-0.0770906
21	0xbd6c235d	-0.057650913
22	0x3cc972b6	0.024590831
23	0xbd059e4d	-0.03262167
24	0xba33c7a8	-0.0006858059
25	0x3c4da84d	0.012552333
26	0xbd7ec339	-0.062197898
27	0xbe08f4f9	-0.133747
28	0xbe0e7c8d	-0.139147
29	0xbe0ebf08	-0.1394006
30	0x3c152b61	0.009104581
31	0x3cacc651	0.021090658
32	0x3d414362	0.047183402
33	0xbdb3d9e7	-0.08781796
34	0xbce7347d	-0.02822327
35	0x3e0df4e4	0.1386295
36	0x3d6e958e	0.058248095
37	0x3c7082c6	0.014679616
38	0x3cad7198	0.02117233
39	0x3d3e25fc	0.046422943
40	0xbc904ae3	-0.017613834
41	0xbd3f68d6	-0.04673084
42	0xbb1a6634	-0.0023559453
43	0xbdee1d81	-0.11626721
44	0x3d2d295c	0.04227577
45	0x3cf31303	0.029672151
46	0xbd210b4b	-0.03931741
47	0xbe0a3428	-0.13496459
48	0xbd1d04a3	-0.0383345
49	0xbe2218ce	-0.15829775
50	0xbe34b138	-0.17645729
51	0xbdfaa1be	-0.12237881
52	0xbe6a0e48	-0.2285701
53	0xbe0fc11f	-0.14038514
54	0xbe200e02	-0.15630344
55	0xbc0adfda	-0.008476222
56	0xbd838082	-0.06420995
57	0xbcf00b88	-0.029302374
58	0xbd503865	-0.050835032
59	0xbd289d2c	-0.041165516
60	0xbd9dd24b	-0.07706126
61	0xbd6232bd	-0.05522417
62	0xbc953dd0	-0.018217951
63	0xbd4b8ec5	-0.049696703
64	0xbd70c556	-0.058781944
65	0x3d4ca4b1	0.04996175
66	0x3c0a6e3b	0.008449133
67	0x3d00f7a0	0.031486154
68	0xbd77289d	-0.060341466
69	0xbc99e213	-0.018784558
70	0xbb84d125	-0.0040532523
71	0x3d58ee2a	0.052961506
72	0x3d8e9156	0.069613144
73	0x3b4d7b85	0.003135414
74	0xbd232e77	-0.039839234
75	0x3d430f31	0.04762191
76	0xbc0ebb9e	-0.008711724
77	0xbcea3829	-0.028591232
78	0x3c93c8ab	0.018040022
79	0x3caf79da	0.021420408
80	0xbe094560	-0.1340537
81	0xbdcac5e5	-0.09901027
82	0xbdd494f6	-0.103799745
83	0xbe2e65d0	-0.17031026
84	0xbe4f52fd	-0.20246501
85	0x3c8c5e1a	0.017134715
86	0xbcef8471	-0.029237958
87	0xbd89c92c	-0.067278236
88	0xbdac18ab	-0.084031425
89	0xbdd18a7b	-0.10231491
90	0x3ea1f9cc	0.31635892
91	0x3e74440c	0.23854083
92	0x3e341ab8	0.17588317
93	0x3e2bceb0	0.16778064
94	0x3e409abd	0.18809028
95	0xbcbc6b09	-0.023000257
96	0xbd6f7594	-0.05846174
97	0xbcda70d0	-0.026665121
98	0x3ce61804	0.028087623
99	0xbd513e8e	-0.051085047
100	0xbc00c927	-0.007860458
101	0xbb523ef8	-0.003208099
102	0xbd848e85	-0.06472496
103	0xbdd6290f	-0.1045705
104	0xbda13913	-0.07872214
105	0xbdda23c3	-0.10651352
106	0xbd8451e7	-0.06460934
107	0xbde6026d	-0.112309314
108	0xbd9051f1	-0.07046879
109	0xbda9fddf	-0.08300375
110	0xbd4adc4e	-0.049526505
111	0xbcba77a3	-0.022762125
112	0xbda43c11	-0.08019269
113	0xbd0a8225	-0.03381552
114	0xbd96abe2	-0.07357003
115	0x3da71963	0.08159139
116	0x3dbc3a62	0.09190823
117	0x3d1bdf57	0.03805479
118	0x3c49ee96	0.01232495
119	0x3cacf351	0.021112116
120	0x3cf94f4d	0.030433321
121	0xbd04ff14	-0.032469824
122	0x3b864311	0.0040973504
123	0xbd400728	-0.046881825
124	0x3a22ad4d	0.00062056334
125	0xbd45bd3f	-0.048276182
126	0xbc66c292	-0.014084475
127	0xbb7b304b	-0.0038328345
128	0xbdf2c654	-0.11854234
129	0xbd7aeda9	-0.061261807
130	0xbd0ef5e4	-0.03490247
131	0xbc1bb682	-0.0095039625
132	0xbc0e08d3	-0.008669096
133	0xbd8fb59d	-0.07017062
134	0xbdc89a55	-0.097950615
135	0xbe755c3e	-0.23960969
136	0xbe69b8b6	-0.22824368
137	0xbe8d7f64	-0.27636254
138	0xbec6ea97	-0.38850853
139	0xbe982973	-0.29719123
140	0x3e0c9997	0.13730465
141	0x3d5ba06a	0.05361978
142	0x3de059b5	0.1095461
143	0x3e03cb97	0.12870632
144	0x3d4dc0d8	0.05023274
145	0x3e140bfc	0.14457697
146	0x3d3c1a0d	0.04592328
147	0x3d081772	0.033225484
148	0x3c1cc433	0.009568262
149	0xbdb9f5d4	-0.09080091
150	0xbc0fd088	-0.008777745
151	0x3cb6a7c6	0.022296797
152	0x3c955d4a	0.01823296
153	0xbcbee703	-0.023303514
154	0xbd80314a	-0.06259401
155	0x3deaadf2	0.11458959
156	0x3db09141	0.08621455
157	0x3cc6d709	0.024272459
158	0xbcb4e454	-0.022081532
159	0x3c931006	0.017951977
160	0xba92a55e	-0.0011188199
161	0xbd8c6541	-0.0685525
162	0xbdbd5b15	-0.09245888
163	0x3c12a41c	0.00895026
164	0xbdc71d94	-0.097224385
165	0xbdd8ec9d	-0.105920054
166	0xbde98bfd	-0.11403654
167	0xbd9ff0fb	-0.07809635
168	0xbdeff7c6	-0.11717181
169	0xbe00aa94	-0.1256507
170	0xbe300d9d	-0.17192693
171	0xbe7bdbcf	-0.24595569
172	0xbe7d2bc8	-0.24723732
173	0xbe8e5971	-0.27802613
174	0xbe43af22	-0.19109777
175	0x3e393309	0.18085875
176	0x3d6020f4	0.054718927
177	0xbd097da4	-0.033567086
178	0xbccbb711	-0.024867566
179	0x3d10664f	0.03525382
180	0xbcafffbf	-0.021484254
181	0xbd43a8dd	-0.047768462
182	0xbddd8493	-0.10816302
183	0xbd6265e9	-0.05527297
184	0xbdcf198f	-0.10112297
185	0x3d18ce74	0.037306264
186	0xbdb97eb2	-0.09057368
187	0xbdd432c0	-0.10361242
188	0xbd0496ee	-0.0323705
189	0xbc8fcb2f	-0.01755294
190	0xbd54565a	-0.051840164
191	0x3c2540c2	0.01008624
192	0xbdd4b855	-0.10386721
193	0xbe1aae7a	-0.1510562
194	0xbddf3d4a	-0.10900362
195	0xbc8541a0	-0.016266644
196	0xbda4065a	-0.08009024
197	0xbd49f150	-0.0493024
198	0xbcbc8f21	-0.023017468
199	0xbd643b94	-0.05572088
200	0xbcf651d7	-0.030068321
201	0x3cd603c1	0.026124837
202	0xbd34c48e	-0.04413276
203	0xbdd64d44	-0.10463956
204	0xbccf9cb3	-0.025343275
205	0x3c5f8958	0.013643585
206	0x3c617c76	0.013762584
207	0x3d0d87b7	0.034553256
208	0x3c4d2a57	0.012522302
209	0xbcfed169	-0.031105714
210	0xbcd7e183	-0.02635265
211	0xbd50e8e2	-0.051003344
212	0xbd206c46	-0.039165758
213	0xbd673cb6	-0.056454383
214	0xbdcfa05a	-0.101380065
215	0xbcc17ab4	-0.02361808
216	0x3cebe475	0.02879546
217	0xbcb89089	-0.022529857
218	0xbd94267e	-0.07233904
219	0xbdde92da	-0.108678535
220	0xbd1efe72	-0.038816877
221	0x3c14f9ee	0.009092791
222	0xbd149f5e	-0.036284797
223	0x3d02bf12	0.0319205
224	0x3c897ca5	0.016783068
225	0x3cc7379c	0.024318509
226	0xbc1f22c7	-0.009712881
227	0xbdf84587	-0.12122636
228	0xbd589684	-0.052877918
229	0x3d11d593	0.03560407
230	0x3d6ec0df	0.058289405
231	0x3c14b5a9	0.009076514
232	0xbc08df67	-0.0083540445
233	0xbde73553	-0.11289468
234	0xbce7fc80	-0.028318644
235	0xbe39e240	-0.18152714
236	0xbe607edb	-0.21923392
237	0xbead7486	-0.33877963
238	0xbe7ea941	-0.24869253
239	0xbe8c53f1	-0.27407792
240	0x3c861fe0	0.016372621
241	0x3c1f9698	0.009740494
242	0xbd96c784	-0.07362273
243	0xbd2cc16d	-0.042176653
244	0xbd677b8a	-0.0565143
245	0xbd4c590e	-0.049889617
246	0xbbedab7c	-0.0072531085
247	0xbd91b1cc	-0.0711399
248	0xbd89fe06	-0.06737904
249	0xbdaee2b3	-0.08539333
250	0xbd84d0d4	-0.06485143
251	0xbbeda82f	-0.007252715
252	0xbb1719af	-0.002305608
253	0xbd8d8c50	-0.06911528
254	0xbe400ef6	-0.18755707
255	0xbc12d561	-0.008962006

layer2.0.bias f4 [128]
0	0x368bb6e7	4.1638154e-06
1	0xb731d2a7	-1.0599068e-05
2	0x37b8892b	2.1998383e-05
3	0xb8016f82	-3.0859846e-05
4	0xb7a95d18	-2.018972e-05
5	0xb7b3a6a4	-2.1416061e-05
6	0xb78dc043	-1.6898039e-05
7	0x36c193c4	5.7690504e-06
8	0x381468b0	3.5383448e-05
9	0x36b1eecc	5.3028107e-06
10	0x37cf55bd	2.4716248e-05
11	0xb62db70a	-2.5885552e-06
12	0xb77b4de3	-1.49789e-05
13	0x36d82fb5	6.4428555e-06
14	0xb7860bbc	-1.5979509e-05
15	0xb2a7d80d	-1.9539607e-08
16	0x37fc4015	3.0070581e-05
17	0xb84e7f10	-4.9232563e-05
18	0x33a6ea81	7.7726334e-08
19	0xb632a2cd	-2.661883e-06
20	0x38209686	3.828716e-05
21	0xb7574ca0	-1.2832839e-05
22	0x38a1c3f4	7.713577e-05
23	0xb76d0288	-1.412689e-05
24	0xb6b593cc	-5.411426e-06
25	0xb70344c8	-7.824223e-06
26	0x3835e4b5	4.3366763e-05
27	0x374eaa98	1.2318276e-05
28	0x3782df2d	1.5601132e-05
29	0xb824391d	-3.9153838e-05
30	0xb816a645	-3.5917637e-05
31	0xb5ba083f	-1.386048e-06
32	0x36533776	3.1473733e-06
33	0x38276789	3.9912327e-05
34	0x34e7ddb9	4.3188427e-07
35	0xb7c5fc9a	-2.3601857e-05
36	0x37f4f05f	2.9198998e-05
37	0x37f0a22b	2.8685745e-05
38	0x3741b4d7	1.15458015e-05
39	0x38725173	5.777315e-05
40	0x37a835f1	2.0052279e-05
41	0xb7b8651a	-2.1981588e-05
42	0xb78fb75d	-1.7132314e-05
43	0x36995a5e	4.5702755e-06
44	0x358264fe	9.715147e-07
45	0x372233d2	9.668018e-06
46	0xb604448e	-1.9709437e-06
47	0x36d2b802	6.279909e-06
48	0xb73ea2cf	-1.1362789e-05
49	0x36d853bc	6.4470496e-06
50	0x3800ac91	3.0678293e-05
51	0x3775381a	1.46162e-05
52	0x368ab0a6	4.133285e-06
53	0xb62b7859	-2.5551037e-06
54	0x372a140c	1.0137457e-05
55	0xb7c39775	-2.331634e-05
56	0x382b19dd	4.0793664e-05
57	0x373e057b	1.13261585e-05
58	0xb69dfb71	-4.7082362e-06
59	0xb7404b41	-1.1461613e-05
60	0xb6841d7a	-3.937338e-06
61	0xb77f145c	-1.5203925e-05
62	0x37ed40f0	2.828284e-05
63	0x384462e1	4.682213e-05
64	0x381093db	3.4469977e-05
65	0x364bf31a	3.039086e-06
66	0x36a4565b	4.897634e-06
67	0x37a2c22d	1.9402325e-05
68	0x3831df35	4.2407966e-05
69	0x37f2ecdb	2.8958942e-05
70	0x3727d89c	1.0004409e-05
71	0xb7815f35	-1.5422333e-05
72	0x368a3526	4.118908e-06
73	0x3710fa31	8.641321e-06
74	0xb6fa54e5	-7.4604636e-06
75	0x36476899	2.9714195e-06
76	0xb86cc1d2	-5.6447294e-05
77	0x37a44f92	1.9587376e-05
78	0xb72c3657	-1.0264651e-05
79	0xb7980764	-1.8123254e-05
80	0xb8147473	-3.53944e-05
81	0x372d53a7	1.033108e-05
82	0x36ea7c97	6.9882476e-06
83	0x37ec6462	2.8180137e-05
84	0x3823a524	3.9016028e-05
85	0x377623cc	1.4671077e-05
86	0x36faaeec	7.470944e-06
87	0xb6b92a5a	-5.51836e-06
88	0xb62b775a	-2.5550457e-06
89	0xb60e2049	-2.1178441e-06
90	0xb7d404d0	-2.527461e-05
91	0xb61b9f4e	-2.3189527e-06
92	0x380b2e59	3.3183347e-05
93	0x37ec48b7	2.8167253e-05
94	0x3395a232	6.967856e-08
95	0xb81650ce	-3.5838042e-05
96	0xb5c81fbd	-1.4910398e-06
97	0xb7e86e8e	-2.7708036e-05
98	0x3692afd8	4.37161e-06
99	0xb77dc7c3	-1.5126486e-05
100	0xb7802c38	-1.527938e-05
101	0x38311124	4.2216052e-05
102	0x387f2d62	6.0839004e-05
103	0xb7ebceb2	-2.8110433e-05
104	0x37c9790c	2.4017434e-05
105	0xb6113353	-2.1636558e-06
106	0x38119646	3.4710647e-05
107	0x368ad9a2	4.1380563e-06
108	0xb8266529	-3.9671697e-05
109	0x37b08d60	2.1046668e-05
110	0x37743f0b	1.4558212e-05
111	0xb84357a1	-4.6573234e-05
112	0x36dd136c	6.5885743e-06
113	0x37d6d922	2.5611898e-05
114	0xb845b957	-4.714107e-05
115	0xb6e0f37c	-6.7040655e-06
116	0xb650e88e	-3.112978e-06
117	0x36d5b4bd	6.3689354e-06
118	0xb748358d	-1.1933397e-05
119	0x36f12b4d	7.1874006e-06
120	0x3847c595	4.762931e-05
121	0xb844f6fc	-4.6960064e-05
122	0xb6dcec9b	-6.5840554e-06
123	0xb80640a9	-3.200831e-05
124	0x38bb90e4	8.943843e-05
125	0x3645da56	2.9482376e-06
126	0xb72b566c	-1.0212516e-05
127	0xb71d486f	-9.374794e-06

layer2.1.weight f4 [128]
0	0x3f63661b	0.88827676
1	0x3f8586c6	1.0431755
2	0x3f6526b2	0.8951217
3	0x3f724db4	0.94649816
4	0x3f76c93a	0.964008
5	0x3f61dd84	0.8822863
6	0x3f3be850	0.73401356
7	0x3f3e5460	0.74347496
8	0x3f6db15c	0.92848754
9	0x3f4b24f6	0.7935327
10	0x3f7a70eb	0.9782855
11	0x3f759782	0.9593431
12	0x3f3beecc	0.7341125
13	0x3f461184	0.77370477
14	0x3f5e7849	0.8690229
15	0x3f5e5147	0.8684277
16	0x3f4886d1	0.78330714
17	0x3f4c49f0	0.7980032
18	0x3f5e4a53	0.8683216
19	0x3f0f128b	0.5588767
20	0x3f832d71	1.0248243
21	0x3f5eeedd	0.87083226
22	0x3f5f5393	0.872369
23	0x3f63ab1d	0.88932973
24	0x3f617a77	0.8807749
25	0x3f576c93	0.84150046
26	0x3f84fd99	1.0389892
27	0x3f86da4b	1.0535368
28	0x3f626b6f	0.8844518
29	0x3f54c06d	0.8310612
30	0x3f681988	0.9066396
31	0x3f583fd1	0.84472376
32	0x3f5bf422	0.8591939
33	0x3f6d1c08	0.926209
34	0x3f723a0b	0.94619817
35	0x3f4f93c4	0.8108485
36	0x3f4473f0	0.76739407
37	0x3f5b660c	0.85702586
38	0x3f8059b1	1.0027372
39	0x3f674d2b	0.90352124
40	0x3f80b5f7	1.0055531
41	0x3f4e9e8d	0.8071068
42	0x3f865f7a	1.0497887
43	0x3f5642ff	0.8369598
44	0x3f6a0771	0.91417605
45	0x3f7a1a38	0.97696257
46	0x3f5871aa	0.8454844
47	0x3f354229	0.7080408
48	0x3f590382	0.8477098
49	0x3f4be6a3	0.796488
50	0x3f5908b9	0.84778935
51	0x3f40d2c5	0.7532161
52	0x3f42db81	0.76116186
53	0x3f620d31	0.8830138
54	0x3f872618	1.05585
55	0x3f5719e7	0.840239
56	0x3f77dad6	0.9681829
57	0x3f5e5a68	0.868567
58	0x3f32479d	0.69640523
59	0x3f630069	0.886725
60	0x3f58d00d	0.8469246
61	0x3f691ec0	0.91062546
62	0x3f7ae44e	0.98004615
63	0x3f6c6a79	0.92349964
64	0x3f700718	0.93760824
65	0x3f70c9b4	0.94057775
66	0x3f68128d	0.90653306
67	0x3f6fb162	0.9363004
68	0x3f6fa906	0.93617284
69	0x3f55b2cb	0.8347594
70	0x3f7339ce	0.9501008
71	0x3f5814a3	0.8440649
72	0x3f40e8a8	0.75355005
73	0x3f2fdea3	0.6869909
74	0x3f47a3c6	0.77984273
75	0x3f31cb4c	0.6945083
76	0x3f6fffa3	0.93749446
77	0x3f51b73f	0.81920236
78	0x3f86f66e	1.0543954
79	0x3f601ab2	0.87540734
80	0x3f5d5ef5	0.8647302
81	0x3f443155	0.76637775
82	0x3f30bffc	0.69042945
83	0x3f76738d	0.96270066
84	0x3f751c76	0.9574655
85	0x3f47a70a	0.77989256
86	0x3f7fd152	0.9992877
87	0x3f3307d5	0.69933826
88	0x3f61eb88	0.8825002
89	0x3f45261c	0.77011275
90	0x3f783f6e	0.96971786
91	0x3f7ec013	0.9951183
92	0x3f6a453b	0.9151189
93	0x3f68e795	0.90978366
94	0x3f446972	0.76723397
95	0x3f56d37c	0.8391645
96	0x3f799513	0.97493094
97	0x3f767699	0.96274716
98	0x3f6862a7	0.9077553
99	0x3f5cf633	0.8631317
100	0x3f4a2926	0.7896904
101	0x3f5a7837	0.85339683
102	0x3f7079ca	0.93935835
103	0x3f5e0d6f	0.8673925
104	0x3f70d61a	0.94076693
105	0x3f75dd4d	0.96040803
106	0x3f671154	0.90260816
107	0x3f6f7b2b	0.93547314
108	0x3f7ce21c	0.98782516
109	0x3f5a7ff0	0.8535147
110	0x3f5f7990	0.87294865
111	0x3f8d52bf	1.1040877
112	0x3f5c3a79	0.8602672
113	0x3f800abb	1.0003275
114	0x3f5e3ac8	0.86808443
115	0x3f5e3553	0.86800116
116	0x3f67e595	0.9058469
117	0x3f2e186d	0.6800602
118	0x3f5e47cb	0.868283
119	0x3f7cb928	0.98720026
120	0x3f7898db	0.9710824
121	0x3f628cc3	0.88496035
122	0x3f46c50d	0.77644426
123	0x3f583d04	0.844681
124	0x3f69426c	0.91116977
125	0x3f5c9538	0.8616519
126	0x3f4f713e	0.8103217
127	0x3f3942dd	0.7236765

layer2.1.bias f4 [128]
0	0xbe2e4642	-0.17018989
1	0xbe834b62	-0.2564345
2	0xbe6582e0	-0.22413206
3	0xbe2829f6	-0.16422257
4	0xbdec6bc8	-0.11543995
5	0xbe0ed554	-0.13948566
6	0xbea1acd8	-0.31577182
7	0xbe877047	-0.26452848
8	0xbe148761	-0.14504768
9	0xbe6c1f9e	-0.23058936
10	0xbda1388d	-0.07872114
11	0xbe81c38a	-0.25344497
12	0xbe8f83d0	-0.28030252
13	0xbe747f58	-0.23876703
14	0xbe30f574	-0.17281133
15	0xbe29822f	-0.16553567
16	0xbe70ed20	-0.23527956
17	0xbe942d4f	-0.28940818
18	0xbe18a624	-0.14907128
19	0xbecb1f1f	-0.3967218
20	0xbe38a627	-0.18032132
21	0xbe257f17	-0.16161762
22	0xbe78056e	-0.24220821
23	0xbe2d84fd	-0.16945262
24	0xbe37083e	-0.17874238
25	0xbe833bf5	-0.2563168
26	0xbda756dc	-0.08170864
27	0xbe84e495	-0.25955644
28	0xbe1c5980	-0.15268517
29	0xbe7bcbca	-0.24589458
30	0xbe2199ee	-0.15781376
31	0xbe76fafa	-0.24119177
32	0xbe3cb991	-0.18430163
33	0xbe4b06d2	-0.1982682
34	0xbdc5e627	-0.09663039
35	0xbe77a5fa	-0.24184409
36	0xbe8edc30	-0.27902365
37	0xbe6b6d53	-0.22990923
38	0xbe8531d5	-0.2601458
39	0xbe4a62d6	-0.19764265
40	0xbe1944a1	-0.14967586
41	0xbe424ddb	-0.18975012
42	0xbd392317	-0.04519948
43	0xbe47230b	-0.19446962
44	0xbe2dcb63	-0.16972117
45	0xbe1dc9ff	-0.15409087
46	0xbe83d4b3	-0.25748214
47	0xbe9e414b	-0.3090919
48	0xbe85cdd7	-0.26133606
49	0xbe8dffd1	-0.27734235
50	0xbe5d1cfc	-0.21593088
51	0xbe69c3a0	-0.22828531
52	0xbe838298	-0.25685573
53	0xbe556b19	-0.20841636
54	0xbdd7586a	-0.105149105
55	0xbe89290a	-0.26789123
56	0xbe2599c8	-0.16171944
57	0xbe478476	-0.19484124
58	0xbe8abb24	-0.27095902
59	0xbe868adf	-0.26277825
60	0xbe7a17bc	-0.24423116
61	0xbe153989	-0.14572729
62	0xbe10d644	-0.14144236
63	0xbe4e5070	-0.20147872
64	0xbe40c817	-0.18826328
65	0xbe583e96	-0.21117625
66	0xbe0984c6	-0.13429555
67	0xbe397826	-0.18112239
68	0xbe4a43ad	-0.19752379
69	0xbe756062	-0.23962548
70	0xbe6aa8fc	-0.22916025
71	0xbe9f39c3	-0.31098756
72	0xbe76532b	-0.24055164
73	0xbe9dd4d5	-0.3082644
74	0xbe7855a0	-0.24251413
75	0xbe8f3932	-0.27973324
76	0xbdfacfd2	-0.1224667
77	0xbe63cb09	-0.2224542
78	0xbdecd176	-0.11563389
79	0xbe75192b	-0.23935382
80	0xbe2745f6	-0.16335282
81	0xbe6ebe10	-0.2331469
82	0xbea504bb	-0.32230172
83	0xbe462dce	-0.1935341
84	0xbe2dd3b9	-0.16975297
85	0xbe58ea6f	-0.2118318
86	0xbe0cb93d	-0.13742538
87	0xbe95706f	-0.29187343
88	0xbe583f6a	-0.2111794
89	0xbe72eab8	-0.2372235
90	0xbe37be17	-0.17943607
91	0xbe30207f	-0.17199896
92	0xbe2aa91a	-0.1666607
93	0xbe0c12ab	-0.13678996
94	0xbe9d507d	-0.3072547
95	0xbe52150c	-0.20515841
96	0xbe29ef0d	-0.16595097
97	0xbe717387	-0.23579226
98	0xbe511a25	-0.2042013
99	0xbe7d5241	-0.24738409
100	0xbe70a318	-0.23499715
101	0xbe32d21e	-0.17462966
102	0xbe40e485	-0.18837173
103	0xbe323d07	-0.17406093
104	0xbe44cdae	-0.19219086
105	0xbe29e23c	-0.16590208
106	0xbe568872	-0.20950487
107	0xbe8b4049	-0.27197483
108	0xbe03e66a	-0.12880865
109	0xbe431e5b	-0.19054548
110	0xbe3b5d63	-0.18297343
111	0xbe548a9e	-0.20756003
112	0xbe42b474	-0.1901415
113	0xbe1c3e44	-0.15258127
114	0xbe20aa9b	-0.15690081
115	0xbe8d9ba6	-0.27657813
116	0xbe7273e7	-0.23677026
117	0xbe94486b	-0.289615
118	0xbe2be4ce	-0.16786501
119	0xbe26dab7	-0.1629437
120	0xbe1d1fec	-0.15344208
121	0xbe1d28d1	-0.15347601
122	0xbe794e8c	-0.2434637
123	0xbe6911d4	-0.22760707
124	0xbe2b8404	-0.16749579
125	0xbe5d2bf4	-0.21598798
126	0xbe85028c	-0.25978506
127	0xbe8b007d	-0.2714881

layer2.1.running_mean f4 [128]
0	0xc0bcab9c	-5.8959484
1	0x3f156429	0.5835596
2	0x3f30c5b6	0.6905168
3	0x3f40c021	0.75293165
4	0xc000aa9f	-2.010414
5	0x40af8161	5.4845433
6	0xbf9a6b45	-1.2063986
7	0xbfcd1ba6	-1.6024063
8	0x3e511eb7	0.20421873
9	0xbfc5100f	-1.5395526
10	0x3f1cd118	0.6125655
11	0x3f28a8fd	0.65882856
12	0xc018ba8b	-2.3863857
13	0xc0beb68c	-5.9597836
14	0xbfec7862	-1.8474238
15	0xc09309fc	-4.594969
16	0xc0193a99	-2.3942015
17	0xc04e32e4	-3.221856
18	0xc091a931	-4.5519032
19	0xbf79de55	-0.97604877
20	0x3ea4f94c	0.32221448
21	0xc091412f	-4.539207
22	0xbfaad041	-1.3344804
23	0x407e1153	3.9698074
24	0x3ea27224	0.31727707
25	0x3eccacf3	0.399757
26	0x400ff25c	2.2491674
27	0x3eff806d	0.4990267
28	0xbec2d834	-0.38055575
29	0xbf9026f7	-1.1261891
30	0xbfcf3610	-1.6188374
31	0x40010273	2.0157745
32	0x40a785db	5.23509
33	0x3f32ebc5	0.69891006
34	0x4102a3d7	8.165
35	0xc040a4fe	-3.0100703
36	0xc02b5094	-2.676793
37	0xbfac3f50	-1.3456821
38	0x3ef95a12	0.4870153
39	0xbf4d0c8c	-0.8009727
40	0x3f3056f6	0.6888269
41	0xc06a57df	-3.6616132
42	0x3faf3cf9	1.3690482
43	0xbf9f260b	-1.2433485
44	0x3e8ce240	0.27516365
45	0xbdaf21f8	-0.08551401
46	0xc0149956	-2.321859
47	0xc04eb7cb	-3.2299678
48	0xbf364869	-0.7120424
49	0xbf991c1e	-1.1961706
50	0xbf1d4515	-0.61433536
51	0xbf04c8ef	-0.518691
52	0xbeead0c8	-0.45862412
53	0x3eb9d28d	0.3629345
54	0xbfb260f4	-1.3935838
55	0xc0382b43	-2.8776405
56	0x3dba6415	0.091011204
57	0xbd9b86ca	-0.07594068
58	0xc069d522	-3.6536336
59	0xbf158527	-0.584063
60	0xc0793f73	-3.8944976
61	0xbf8ef188	-1.116746
62	0xbe6fe962	-0.23428872
63	0x3e307c9b	0.17235033
64	0x3ea69218	0.32533336
65	0x3e08a5bc	0.13344473
66	0xc0d24428	-6.57082
67	0x3eedc1b5	0.4643685
68	0xbe6f0d23	-0.23344855
69	0xbfa4aab8	-1.2864599
70	0xbf9f5214	-1.2446923
71	0xbfdfb993	-1.7478508
72	0xbf9f98f6	-1.2468555
73	0xc01ef7ba	-2.48387
74	0xc045b94a	-3.0894341
75	0xbfd6f580	-1.6793671
76	0xbf775ba0	-0.96624184
77	0xbfccaee2	-1.599087
78	0x3fa28cfe	1.2699277
79	0x3fac74ff	1.3473204
80	0xbff3c2bf	-1.9043807
81	0x3a063d2a	0.00051208085
82	0xbf4733ed	-0.7781361
83	0x3f44a611	0.768159
84	0xbeaa6814	-0.3328253
85	0xc089ff89	-4.3124433
86	0x3fb0c7e5	1.3811003
87	0xc090ef95	-4.529246
88	0xbff634b6	-1.9234836
89	0xc071ef10	-3.7802162
90	0xbfb68e20	-1.4262123
91	0x3d13e807	0.03610995
92	0xbf1fa1d6	-0.6235632
93	0x408ec35d	4.461348
94	0xc07bcb68	-3.93429
95	0xbf2c3af2	-0.67277443
96	0x4014516a	2.3174691
97	0x3e04cbf0	0.12968421
98	0xc04db6de	-3.2142863
99	0xc025f4bc	-2.5930624
100	0xbf58ed80	-0.84737396
101	0xbdb19dff	-0.086727135
102	0xbfcccd0c	-1.6000075
103	0xbff49f63	-1.9111141
104	0xbf9db0b7	-1.2319554
105	0x3fa2126e	1.2661874
106	0xbee0f4c7	-0.4393675
107	0x3d7639b4	0.060113624
108	0x3fc4ae2d	1.5365654
109	0xc0aee190	-5.4650345
110	0xbf186d5c	-0.5954187
111	0x3f19b575	0.60042506
112	0xc016bf50	-2.3554268
113	0x3ea46b6b	0.32113203
114	0xbffc6761	-1.9719049
115	0xbe48ca3b	-0.19608395
116	0xc028002f	-2.6250112
117	0xbe39c4d8	-0.18141496
118	0x3e6062ba	0.21912661
119	0x4076d28e	3.8566012
120	0xbe25267d	-0.16127963
121	0xc015ce89	-2.340731
122	0xbdc14d48	-0.09438568
123	0xc0880e96	-4.2517805
124	0xbf03999d	-0.5140627
125	0xc033200d	-2.7988312
126	0xc07ba659	-3.932028
127	0xbf9ee6b3	-1.2414154

layer2.1.running_var f4 [128]
0	0x41e52ba1	28.646303
1	0x41d2e278	26.36058
2	0x4123914f	10.222976
3	0x415acb65	13.674657
4	0x41b0b8ce	22.090237
5	0x41ce6d66	25.803417
6	0x412c1e8a	10.757456
7	0x41ab2e3f	21.397581
8	0x4155e5ef	13.368636
9	0x415b9d77	13.725944
10	0x416bd60d	14.7397585
11	0x41adcd97	21.725386
12	0x41499c10	12.600601
13	0x41e4d398	28.603317
14	0x418a1bc6	17.263561
15	0x41c15335	24.165628
16	0x4169243e	14.571348
17	0x41b7012d	22.875574
18	0x41a41818	20.511765
19	0x40e8a1ef	7.2697673
20	0x41292698	10.571922
21	0x419e539d	19.790827
22	0x41a2660f	20.299833
23	0x4198996f	19.074919
24	0x410d27e4	8.822239
25	0x4191b319	18.21245
26	0x41862bb8	16.771347
27	0x41c7ccec	24.97506
28	0x41855abe	16.669308
29	0x417f76e1	15.966523
30	0x414cdf5c	12.804531
31	0x41163d12	9.38991
32	0x41b4b47e	22.58813
33	0x41297d99	10.5931635
34	0x422cf04b	43.23466
35	0x4195f709	18.745623
36	0x4147e860	12.494232
37	0x419e1ec8	19.76503
38	0x41c66170	24.797577
39	0x4182bf20	16.343323
40	0x414133ad	12.075116
41	0x4194c725	18.597239
42	0x41721a2b	15.131389
43	0x41369556	11.411459
44	0x412611ee	10.379377
45	0x412b7744	10.716618
46	0x41b4f93f	22.621702
47	0x4188baf7	17.091291
48	0x419d703b	19.6798
49	0x416b1ebd	14.695004
50	0x413e7b32	11.905077
51	0x412aeb47	10.682441
52	0x41272c5f	10.448333
53	0x4131d813	11.1152525
54	0x41b58ba4	22.693184
55	0x4169ceb4	14.612965
56	0x410c1555	8.755208
57	0x4130f26c	11.059185
58	0x41cf259a	25.89336
59	0x4199ba78	19.21605
60	0x41e47fff	28.562498
61	0x412440ab	10.265788
62	0x4124bcc6	10.296087
63	0x412ab08c	10.668102
64	0x413cb696	11.794577
65	0x4124f0f6	10.308828
66	0x4234aea5	45.17055
67	0x4102328c	8.137341
68	0x412b680c	10.712902
69	0x41c5ac1f	24.709044
70	0x41511318	13.067162
71	0x419a0e84	19.257088
72	0x4183512d	16.414637
73	0x4158b0b2	13.5431385
74	0x41797ecf	15.593459
75	0x41610607	14.0639715
76	0x41978485	18.939707
77	0x415bfbfc	13.74902
78	0x415687b2	13.408129
79	0x413ef875	11.935658
80	0x42059026	33.39077
81	0x410b49b1	8.705491
82	0x40b6cdc8	5.71262
83	0x410f5f1d	8.960721
84	0x411662f7	9.399161
85	0x4200af1e	32.171013
86	0x4103dc1a	8.241236
87	0x419aa240	19.329224
88	0x41c12d6a	24.147175
89	0x41909f0e	18.077663
90	0x4170974f	15.036941
91	0x413820df	11.508025
92	0x4178b552	15.544268
93	0x41a6c77c	20.847404
94	0x41d301ff	26.375975
95	0x410f2d24	8.948521
96	0x41547380	13.278198
97	0x419ebe25	19.842844
98	0x41d6f835	26.871195
99	0x418f1864	17.88691
100	0x4163df53	14.2420225
101	0x41325e78	11.148064
102	0x41d01356	26.009441
103	0x4170a1c7	15.039496
104	0x418cf8a8	17.621414
105	0x4185367e	16.651608
106	0x41388319	11.532006
107	0x41a85cb8	21.045273
108	0x419f6276	19.923077
109	0x41cdc47a	25.720936
110	0x41448d64	12.284519
111	0x41c33a21	24.403383
112	0x41997c09	19.185564
113	0x4101eb73	8.119983
114	0x4208a780	34.163574
115	0x418c1c84	17.513924
116	0x41ab9c80	21.451416
117	0x40abc9b4	5.368372
118	0x4143cd4d	12.237622
119	0x418e187b	17.761953
120	0x412f2a1b	10.94778
121	0x418913b8	17.134628
122	0x4134b256	11.293539
123	0x41d3fde6	26.498974
124	0x410db798	8.857323
125	0x41b37d83	22.436285
126	0x41d5437a	26.657948
127	0x411481eb	9.281718

linear1.weight f4 [4, 16000]
0	0xbd888bdc	-0.06667301
1	0xbd976b01	-0.07393456
2	0xbcd680f8	-0.026184544
3	0xbd670a6d	-0.056406427
4	0xbd4110d3	-0.047135185
5	0xbd09402c	-0.033508465
6	0xbd4816a4	-0.048849717
7	0xbd3ca024	-0.04605116
8	0xbd0218b6	-0.031761847
9	0xbd9b6ccc	-0.07589111
10	0xbd699811	-0.057029787
11	0xbcae8a46	-0.021306168
12	0xbd3fa7d3	-0.04679091
13	0xbd052ecd	-0.032515336
14	0xbd31759f	-0.043325063
15	0xbceedccb	-0.029158017
16	0xbc94b8a6	-0.018154453
17	0xbd7043fc	-0.058658585
18	0xbd4aa614	-0.04947479
19	0xbd8f11b6	-0.069858
20	0xbcd4a422	-0.02595717
21	0xbd980ae0	-0.07423949
22	0x3ae08cb0	0.0017131772
23	0xbda2dcde	-0.07952283
24	0xbca36b18	-0.019948527
25	0xbdaa02c9	-0.083013125
26	0xbd4fc3f7	-0.050723996
27	0xbcddea9f	-0.027089415
28	0xbae0b256	-0.0017142992
29	0xbc9db314	-0.01925043
30	0xbd2ddb8f	-0.042445716
31	0xbcfa1c20	-0.03053099
32	0xbd64c152	-0.055848427
33	0xbd18a519	-0.037266824
34	0xbddc2cc1	-0.10750724
35	0xbd814fad	-0.06314025
36	0xbd04f5cf	-0.032460984
37	0xbd22d37d	-0.039752472
38	0xbdbcbce2	-0.09215714
39	0xbd5bbf3f	-0.053649183
40	0xbbb38e71	-0.005479627
41	0xbd5d3cd3	-0.054013085
42	0xbcfbb78b	-0.030727169
43	0xbd9c7f67	-0.076414876
44	0xbd51de83	-0.051237594
45	0xbdac79b7	-0.08421653
46	0xbd3155ce	-0.04329472
47	0xbd1a90ea	-0.037735857
48	0x3b50f873	0.0031886369
49	0xbd7a2949	-0.06107453
50	0x3b408723	0.0029377423
51	0xbd8fdeba	-0.070249036
52	0xbd227ab2	-0.039667793
53	0xbd795205	-0.060869236
54	0xbd8d3ed5	-0.0689675
55	0xbca079a4	-0.019589253
56	0x3bf0bc1e	0.007346644
57	0xbd441ab8	-0.047877043
58	0xbd12eb38	-0.035868853
59	0x3a3dafcd	0.0007235974
60	0x3d05fe12	0.032713003
61	0x3d41270b	0.047156375
62	0xbd040bcc	-0.032237813
63	0xbba168e9	-0.0049258363
64	0x3cee39f6	0.029080372
65	0xbc190663	-0.009339902
66	0xbd3cd807	-0.046104457
67	0xbda9ec33	-0.082970046
68	0xbdc8016e	-0.09765898
69	0x3c84f447	0.016229762
70	0xbd17c55c	-0.03705345
71	0xbd379fbd	-0.044830073
72	0x3c0e095e	0.0086692255
73	0x3cd2aef0	0.025718182
74	0x3945e10a	0.00018871218
75	0xbd3fdd4b	-0.0468419
76	0xbcd9e5e9	-0.026598888
77	0xbc9b9fc3	-0.018997079
78	0xbccf512e	-0.025307264
79	0x3be6d2d9	0.007044178
80	0xbd1da1bd	-0.038484324
81	0xbbfc98f7	-0.0077086645
82	0x3ce97f50	0.02850309
83	0xbc512330	-0.012764737
84	0xbd479d4d	-0.048733998
85	0xbd118bad	-0.035533596
86	0x3cde7f41	0.027160289
87	0x3b5a01cc	0.0033265231
88	0x3c66bbe7	0.014082885
89	0xbd9c0be0	-0.076194525
90	0xbcebd1c7	-0.028786553
91	0xbd20a0cd	-0.03921585
92	0xbd688e8c	-0.05677657
93	0xbd66b750	-0.056327164
94	0xbcd5b66c	-0.026087962
95	0xbbcb1744	-0.006197842
96	0xbcb2010f	-0.02172902
97	0xbd3ff7d8	-0.04686722
98	0xbd45e90a	-0.048317946
99	0xbd258de6	-0.040418528
100	0xbd2174ae	-0.039417915
101	0xbc172bf2	-0.009226786
102	0xbd094cf9	-0.033520672
103	0xb82beac1	-4.098821e-05
104	0xbd2ee2a2	-0.042696603
105	0xbc864032	-0.016388033
106	0x3cd14129	0.025543766
107	0xbcd03962	-0.025417987
108	0xbd9d553b	-0.07682272
109	0xbdd85b61	-0.10564304
110	0xbdaa57d9	-0.08317537
111	0xbd758dec	-0.0599498
112	0xbbfb7a55	-0.007674495
113	0xbc8b6ad2	-0.01701871
114	0xbd8a7be3	-0.06761911
115	0xbd490dfb	-0.0490856
116	0xbd4b29a4	-0.04960026
117	0xbda83333	-0.082128905
118	0xbd5d9d61	-0.054105166
119	0xbd55919a	-0.05214081
120	0xbdac93f8	-0.0842666
121	0xbcfc7d46	-0.030821454
122	0xbcfd6857	-0.030933542
123	0xbd9f1708	-0.07768065
124	0xbd4ea4da	-0.050450183
125	0x3cc87e8a	0.024474401
126	0x3cf62162	0.030045215
127	0x3bcdd89f	0.0062819268
128	0xbbc5a2de	-0.006031378
129	0x3d0ef692	0.034903117
130	0x3d36e9b4	0.04465647
131	0x3d900f24	0.07034138
132	0x3da0f7ac	0.0785974
133	0x3db47cef	0.08812892
134	0x3d41dfe6	0.047332667
135	0x3d0db664	0.03459777
136	0x3c3bf087	0.01147092
137	0x3c55c895	0.013048311
138	0x3d064894	0.03278406
139	0x3d81e918	0.06343287
140	0xbceb2e67	-0.02870865
141	0x3d6c4c2f	0.05768984
142	0x3cd700d4	0.026245512
143	0x3d16b414	0.03679283
144	0x3c58c9aa	0.013231674
145	0x3d7ce4c0	0.06174159
146	0x3d13cbfe	0.036083214
147	0x3d4b0094	0.0495611
148	0x3d908a90	0.07057679
149	0x3ccda304	0.025102146
150	0x3d344aa6	0.044016503
151	0x3d5c197f	0.053735252
152	0x3d582027	0.052765038
153	0x3db1f8ec	0.08690056
154	0x3dbe815a	0.093020156
155	0x3da739e4	0.08165339
156	0x3d9c6eef	0.076383464
157	0x3dbb00e5	0.0913103
158	0x3d8068fc	0.06270024
159	0x3dc0ff01	0.09423638
160	0x3cddaffa	0.027061451
161	0x3cfe4bdd	0.031042034
162	0x3d0a5f5a	0.03378234
163	0x3d88d5f0	0.0668143
164	0x3d0ba6cd	0.03409462
165	0x3a877c32	0.0010336696
166	0xbd188085	-0.03723194
167	0xbca0ae2f	-0.019614307
168	0x3b9e11da	0.0048239054
169	0x3d71484f	0.05890685
170	0x3d4cf7ce	0.050041012
171	0x3d2145fa	0.039373375
172	0x3d841639	0.06449551
173	0x3cd46d39	0.025930988
174	0x3db5927d	0.08865831
175	0x3bfacf2b	0.007654091
176	0x3d275dde	0.040861003
177	0x392d9f98	0.00016558019
178	0x3c36c887	0.011156208
179	0x3d201fc3	0.03909279
180	0x3a5c28f3	0.0008398436
181	0x3cb13dc2	0.021635894
182	0xbb70258d	-0.0036643476
183	0x3c85588e	0.016277578
184	0x3d0c6d7f	0.03428411
185	0x3c9e8897	0.01935224
186	0xbccd203b	-0.025039783
187	0x3d0dfd83	0.034665596
188	0x3d5ca813	0.053871226
189	0x3d3e2a66	0.046427153
190	0x3d49922e	0.049211673
191	0x3d9fa18a	0.07794483
192	0x3d416668	0.047216803
193	0x3c86abe4	0.016439386
194	0x3ca5f59f	0.020258723
195	0xbc50155d	-0.012700406
196	0x3d50940c	0.05092244
197	0x3ca3f3af	0.020013658
198	0x3cb5fca0	0.022215188
199	0x3cb7e2ca	0.022447009
200	0x3c874961	0.016514482
201	0x3d913c8f	0.07091629
202	0x3da4193a	0.08012624
203	0x3d0e8a6c	0.034799978
204	0x3db1ceb6	0.08682005
205	0x3d4b3c9d	0.049618352
206	0x3d3afeeb	0.045653265
207	0x3d96678b	0.07343968
208	0xbc04c516	-0.00810363
209	0x3d6f17e5	0.058372397
210	0x3d1dbaba	0.038508154
211	0x3d8da5ea	0.06916411
212	0x3d389ed1	0.045073334
213	0x3c86c857	0.016452951
214	0x3bbc94d9	0.0057550487
215	0x3d85e1b3	0.06537189
216	0x3dd33c8d	0.103142835
217	0x3d28e81f	0.041236993
218	0x3d229dc9	0.039701257
219	0x3d2ecd49	0.042676244
220	0x3c283740	0.010267079
221	0x3bdfa210	0.0068247393
222	0x3d7f9a83	0.062403213
223	0xbce152a0	-0.027505219
224	0x3d971b10	0.07378209
225	0x3d21bc7c	0.039486393
226	0x3c616410	0.013756767
227	0x3d57de2b	0.05270211
228	0x3ceaed70	0.028677672
229	0x3d2bffa3	0.04199184
230	0xbc35127f	-0.011051773
231	0x3da1a546	0.078928515
232	0x3d1e01c3	0.0385759
233	0x3d68545a	0.05672107
234	0x3d4c87a3	0.04993404
235	0x3d903f1c	0.07043287
236	0x3d5ba527	0.0536243
237	0x3dba453b	0.09095236
238	0x3dacf0cb	0.08444365
239	0x3c844652	0.016146813
240	0x3d712100	0.058869362
241	0x3dc297c9	0.09501607
242	0x3deeac65	0.116539754
243	0x3d84522c	0.064609855
244	0x3d1646cc	0.03668861
245	0x3d933f7e	0.071898445
246	0x3d6ff0a9	0.05857912
247	0xbcc3090d	-0.023808027
248	0xbceddb84	-0.029035337
249	0xbd131845	-0.035911817
250	0x3ca7d3e5	0.020486781
251	0x3b8e0017	0.004333507
252	0x3d1596c4	0.036520734
253	0x3d4f8067	0.050659563
254	0x3d893fe1	0.06701637
255	0x3da66f79	0.081267305

linear1.bias f4 [4]
0	0xbd5fdfe5	-0.05465688
1	0x3d2298ee	0.039696626
2	0xbc650424	-0.013978038
3	0xbc62880b	-0.0138263805
