bearings/outdated/CWRU/Model/model.pth (torch, 431794 bytes, 14 tensors)

layer1.0.weight f4 [64, 1, 9]
00000000: ad27 88be cb2b c33d ff87 22be bd8f 86be
00000010: a750 a53e 8ab5 4ebe 5d24 ddbd b835 453e
00000020: f4e6 94be 322e 9c3e 3ecc 883e b838 aebd
00000030: eed1 fb3d 7e04 5c3d f03e 88be 7360 0d3e
00000040: 3090 2bbe e933 9cbe 820d bd3d 5ab8 893e
00000050: 2d48 583e f9a0 d2bd f5d9 81be eaa8 74be
00000060: fb53 2e3e fe1a a63e cd82 673e 7e42 0ebe
00000070: b4d4 bfbc f5e0 73be 00ed 0c3e e275 b8bd
00000080: b1ab a23e e302 36be 787c dc3e fddd 613e
00000090: e9e4 3bbe b09a 3ebe a1c3 63be cf82 223d
000000a0: 4777 94bd 16bc c6bd 78b9 8e3e d05e 9fbe
000000b0: 2aa3 9d3e 929d 7dbe 1373 913e c1b8 adbc
000000c0: 0e1d 27be 1d15 583e 6b79 cebe 09fd 0dbe
000000d0: a4bb e7bd 8b82 89bc 5529 c2bd d742 a1bd
000000e0: 9ea4 253e 1e9c c7bd f767 ebbd bdfc 95be
000000f0: fb0d 573e 24c6 c23e f0cb 96be 1582 813d
00000100: f1b5 93be 0472 943e 777e c9bd 434b 0bbe
00000110: 9c9c 1e3e 9cb7 6c3e 7b1a 3f3d 3130 f3be
00000120: 8f39 43bc cbf5 b2be 7f94 233d 5db0 9dbd
00000130: 0400 1abc 809d 983e 168f b2be 79cf a03c
00000140: 2bbd 21be b0a4 a8be eaff 39be 519d cebd
00000150: ad81 9e3d 3157 993e 5da9 0eba d13b 533e
00000160: 4d1b f2bd e86e b3be b57b 373e 47bf a03d
00000170: 6ef6 31bd 5da4 423e 61dc 9ebc fa2d 5d3e
00000180: 9ed2 06be 81de 543e 59fb 853e 4b78 5f3e
00000190: 0dfd a53e a3d4 713e f27d 403e 91f7 993d
000001a0: 4b3d 473e 7f98 cabe 5461 82be 2c7c e6bd
000001b0: 0514 de3e 7fc0 1d3a c194 45be 5e09 aabc
000001c0: 845e 5cbe 64eb 113e 2039 903e 08c3 6e3d
000001d0: d1e4 1abe c454 81bd 4274 cc3e 2e81 b2be
000001e0: 2865 4e3d b782 48be 3e6d a7bd 83cf 7ebd
000001f0: 2115 653e 9286 8ebe c5b4 003d 5bcf aabe
00000200: da4f 8abd 1cc8 9dbe 6949 bdbe 8b24 cc3d
00000210: 7f0a 37be 93fd a53d 139c 673d c3b6 32be
00000220: 7675 9abe f878 803e 7a3a 8dbe 213f 93be
00000230: 8ace e13d 6ecb bd3e bd6d 373e 4849 c4be
00000240: 10b9 17be d9d4 a03d f119 9abe 4fa7 80bc
00000250: 8821 9fbe 929c 4ebe bf6e 89be 2908 02be
00000260: 0a76 07be 28ab 983d 41c1 8f3c 21df 703e
00000270: 05aa 423e cf31 00bd 9f9e 2ebe 162a 0bbd
00000280: 24f6 40bc 05d6 d43e 0bc7 52be 583b 9f3e
00000290: 10a8 39be 07e1 c13d 89a0 65be a5f1 923e
000002a0: 0c9c 54bd 07f0 6bbe 6a08 2c3e dd3a 90be
000002b0: c6bd a53e 37c4 20be 3290 22be 180e c13e
000002c0: d6a4 8ebe 2df5 6ebc b964 bc3d b2a6 29bd
000002d0: 93cd a7be f390 b2bd c275 9b3d aba0 563d
000002e0: 16fa 983e efbc a9bd 7571 c0bd 20da 63be
000002f0: c210 b2be 8fa9 44be 05ec b0be c876 5c3e
00000300: 6f35 433d 9a25 1fbe 242f 90be d02a fabc
00000310: 9996 2b3e fc3d fcbd 492a 533c 3d2b c03d
00000320: 877a 01be b403 263e 5ebd 16bd ed01 103e
00000330: d644 5f3d ba43 683e 80fc 82be 2953 aa3d
00000340: 8f10 2fbe d6d9 1abd b917 57bd 1610 5fbe
00000350: 7c79 9a3e afec a4be ca21 7c3e 426e 7cbe
00000360: ebb1 7fbe 1fbd 13be 92a3 6c3e df00 34be
00000370: 24e8 5e3e 4880 17be 5841 973e 8781 2bbe
00000380: 68d2 b5be 094a 0d3e 6056 1d3c b6ed 7abe
00000390: d584 933d fb0d 6a3d 1e49 09be fd3e 703c
000003a0: 1b73 4ebe 6472 dbbe 0747 eabc 9185 2abe
000003b0: 508e 603e 61b0 c43d 70bc 3d3e 127c 093e
000003c0: ccaf ae3e 8a44 dfbc d684 7b3e 2d87 bb3d
000003d0: 5c0c 57be 8074 d9bd de86 c53c 060e 513e
000003e0: aed4 63be c635 563e bc66 973d d39d c3be
000003f0: 10d2 633e 7866 0bbe 7456 963e 06fd e0bd
-0.2659277 0.09529837 -0.15872191 -0.2628154 0.32288095 -0.20186439 -0.10797951 0.19258773
-0.29082453 0.30503994 0.26718324 -0.08506912 0.122959 0.05371522 -0.26610518 0.13806324
-0.16754222 -0.30508354 0.09231092 0.26898462 0.21121283 -0.10284609 -0.253616 -0.2389256
0.17024224 0.32442468 0.2260849 -0.13892552 -0.023416854 -0.23816283 0.13762283 -0.09006859
0.31771615 -0.17774539 0.43063712 0.22057338 -0.18349041 -0.18613696 -0.22242595 0.03967553
-0.07249313 -0.09703843 0.27875876 -0.31127024 0.30788547 -0.2476714 0.28408107 -0.021206262
-0.16319677 0.21101804 -0.4032701 -0.13866057 -0.113150865 -0.01678588 -0.0948054 -0.07874077
0.16176078 -0.09746574 -0.11494439 -0.29294387 0.21001427 0.38041794 -0.29452467 0.06323639
-0.28849748 0.28993237 -0.098385744 -0.13602929 0.15489429 0.23116916 0.046656113 -0.47497705
-0.0119155785 -0.3495315 0.03993654 -0.07699654 -0.009399418 0.29807663 -0.3487479 0.01963018
-0.15794818 -0.32938147 -0.1816403 -0.100885995 0.077395774 0.29949334 -0.0005442107 0.20628287
-0.118216135 -0.35045552 0.17918284 0.07848983 -0.043447904 0.19008012 -0.019392194 0.2159957
-0.13166282 0.20788004 0.26168326 0.21823232 0.32419625 0.2361627 0.18798044 0.07517923
0.19456975 -0.3956947 -0.2546488 -0.11254153 0.4337465 0.0006017759 -0.19295026 -0.02075642
-0.2152043 0.1424995 0.28168583 0.058291465 -0.15126349 -0.06314996 0.39932448 -0.3486418
0.05038944 -0.19581114 -0.08175133 -0.062209617 0.22371341 -0.27837044 0.031422395 -0.33361325
-0.06753512 -0.30816734 -0.3697007 0.099679075 -0.17875098 0.08105006 0.05654533 -0.1745253
-0.3016774 0.25092292 -0.27583677 -0.287591 0.11025722 0.37069267 0.17912956 -0.3833716
-0.1481669 0.078530975 -0.30097917 -0.015704779 -0.3108027 -0.20176914 -0.26842305 -0.12698425
-0.13228622 0.074545205 0.017548205 0.23522617 0.1901017 -0.0312975 -0.17052697 -0.033975683
-0.0117774345 0.41569534 -0.20583741 0.31099963 -0.18130517 0.09466749 -0.2242452 0.28699985
-0.05190663 -0.23040782 0.16800085 -0.2816991 0.32371348 -0.1569985 -0.15875319 0.37706065
-0.27860135 -0.014584822 0.09198899 -0.04141874 -0.32774028 -0.08719053 0.0759082 0.05239932
0.298783 -0.08287989 -0.0939664 -0.22251177 -0.3477841 -0.19205306 -0.3455507 0.21529686
0.04765838 -0.15541688 -0.28160965 -0.030537993 0.16756667 -0.1231651 0.0128885 0.09383247
-0.12644397 0.1621235 -0.03680169 0.14063235 0.054509006 0.22682086 -0.25583267 0.08316643
-0.1709616 -0.0378054 -0.052512858 -0.2178348 0.3017081 -0.32211825 0.24622265 -0.24651435
-0.24970214 -0.14427613 0.23109272 -0.17578457 0.21768242 -0.14795029 0.2954204 -0.1674863
-0.3551209 0.13797773 0.009603113 -0.24504742 0.0720307 0.05714224 -0.13406798 0.014663455
-0.20161097 -0.4286071 -0.028598322 -0.16652514 0.21929288 0.09603954 0.18528914 0.13426235
0.34118497 -0.027254362 0.24562392 0.09156642 -0.21000808 -0.10617924 0.024112161 0.20415506
-0.222491 0.2091895 0.07392642 -0.38206348 0.22248101 -0.13613307 0.29362833 -0.109857604

layer1.0.bias f4 [64]
00000000: 6a28 83b9 c886 c4b8 dbed 8739 0f47 0638
00000010: aa43 d239 1418 d338 4fe9 a338 bcea fbb6
00000020: 5dbf 3c39 0cac f0b7 f221 97b8 8233 c737
00000030: a1e1 e837 14d5 feb8 b741 34b9 bcca 0837
00000040: 6a15 93b9 1d3f 58b9 748d f7b9 9928 e0b6
00000050: afb3 8b37 bbb8 1038 594a 04b8 763c 5539
00000060: 26c8 ed38 8019 d6b8 4fd4 41b9 7fc2 5d38
00000070: 3237 a2b9 5d05 d538 1773 1e38 f0da 2939
00000080: 4208 0838 f59d 60b9 fe0c 0837 b9c3 9e38
00000090: 80e9 3fb9 f02e e1b8 80be 0e3a 320e 01b8
000000a0: 4830 1539 4996 a539 4883 b5b7 456f 2db5
000000b0: ed97 c0b8 26dd bbba ce8d 6538 73c9 2eb9
000000c0: bf3c 3739 6cf0 5d38 521c 8a39 a98f 14b9
000000d0: c840 be36 b0fc b5b8 de77 00b8 e78a a8b9
000000e0: bf94 9639 1d98 6637 9452 7db9 ad5a 7e39
000000f0: 9631 56b8 16e3 68b8 2d37 a03a 8423 6eb7
-0.00025016378 -9.371113e-05 0.00025926423 3.2014268e-05 0.00040104735 0.00010065749 7.815903e-05 -7.5077096e-06
0.00018000366 -2.8690345e-05 -7.206564e-05 2.3746634e-05 2.7761622e-05 -0.00012151353 -0.00017190618 8.1534345e-06
-0.0002805398 -0.00020622877 -0.00047216902 -6.6804464e-06 1.6653763e-05 3.450432e-05 -3.1540494e-05 0.00020335786
0.00011338321 -0.00010209065 -0.00018485005 5.2871645e-05 -0.00030940172 0.000101576305 3.777732e-05 0.00016198657
3.2432617e-05 -0.00021421148 8.109257e-06 7.570483e-05 -0.00018302165 -0.00010737579 0.0005445257 -3.0769217e-05
0.00014227733 0.00031583224 -2.1638014e-05 -6.460944e-07 -9.183572e-05 -0.0014332875 5.472992e-05 -0.00016668979
0.0001747487 5.2914416e-05 0.0002634251 -0.00014167897 5.669983e-06 -8.677819e-05 -3.0629213e-05 -0.00032146947
0.00028721054 1.3744485e-05 -0.00024158723 0.00024257107 -5.1067756e-05 -5.55246e-05 0.0012223475 -1.4194175e-05

layer1.1.weight f4 [64]
00000000: bb25 803f fe1b 773f cfc2 8a3f 749f 523f
00000010: 4e91 7a3f 05cd 613f c31d 533f 0ba8 483f
00000020: 789d 733f 5811 673f 265a 5e3f 6bdb 653f
00000030: c680 883f 5c21 753f 87fc 873f a76d 4c3f
00000040: ac79 a13f 3567 823f 4c5f 673f db40 703f
00000050: dd95 813f b0be 5a3f 0302 473f 06e0 7d3f
00000060: 186d 6a3f 64fb 883f c642 6e3f 0228 643f
00000070: a4ab 7e3f 69bb 843f c15c 3f3f 71a9 7e3f
00000080: d269 3b3f 0024 873f 5e00 863f 4960 6f3f
00000090: 0bfd 823f 24e1 8f3f 9cf2 8b3f 963e 793f
000000a0: c7f8 893f f76d 673f 4a4e 3d3f de20 5c3f
000000b0: f8ed 783f 937e 8a3f 62cd 5f3f bce0 843f
000000c0: 10ac 883f 036b 903f 7286 6b3f 3c9e 813f
000000d0: d0ac 763f b498 803f 0e62 7c3f 4544 843f
000000e0: d7cc 883f 435f 6d3f a1ca 843f ed22 783f
000000f0: fa42 613f 4739 653f c1df 8e3f 5c27 603f
1.0011514 0.9652709 1.0840701 0.82274556 0.9787797 0.8820346 0.8246729 0.78381413
0.95162153 0.9026084 0.86856306 0.8978793 1.0664299 0.9575403 1.062394 0.79854816
1.2615256 1.0187746 0.90379786 0.9384896 1.012386 0.85447216 0.77737445 0.9916996
0.91572714 1.0701718 0.9307064 0.8912355 0.9948065 1.0369693 0.74750906 0.994773
0.73208344 1.0557861 1.0468862 0.93506294 1.0233473 1.1240582 1.0933414 0.97361124
1.0779046 0.9040217 0.73947585 0.8598765 0.9723811 1.0819877 0.87422764 1.0381083
1.0677509 1.1282657 0.9200202 1.0126414 0.9635744 1.0046601 0.9858712 1.0333334
1.0687512 0.9272348 1.0374337 0.9692829 0.87992823 0.89540523 1.1162034 0.8756006

layer1.1.bias f4 [64]
00000000: dd94 2fbd b0c9 2ebe 7f9f 41be 1f76 93be
00000010: a992 a0be 8378 3abe 38c3 a9be 3e22 07be
00000020: 1d96 7bbd 29ee 77bd 6014 78be 2031 8ebe
00000030: cc86 4abe 7865 97be a829 8fbd 9454 9abe
00000040: 20fe 4dbd 519f 17be d4b9 0cbd dc18 7fbd
00000050: 8163 6ebe fc48 85be 95ed 76be 023b 95be
00000060: d988 41be d3b3 64be fd08 b0bc 53a8 31bd
00000070: c207 17be fc38 96be 7000 4abe e7a6 38be
00000080: 19f9 6abe f08e cebd 2fc9 59bd 0503 99be
00000090: a60f c3bd a218 a5bd f726 c0bd 37e3 c4bd
000000a0: 3dc1 0ebd ecef d2bd 82d7 2dbe 8842 9abe
000000b0: ac16 48be 2b90 a1bd 69ac 46be 74c9 4bbd
000000c0: 80f5 b1bd 1704 9b39 63fc c5be e41b 88be
000000d0: 6bb0 3abe fe90 fdbd 1eb8 c3be 7d03 a3bd
000000e0: 1939 6cbe 98c1 b6bd 3866 fabd b9a7 e2be
000000f0: 4559 b6bd a38f 84be d489 8bbe fc26 72bd
-0.042866576 -0.17069125 -0.18908499 -0.28801057 -0.31361893 -0.18210034 -0.33156753 -0.13196656
-0.061422456 -0.06052986 -0.24226522 -0.27771854 -0.19777983 -0.29569602 -0.06990367 -0.30142653
-0.05029118 -0.14806868 -0.034356907 -0.062279567 -0.23280145 -0.26032245 -0.24114068 -0.29146582
-0.1889986 -0.22334222 -0.021488661 -0.043373417 -0.14749053 -0.2934035 -0.1972673 -0.18032418
-0.22946586 -0.10085857 -0.05317038 -0.29885116 -0.09524469 -0.08061339 -0.09382432 -0.0961365
-0.034852255 -0.10299668 -0.16976741 -0.30128884 -0.19539899 -0.07888826 -0.19401707 -0.049752668
-0.086894035 0.0002956695 -0.38669118 -0.2658378 -0.1823136 -0.12381171 -0.38226408 -0.0795965
-0.23068656 -0.08923644 -0.12226528 -0.44268587 -0.089037456 -0.25890836 -0.27253592 -0.05911921

layer1.1.running_mean f4 [64]
00000000: b3bc 12ba 3d66 56b6 20c1 db39 b345 4539
00000010: aedf a238 802b 68b9 e31c 80b8 98f7 cdb8
00000020: 14e6 1bb9 379e 45b9 657b e139 7669 ca39
00000030: 9e72 8f39 cd31 b4b8 b497 7fba 3228 9cb9
00000040: 3a7c 96ba 4275 26b9 c87a f4b8 b7e5 8738
00000050: b324 c6b9 d695 e0b9 72d8 0939 0fe9 00b9
00000060: 08ba eeb8 382c b5b9 601a 9739 3e72 9db8
00000070: 2d64 ec39 ba02 fc39 c79b 7e39 8bfd 333a
00000080: 7ff7 acb8 274e d439 ac23 5c3a a469 2639
00000090: 69d9 d139 54b8 41ba 87ef 1139 6ba1 9039
000000a0: 74bd 6a3a e1ca 0bb9 ef0b 96b9 7637 1738
000000b0: f443 8e39 e43b 0ebb 91f8 13ba 3fb3 ed39
000000c0: f656 0b3a 2c97 323a 72c9 43b9 3db0 93b8
000000d0: e458 d939 2834 f138 7e2d 8638 c542 a439
000000e0: 73cc 2aba 1d54 b839 5293 bb39 59cc 7e39
000000f0: 6c23 59b9 0cf8 2e39 2420 263a ed77 b436
-0.00055975764 -3.1947995e-06 0.00041914824 0.00018813349 7.7664256e-05 -0.00022141449 -6.108896e-05 -9.82128e-05
-0.00014867663 -0.00018846324 0.0004300728 0.00038607017 0.00027360482 -8.592345e-05 -0.00097500836 -0.00029784587
-0.0011481114 -0.00015874676 -0.000116576965 6.480089e-05 -0.00037792846 -0.00042836246 0.0001314597 -0.00012293852
-0.000113833754 -0.00034555956 0.00028820615 -7.507623e-05 0.00045088065 0.00048067217 0.00024281359 0.0006866089
-8.247699e-05 0.0004049402 0.00083976495 0.00015870348 0.0004002557 -0.0007389833 0.00013917508 0.00027586086
0.00089546223 -0.00013331651 -0.0002861912 3.6052857e-05 0.0002713498 -0.0021703178 -0.0005644644 0.0004533771
0.00053153874 0.00068126875 -0.00018671693 -7.042333e-05 0.00041455694 0.000115014904 6.3980915e-05 0.00031330265
-0.00065154507 0.00035157884 0.00035777182 0.00024299453 -0.00020707928 0.00016686338 0.0006337187 5.3783792e-06

layer1.1.running_var f4 [64]
00000000: 49c2 313e 02de b13e b1ca a43e ba48 a13e
00000010: 67b0 2d3e c7d9 4b3e b4c8 2b3f ef55 423f
00000020: 3fcf dc3d ed9c 923e e2b4 873e 839a 103f
00000030: 7ee9 933e 4a27 3a3e 2aa1 803e 10f6 9f3f
00000040: e972 8b3e d011 5a3e cf8e b93e b180 613e
00000050: c2e0 5e3e fd2c 293f 3c05 ec3d c016 343d
00000060: a5dd ec3e d7c8 993e f6c3 7d3e 5921 d23e
00000070: c511 853d 15d3 a13e 2c32 553e 92c6 823e
00000080: 30c2 3f3e 4572 3a3e 3d5f 5f3e ab1c c93e
00000090: 4527 013f a8fb 413e 715a 9d3e 1134 9a3e
000000a0: 5445 a63e 3cf8 633e dc41 513e dc9e 003e
000000b0: 713f eb3d d1d3 ed3c aced 783e d143 c43e
000000c0: 9f48 643e ade6 a83e 84f6 9e3e 6d6f e73d
000000d0: c9f9 b63e af3e ed3d 7521 833e a48c 6e3e
000000e0: c321 ae3e 6286 113e a6bf b73e 9dff 363e
000000f0: 720a cf3e a8e3 7b3e e34d a33d 9131 093f
0.1735927 0.3473969 0.3218589 0.31500798 0.16961823 0.19907294 0.67103124 0.75912374
0.107817166 0.2863535 0.2650519 0.56485766 0.28889078 0.1817905 0.25122958 1.2496967
0.27236107 0.21295857 0.36241767 0.22021748 0.21765426 0.6608427 0.11524436 0.04396701
0.4626285 0.3003604 0.24781784 0.41041067 0.0649753 0.31606355 0.2081992 0.25542122
0.1872642 0.18207653 0.21813674 0.39279684 0.50450546 0.18943655 0.30733064 0.3011785
0.32474768 0.22262663 0.2043528 0.125606 0.1148671 0.029031666 0.24309415 0.3833299
0.22293328 0.32988492 0.31047451 0.1130055 0.35737446 0.115842216 0.25611463 0.23295838
0.34010133 0.14211419 0.35888404 0.17870946 0.40437657 0.24598563 0.0797384 0.5359126

layer2.0.weight f4 [128, 64, 5]
00000000: 996e 283d 8e4e f43d e405 5e3d a5b4 95bb
00000010: da5c 493d f515 b53c 5e47 1e3d af94 7f3d
00000020: 683c 8e3d 82c0 6e3d 86ad a13d f500 83bc
00000030: f80e a6bd 2878 aabd dea2 9fbd b912 353d
00000040: 6913 f4ba d282 bdbc 1375 d03b 7377 64bd
00000050: 8be1 e73d cf8c 0d3e fb7d e73b 96f6 023e
00000060: 6156 483c 4aa1 d43d adeb af3d bd64 dd3d
00000070: e298 513c da19 1c3d ac2c 5cbc e79f c2bc
00000080: 6653 bbbc 6eb6 95bd 8951 cfbd 0e68 903c
00000090: b73b 4dbc 1182 17bd 4667 9dbd 91d6 f7bd
000000a0: 1635 993d c96b d83d 1399 c23d 063a 443d
000000b0: 72a1 d2bd 74f3 033d 8b61 b13d 42ad 07bc
000000c0: a88f 47bd 77e4 aebd db5f 16bc d69a 0f3d
000000d0: 2d49 d4bc 00ac 35bb c1f1 06be e08f 803d
000000e0: 9d9b 5d3d 342a 7b3d e156 78bc 95b6 0abe
000000f0: 5704 873a 8645 0f3d d897 c03c 531e f53c
00000100: b577 abbd 9846 a23d d1fc eb3d a945 ab3d
00000110: abb4 283d 0211 b8bd 2d00 1c3e 5871 fd3d
00000120: 8f3f ee3d 07e7 943d 20cf cb3d 8718 2ebd
00000130: 745e 06bd 9197 bd3c 3209 98bd 89c9 1fbd
00000140: 8244 d93d fe11 ac3d 13b7 5a3d 56fc 463e
00000150: 3352 913d 2196 a83d 840c 4bbd b1d2 17bc
00000160: a83a a3bd abd7 4dbe 4ad4 afbc 2f7c 303d
00000170: 3294 f9bb a36d aabc baf1 9bbd e381 233d
00000180: 6b80 993c 76b2 583c c252 313d da0c 883d
00000190: c49b c83c f178 343d 5056 d73c 483f 90bd
000001a0: 07e7 f3bc 0ade d33c b93b 2bbc 9e18 043d
000001b0: 1933 5ebd 37dd 86bd b75b 903d 0f74 fb3b
000001c0: 3ff6 733c cc42 42bc 0ed0 8ebd 58e9 46bd
000001d0: 4eca 35bd f5a3 933b 457c 3abc 0bce 33bc
000001e0: aa3b 7c3c 504d 0ebd 9cd7 3cbc 0b25 9cbd
000001f0: 3e57 edbc ac47 e23d f982 8f3d d135 793d
00000200: 8913 06bd 2d4f cbbc e4bd c03d 9691 d33d
00000210: 209a 8f3d 39cc 0e3e 23c6 1a3e 1102 333d
00000220: 8eba 1c3b de6c abbc be65 3dbc 2eef cfbd
00000230: 09bd e43d 1faa 8d3d 76f7 b03d 89c3 aabd
00000240: 682a 09bd 2304 333e fdc9 2b3e f965 183e
00000250: c117 883d bb7e a6bc e78b 8a3d e79e 7c3d
00000260: 29ca 163c 9abf 07bd 69eb 51bc f444 97bc
00000270: 1182 053d 0ad5 e0bc eec6 9bbd 2111 c1bd
00000280: dfb1 aebc 1d5b 08bd 5c86 a13b b3a2 de3c
00000290: 8c53 473d 1722 513c f32f dfbc 1466 d0bd
000002a0: 2617 54be fadb 56be 02c7 873d 0807 f23d
000002b0: a39e a13d 4651 5fbc 9409 eabc 522c 573d
000002c0: f4eb 3a3d 8768 06bc 8f80 c1bd b184 85bd
000002d0: 7418 c33d ea18 0a3e 52e8 9b3d fcd1 963c
000002e0: a634 1cbd c1e5 173e e60a ee3d c066 af3d
000002f0: d28b ca3d ca40 fd3d 4164 cc3b aad5 13bd
00000300: d950 563d a9c3 373c e4af f5bd aa2a d53d
00000310: 0b5a ab3d 2a4e 273b 4877 9f3d b6c5 f63c
00000320: 08f6 de3d 6858 193d b789 aa3d 0641 663d
00000330: b330 883d e54a cd3b aa01 4dbc a35b f8bc
00000340: a95a b5bc 033a 8abd 3dfb 983d b0c1 633d
00000350: 7734 2f3d b50b 843c 10ee 133d ee8a 8dbc
00000360: 4d8c 813c 0afe 89bb 042e 63bd ef0c 63bd
00000370: f223 5f3d f90b 8b3c ffce e1bc fd7d 8ebc
00000380: 757b 65bd 2e5d 373d a968 c03d 975a 903d
00000390: 25a2 163d cb0b ccbb 01a3 393e 66dc 523d
000003a0: 7eea 133d 3f73 003d 33c1 e73c ecf5 c53d
000003b0: 366e b53d 4227 a03d e994 50bc d124 c0bc
000003c0: 305c d1bc 5925 99bc 2a3d 763b b228 bbbd
000003d0: c915 b0bd 760e c73c f593 d23d 008d 653c
000003e0: 1bf9 5a3d 4e8e f23d 761f d93d c6a3 2ebc
000003f0: ef62 a4bd 113c 0cbb 616e 89bd bfa9 193e
0.0411211 0.119290456 0.054204836 -0.0045686536 0.049160816 0.022105196 0.03864228 0.062397655
0.06945115 0.05828906 0.07894425 -0.015991667 -0.08108324 -0.08323699 -0.07794736 0.04420731
-0.0018621507 -0.023133669 0.0063616126 -0.05577798 0.11322316 0.13823245 0.0070645786 0.12789378
0.012227626 0.10382326 0.085898735 0.1081023 0.012792798 0.03811059 -0.013438385 -0.023757888
-0.022866916 -0.07310186 -0.101229735 0.017627742 -0.012526444 -0.036989275 -0.076857135 -0.12101472
0.074808285 0.105674334 0.09501853 0.047906898 -0.102846995 0.032214597 0.08661183 -0.008281054
-0.048720986 -0.0853967 -0.009178127 0.035059772 -0.0259138 -0.0027720928 -0.1317816 0.06277442
0.054103483 0.061319545 -0.015157432 -0.13546212 0.0010300976 0.034978412 0.023509905 0.029921686
-0.08372442 0.07923621 0.1152283 0.08362896 0.041187923 -0.08987619 0.15234442 0.12375134
0.116332166 0.072706275 0.09951615 -0.04250386 -0.03280492 0.023143562 -0.07423629 -0.03901056
0.1060877 0.08401869 0.05339725 0.19432196 0.070957564 0.0823176 -0.049572483 -0.009266541
-0.07970172 -0.20101802 -0.021463532 0.04308718 -0.007616543 -0.020804232 -0.07614465 0.03991879
0.018737992 0.013226142 0.043291815 0.06643076 0.024488337 0.04406065 0.026286274 -0.0704332
-0.029773248 0.025862712 -0.010451251 0.03225004 -0.05424795 -0.06585162 0.07048743 0.0076737474
0.014890253 -0.011856746 -0.06973277 -0.048562378 -0.044382386 0.004505629 -0.011382167 -0.010974417
0.015395084 -0.0347417 -0.011526015 -0.07624253 -0.028972264 0.110488266 0.07007403 0.06084234
-0.032733474 -0.024818027 0.09411219 0.10330503 0.07011819 0.13945092 0.15114646 0.043703143
0.0023914906 -0.020925935 -0.011559902 -0.10153042 0.11168868 0.06917214 0.086409494 -0.083380766
-0.033487707 0.17482047 0.16776271 0.1488265 0.06645156 -0.020324102 0.067649655 0.06167498
0.009203472 -0.03314171 -0.012812474 -0.018465497 0.032594744 -0.027445335 -0.07606302 -0.09427095
-0.02132505 -0.033290017 0.004929347 0.02717719 0.04866366 0.012764475 -0.027244544 -0.1017572
-0.20711955 -0.20982352 0.066297546 0.11817747 0.07891586 -0.013630217 -0.02856902 0.0525325
0.04563518 -0.008203632 -0.09448349 -0.065194495 0.095261484 0.13486066 0.07612671 0.018410675
-0.038136147 0.14833738 0.116231725 0.0856452 0.0988995 0.12365873 0.006237537 -0.036092438
0.052323196 0.011216083 -0.11996439 0.10408528 0.08366784 0.0025528767 0.07786423 0.030123573
0.108867705 0.037437826 0.08327048 0.056214355 0.06649914 0.0062650316 -0.012512604 -0.030317133
-0.022137957 -0.06749346 0.07469795 0.055604637 0.042774644 0.016118864 0.036115706 -0.01727816
0.015813971 -0.004211192 -0.055463806 -0.055432256 0.05447764 0.016973482 -0.027564524 -0.01739406
-0.05602594 0.044766597 0.09394962 0.07048529 0.036775727 -0.006226992 0.18128587 0.05147972
0.0361123 0.031359907 0.028290367 0.096660465 0.08858912 0.07819988 -0.012730815 -0.023455055
-0.025556654 -0.018694567 0.0037573078 -0.091386214 -0.08597905 0.024298888 0.10282127 0.014010668
0.05346022 0.11843549 0.10601704 -0.010659164 -0.080266826 -0.0021398107 -0.06710506 0.15006159

layer2.0.bias f4 [128]
00000000: 2722 8538 bfe7 4e36 b743 36b8 2256 33b7
00000010: 2aae 8b39 47e6 dcb8 b004 0938 1149 0739
00000020: 0d45 12b7 7ef1 f2b7 e998 9ab7 f5fa bf36
00000030: cbd0 de39 f68c 93b9 3e4e 76b8 0a35 04b8
00000040: 317d d4b7 b0c9 5138 7650 11b9 60cd cf36
00000050: ba2f 2eb9 4d62 bcb7 fa9d a8b8 40cc 1a38
00000060: bee0 c2b6 db21 4ab9 838d a9b7 eea7 e4b8
00000070: 007b b9b6 32b6 38b9 1b4f 9936 1c38 adb8
00000080: c4a9 9438 ed07 c7b8 57b1 fab8 0189 13b8
00000090: 432d 7739 255f 8339 4ed7 11b9 4fdb 91b8
000000a0: c1ba 0939 0801 aeb9 1450 f3b8 a1c3 eeb5
000000b0: e066 9d39 7f5d 9039 e6c7 b139 7d95 e2b7
000000c0: 5967 e3b8 e1d5 d438 0ddc 3c38 5c8f 37b8
000000d0: 7c7e aeb8 6d52 8538 8082 0eb9 c12f 7cb9
000000e0: eb0a fc37 db15 e938 5df4 b738 b206 03b8
000000f0: 0c60 ebb8 39f4 d8b7 eed5 13b9 ba7e 1eb7
00000100: 0342 1d38 6285 5438 817d c1b8 6e61 ca38
00000110: 9a95 d6b7 137c 9538 9e01 07b9 9f00 d538
00000120: 0c54 68b8 d549 3eb8 b84f 3db7 022e 17b7
00000130: 3498 10b8 e192 f737 c7a4 1db8 7475 9639
00000140: 0e0c 88b7 d2cd 9a37 927f bbb7 b4c3 1bb9
00000150: 4937 00b9 c3ba 04b7 a155 c2b7 56cd 0ab9
00000160: ee9c 8a38 5272 1339 bd17 aa36 5d30 06b9
00000170: 4d8f 9137 9b5d 0038 2277 3bb7 2c05 93b7
00000180: 9b88 8837 f2b0 8d38 b49d ffb8 f49a d539
00000190: 2757 b637 f9ed 5138 733d 62b7 9e3a e335
000001a0: 15af 68b9 5503 99b7 4b5a 52b9 89a0 9038
000001b0: f3c8 60b7 32c2 a5b7 4092 a839 f829 2937
000001c0: 08c5 6b38 0ab2 14b8 d9b6 86b8 96cd 4ab8
000001d0: 41f1 f635 2415 72b8 6dad 003a 5702 63b7
000001e0: 2728 36b8 95e0 c9b7 aef7 29b6 7660 8fb8
000001f0: f235 2a37 d7a9 8338 7427 33b8 90c2 aeb8
6.3482956e-05 3.0831286e-06 -4.3455246e-05 -1.0689286e-05 0.00026641908 -0.0001053331 3.266771e-05 0.00012901823
-8.718355e-06 -2.8961102e-05 -1.8429435e-05 5.721459e-06 0.00042498703 -0.0002814305 -5.872384e-05 -3.152065e-05
-2.5330666e-05 5.001732e-05 -0.00013858252 6.1929895e-06 -0.00016611713 -2.2457121e-05 -8.04029e-05 3.6906684e-05
-5.807814e-06 -0.00019276833 -2.0212266e-05 -0.000109031665 -5.5277487e-06 -0.0001761548 4.5689644e-06 -8.259734e-05
7.088811e-05 -9.490536e-05 -0.00011953961 -3.5175126e-05 0.00023572617 0.00025057155 -0.00013908485 -6.954988e-05
0.0001313491 -0.00033188635 -0.00011602059 -1.7789317e-06 0.0003002202 0.0002753548 0.00033909007 -2.701091e-05
-0.000108434535 0.00010148786 4.502763e-05 -4.3764114e-05 -8.320526e-05 6.357287e-05 -0.0001359079 -0.00024050382
3.0045825e-05 0.00011114377 8.771636e-05 -3.123907e-05 -0.00011223563 -2.5862932e-05 -0.00014098707 -9.44704e-06
3.7493195e-05 5.066896e-05 -9.226334e-05 9.650258e-05 -2.5580452e-05 7.127984e-05 -0.00012875206 0.00010156747
-5.5391385e-05 -4.536829e-05 -1.1283839e-05 -9.011013e-06 -3.4474026e-05 2.951309e-05 -3.7585178e-05 0.0002869774
-1.6218077e-05 1.8454073e-05 -2.2351542e-05 -0.00014854857 -0.00012227627 -7.911297e-06 -2.3166476e-05 -0.00013237199
6.609583e-05 0.000140616 5.0691583e-06 -0.00012797253 1.7352077e-05 3.0604755e-05 -1.1173806e-05 -1.7526174e-05
1.6276075e-05 6.7563626e-05 -0.00012188722 0.00040741975 2.1736674e-05 5.0051112e-05 -1.3484957e-05 1.6929878e-06
-0.00022190467 -1.8240573e-05 -0.00020060797 6.896357e-05 -1.3398228e-05 -1.9759962e-05 0.00032152422 1.0082957e-05
5.6211866e-05 -3.545176e-05 -6.423676e-05 -4.835202e-05 1.8398642e-06 -5.7716985e-05 0.0004908655 -1.3530799e-05
-4.3429576e-05 -2.4065646e-05 -2.532713e-06 -6.8367386e-05 1.014535e-05 6.278202e-05 -4.271367e-05 -8.333207e-05

layer2.1.weight f4 [128]
00000000: 00e2 773f 0046 5f3f 2e94 4e3f f076 2a3f
00000010: 0483 6f3f 10f5 6b3f 61e8 3f3f 22ff 463f
00000020: 8eee 753f 4a3e 5a3f 302e 5e3f 5845 523f
00000030: 94b1 713f f703 7a3f bf09 393f ea1c 743f
00000040: deff 7f3f ee17 6d3f 4536 783f 3aae 413f
00000050: f2f2 6b3f 4ec4 423f d5c8 6c3f eb4c 623f
00000060: 3229 6e3f 0005 6b3f 36f2 6d3f 655a 613f
00000070: 91e0 863f 251f 6d3f 7928 663f 7ba6 843f
00000080: f07f 853f 5f20 743f ace6 5b3f 82ad 453f
00000090: d51a 703f 6eed 6d3f cbfe 5e3f d4bf 5c3f
000000a0: cc6c 5f3f 3c68 7d3f 93ec 863f e310 543f
000000b0: 03fe 6c3f b166 7a3f 218d 653f c50b 643f
000000c0: 1ba6 813f be5c 663f 5260 783f 15a8 843f
000000d0: 9d33 573f a0e3 833f e7d3 5a3f d698 6a3f
000000e0: 7ae8 4c3f 4c3c 643f cd2b 823f 175a 5e3f
000000f0: 98d6 7b3f fee9 653f ee56 5d3f 7f81 633f
00000100: c8f4 7b3f fbc6 743f a867 703f 6e1f 603f
00000110: 0b08 413f 93dd 743f 7b99 753f af9f 853f
00000120: 3dd3 573f df50 783f 3aef 5f3f e32e 683f
00000130: 0bf4 513f ab92 733f e7bb 533f 57db 673f
00000140: 2e0b 753f bae6 3d3f 4fc9 703f 0392 873f
00000150: 4e8d 673f 8e4d 5f3f fca2 513f 1660 6b3f
00000160: ba25 603f 8bb5 903f 110a 683f 99d6 6d3f
00000170: f7b9 693f cd2a 6e3f d079 783f c464 823f
00000180: 5d5f 693f 3d7a 6e3f 221f 683f 0513 693f
00000190: 5439 773f 5c19 713f 1858 753f 72c5 773f
000001a0: a7a2 813f dc18 433f 41c3 733f 0445 803f
000001b0: 190d 853f bc78 483f 7ed4 6e3f a68f 523f
000001c0: b0c1 723f 3812 5d3f 142a 6b3f e9dd 843f
000001d0: ecff 473f 0016 553f 040b 733f 21a6 6c3f
000001e0: 576f 7a3f 16fd 853f ea51 633f 489e 573f
000001f0: 0195 773f 8b0f 4a3f 3d51 5c3f b8a2 453f
0.96829224 0.87216187 0.80694854 0.66587734 0.9355929 0.9217081 0.7496396 0.7773305
0.9606713 0.85251296 0.86789227 0.8213706 0.9441159 0.976623 0.72280496 0.9535662
0.999998 0.9261464 0.9695781 0.75656474 0.9216758 0.7608079 0.92493945 0.8839862
0.9303161 0.91804504 0.9294771 0.88028556 1.0537282 0.9262565 0.89905506 1.0363306
1.0429668 0.95361894 0.8589885 0.77217877 0.9379094 0.92940414 0.87107533 0.86230206
0.87275386 0.98987174 1.0540947 0.8283827 0.9257509 0.97812945 0.8966847 0.8908046
1.0128816 0.89985263 0.97021973 1.0363795 0.8406313 1.0303841 0.8547959 0.9163946
0.8004223 0.89154506 1.0169617 0.86856216 0.9837432 0.8981017 0.8646077 0.8886947
0.9842038 0.9561612 0.93908167 0.8754796 0.754029 0.95650595 0.9593732 1.0439357
0.843067 0.969984 0.87474406 0.90696543 0.82013005 0.9514567 0.8270859 0.9056906
0.95720184 0.74180186 0.9405717 1.0591434 0.9044999 0.87227714 0.8188932 0.9194349
0.87557566 1.1305403 0.9064036 0.92905575 0.91299385 0.9303406 0.9706087 1.0187001
0.9116114 0.9315527 0.90672505 0.91044647 0.9657185 0.9417932 0.95837545 0.9678565
1.0127763 0.7620981 0.9521981 1.0021062 1.0394622 0.78309226 0.9329299 0.8225044
0.94826794 0.86355925 0.9186108 1.0380222 0.7812488 0.83236694 0.94938684 0.9244099
0.9782614 1.0467861 0.88796866 0.84225893 0.96711737 0.78929967 0.8606146 0.77201414

layer2.1.bias f4 [128]
00000000: 4299 0ebe 9cbf 1cbe 8b57 54be 4aad a4be
00000010: 9faa 3bbe ddf9 02be 2328 92be b31f 66be
00000020: 51c5 92bd 60d3 31be bc5b e5bd 3cc1 30be
00000030: bfbb b4bd 08be e1bd 335a 85be 554d 47be
00000040: 66c0 ddbd a287 0abe 1aff 88bd e67c 84be
00000050: 6f0e b2bd a15c 5bbe 470c d2bd 938a 11be
00000060: a331 e0bd 6e86 e5bd 8bee d2bd 0fdb 16be
00000070: 7cf4 f6bd 0ce6 b6bd 1e4b 1cbe 15ce 91bd
00000080: ef0b c7bd bdac e8bd fc4a 09be d23c 77be
00000090: d662 acbd 8dff 03be a96c 2bbe 75b8 1abe
000000a0: 9ed9 35be 70e7 bcbd d30b fbbd 7b98 56be
000000b0: c9ad f2bd cb1e 5ebd 323f d9bd 6d74 34be
000000c0: 19ae bbbd 44f3 e1bd 6d86 8dbd a500 9abd
000000d0: 5893 3abe cad2 9dbd 21c3 18be 24b9 eebd
000000e0: c138 3bbe 7b3c 21be c9f5 7cbd 063b 2bbe
000000f0: a9e4 b5bd edb1 0dbe 8b07 1dbe 559d 0abe
00000100: 8836 03be 2f50 7ebd f3f8 c4bd bf4d 05be
00000110: b0d3 59be bb28 f1bd 852b 8cbd 5d6a eebd
00000120: 9259 2dbe 07cf 30be d00f 1cbe 1133 11be
00000130: f73d 87be e12b 06be c299 37be 822c f3bd
00000140: f987 03be cc5a 89be 6e53 c5bd 874d 82bd
00000150: 9cc3 ebbd 4a9f 69be 5b80 52be b2f0 dfbd
00000160: c4f5 0bbe 4acc 01bd 28ec 32be c3df 51be
00000170: 7f97 ffbd ab76 e9bd 18f8 b5bd f33c d6bd
00000180: 8e36 56be b536 18be 2bd2 b8bd a7c0 cfbd
00000190: 962c ddbd affb 52be 4fad dbbd 2fb9 3cbe
000001a0: 9ce4 e1bd 235c 86be e49a c5bd ef09 f1bd
000001b0: 7537 debd c6ac 6dbe 9c2c a4bd 4edd 6abe
000001c0: 92be 0abe c710 83be ea00 e6bd 9868 2abe
000001d0: 5d1c 50be f1b6 42be 014b bdbd 3cd0 37be
000001e0: 3322 c9bd cba3 3dbe 6c4a 51be 21d5 20be
000001f0: 5045 9ebd d6e7 46be 7df7 2fbe 502a 70be
-0.1392565 -0.15307468 -0.2073652 -0.3216346 -0.18326806 -0.12790628 -0.28546247 -0.2247303
-0.07166541 -0.1736579 -0.111991376 -0.17261213 -0.08824872 -0.11022574 -0.2604538 -0.19463094
-0.10827713 -0.13528302 -0.06689282 -0.2587654 -0.08694159 -0.21422054 -0.10256248 -0.14213018
-0.109469675 -0.11207281 -0.10299405 -0.14732002 -0.120583504 -0.08930597 -0.1526303 -0.07119385
-0.09719073 -0.11361072 -0.1340751 -0.24144295 -0.08417289 -0.12890454 -0.1674067 -0.15109427
-0.17758796 -0.09223831 -0.12258115 -0.20956604 -0.11849553 -0.054228585 -0.10607757 -0.17622538
-0.09164066 -0.11032727 -0.06910405 -0.07519654 -0.1822027 -0.077062204 -0.14918186 -0.116564065
-0.18283369 -0.15745728 -0.061757836 -0.16721734 -0.08881504 -0.13837405 -0.15334909 -0.1353658
-0.12813771 -0.062088188 -0.09617796 -0.13017939 -0.21272159 -0.11775347 -0.06844238 -0.11641381
-0.169287 -0.17266475 -0.15240407 -0.14179637 -0.26414463 -0.13102676 -0.17929748 -0.118737236
-0.12844838 -0.26827085 -0.096350536 -0.063624434 -0.11511919 -0.2281467 -0.20556776 -0.10934581
-0.13667971 -0.031688966 -0.17472899 -0.20495515 -0.124800675 -0.11399587 -0.08885211 -0.10460844
-0.20919248 -0.14864619 -0.09024461 -0.101441674 -0.1079952 -0.20603822 -0.10726415 -0.18430017
-0.11029932 -0.2624217 -0.09648684 -0.11769473 -0.10850421 -0.23210439 -0.08016321 -0.22935984
-0.1354926 -0.25598738 -0.11230643 -0.16641462 -0.2032332 -0.19015099 -0.092428215 -0.17950529
-0.09820976 -0.18519513 -0.20438546 -0.15706302 -0.07728064 -0.19424376 -0.17184253 -0.23453641

layer2.1.running_mean f4 [128]
00000000: 4068 4c40 7376 50bf 5640 32bf 47f2 a2be
00000010: e593 07bf 86f0 c0bf fa23 0bc0 0425 81be
00000020: e328 be40 2c38 aebd 7c1d 9940 5b72 87bf
00000030: 44b4 85c0 530f c3bf af2b fcbf 5257 0fbf
00000040: c4f7 a23e 5fa5 39bf f01c c0bc 90e0 13c0
00000050: 8e8b 51be 9b7e 20bb 8e7b a7bf 3463 bfbe
00000060: 4056 3f3e 3c0d b0bf fb55 b1bd 0a91 17bf
00000070: 1f29 d13f 65ef fe3c bf50 4cbe 0b83 063f
00000080: 1f50 90be ff47 fd3e df7e 9ebf 4bcd eabf
00000090: e8df a0c0 8381 60c0 bd52 8dbf 7446 d9be
000000a0: 77db 52c0 daf1 d9bf 7d27 b23f fef4 92bf
000000b0: 0ee1 18c0 5a0c 4abf 33c0 16c0 2008 e2bf
000000c0: 101d 3d3f c553 70c0 d8bd 93be 1065 c93e
000000d0: 2724 92be 0cf7 1640 24ff 163f 2278 a4bf
000000e0: 0bbc 5bc0 b9ff 3fbf fccf 753f cb72 babe
000000f0: 1f5d 0e3f 18e8 d13c 576d 5ebd 7bcb a7bf
00000100: 898d 27bf 9db5 ba40 fef4 bebe de96 10c0
00000110: 9c82 66bf f7a0 7c40 2779 dd3e e15c 963f
00000120: ded6 9ebe 34c2 55be 62d6 c43f 15af 4540
00000130: e85f 19c0 5a57 1ac0 5c71 20c0 afdb 69c0
00000140: 900f d93e e6cc 323f b274 323f 7e92 533f
00000150: 637e 1cbe 8d8e debf d69e a63d c464 b1be
00000160: 16a4 61bf 17ec 0340 0bc5 28c0 76fb a9be
00000170: 7460 0940 0b2b 5840 2d74 ea3f 7a65 92be
00000180: c631 75bf 488d 26bc b239 2a3f a8a8 3ac0
00000190: c2f3 d53e 9ac9 eabd b3f1 c23f 48b8 9ebe
000001a0: 3e0c af3e 1b34 3fc0 6edc 6d3f 0877 8f3d
000001b0: c409 883f 73fa 44bf c4bc 2cc0 f071 eabf
000001c0: 6a29 d13f 1b29 05c0 3fa6 12bf cc49 b23e
000001d0: b9e7 5bc0 ac79 04bf bdc1 70c0 b51f a53d
000001e0: 35bc f83e 1a9d 3d3f 9dcb 0b3f e083 443e
000001f0: fc89 a83f 887f 44c0 7865 9cbf dece f6be
3.193863 -0.8143074 -0.6962942 -0.31825468 -0.52960044 -1.5073402 -2.1740708 -0.25223553
5.942491 -0.08506808 4.784849 -1.0581774 -4.178255 -1.5239052 -1.9700831 -0.55992615
0.31829655 -0.7251796 -0.023451298 -2.3105812 -0.20463392 -0.0024489525 -1.3084581 -0.37380373
0.18685246 -1.3754039 -0.086589776 -0.5920569 1.6340674 0.031120012 -0.19952677 0.52543706
-0.28186128 0.4946899 -1.2382468 -1.83439 -5.0273323 -3.5079048 -1.1040875 -0.42436564
-3.294645 -1.7026932 1.3918301 -1.1481016 -2.3887362 -0.78925097 -2.355481 -1.765873
0.7387247 -3.755113 -0.28855777 0.39334917 -0.28543207 2.3588285 0.58983064 -1.2849162
-3.4333522 -0.74999577 0.96020484 -0.36415705 0.5561084 0.025623366 -0.054303493 -1.3108972
-0.6545034 5.8346696 -0.3729629 -2.2592082 -0.90043044 3.9473245 0.43256494 1.1747094
-0.31023306 -0.20874864 1.5377924 3.0888112 -2.3964787 -2.4115815 -2.506919 -3.6540334
0.42394686 0.698439 0.6970931 0.82645404 -0.15282588 -1.7387253 0.08135764 -0.3464719
-0.88141 2.0612848 -2.6370265 -0.33199662 2.146512 3.3776271 1.8316704 -0.28593045
-0.95779073 -0.01016552 0.66494286 -2.916544 0.41787535 -0.11464234 1.5230011 -0.3099997
0.34189028 -2.9875553 0.92914474 0.07005125 1.062798 -0.76944655 -2.6990213 -1.8316021
1.6340764 -2.0806339 -0.5728492 0.34821928 -3.4360182 -0.51748157 -3.7618248 0.08062688
0.4858109 0.7406784 0.54607564 0.19190931 1.316711 -3.070284 -1.2218466 -0.48204702

layer2.1.running_var f4 [128]
00000000: bb2d 1641 203a 2e41 57b0 c740 7b50 b440
00000010: 910a 9640 7021 2941 a144 c640 409b cf40
00000020: e8f2 ad41 746d b340 e48b 6641 9d50 a740
00000030: d697 4641 20c0 5041 58dd 0541 b5f5 4f41
00000040: d3b2 4b41 b92a de40 c603 8c41 1764 2941
00000050: 379c a640 c4de 8640 6932 6441 74e6 1041
00000060: 28cd 0a41 66d1 0041 d4d0 7340 a355 ae40
00000070: f5b4 9a41 83d3 9540 0308 1141 33d6 c640
00000080: 1571 6041 e6f2 c640 b889 5041 3543 0d41
00000090: b165 a841 3b1f 6e41 1955 e940 5b07 0e41
000000a0: 2d3f 7841 2abb 6d41 dff3 7241 ae8a df40
000000b0: 52ab de40 e8dd 3841 0be5 e840 2545 4441
000000c0: ef51 3f41 ecf3 7941 0edc 8241 abee 1141
000000d0: deaf a740 cd26 4741 9844 a440 4d8c ca40
000000e0: 4b0d 2241 e879 2341 e982 c240 7b8f a040
000000f0: 741e ca40 18f4 ba40 e3ca a740 3c52 4e41
00000100: 9fa7 e940 d543 ae41 bf01 a740 e1f9 0541
00000110: 07d3 ca40 0318 4741 6a7f ca40 077c 3a41
00000120: 69e8 df40 2bcd 7341 4bbf c940 6556 1d41
00000130: 5381 4a41 e3fa 1641 b388 7841 e154 4341
00000140: 4df1 c140 6f63 1b41 c998 c740 9b2c e840
00000150: ed58 ba40 4ae8 4341 122a 9140 6d01 a840
00000160: af9c cd40 52f2 3741 f28e 7641 50de 1a41
00000170: 388d f040 436c 3041 7fba 1b41 6613 f740
00000180: 379b 4941 3226 9140 a6c5 0c41 ce27 3541
00000190: ac9d 1341 768a 5041 0339 0841 d629 2d41
000001a0: f307 e940 facb 1341 c74d c940 75e5 c240
000001b0: b93d 5e41 b6c8 0641 417d 0941 014f 1e41
000001c0: e756 c940 73fd 4441 ff27 b340 3455 a641
000001d0: 9478 6241 306c f440 bd90 3841 081c cb40
000001e0: e245 a340 de61 9841 1ec7 0641 cd2b 7840
000001f0: 5db5 e340 85a5 4441 d2c5 da40 7ee5 c840
9.386165 10.889191 6.240276 5.6348243 4.68879 10.570663 6.1958776 6.4877014
21.743607 5.607111 14.409153 5.2285905 12.412069 13.0469055 8.366539 12.997487
12.731158 6.942715 17.501842 10.586936 5.206569 4.214693 14.262307 9.056263
8.675087 8.051123 3.8096209 5.4479537 19.338358 4.6820693 9.064456 6.2136474
14.027608 6.2171507 13.033623 8.828908 21.049654 14.882625 7.291638 8.876796
15.515424 14.858194 15.184539 6.9856787 6.958413 11.554176 7.2779593 12.266881
11.957503 15.622051 16.357449 9.120769 5.240218 12.446973 5.1333733 6.3296266
10.128245 10.217262 6.0784802 5.0175147 6.3162174 5.8422966 5.2435164 12.895077
7.3017116 21.783121 5.218963 8.373506 6.33826 12.443362 6.3280535 11.65528
6.9971204 15.23759 6.304601 9.833592 12.656573 9.436252 15.533374 12.208222
6.0607057 9.711776 6.2374005 7.255445 5.823355 12.244211 4.5363855 5.250174
6.4253764 11.49666 15.409899 9.6792755 7.5172386 11.026431 9.733031 7.721118
12.600394 4.5359125 8.798254 11.322218 9.225994 13.033804 8.513919 10.822714
7.2822204 9.237299 6.2907443 6.09051 13.890069 8.424002 8.59308 9.894288
6.291858 12.311877 5.5986323 20.791603 14.154438 7.6382065 11.5353365 6.347172
5.1022806 19.047787 8.423613 3.8776734 7.115889 12.29041 6.836648 6.278014

linear1.weight f4 [4, 16000]
00000000: becb 653a 4d1a fe3b d8eb 7fbc 8575 be3c
00000010: 1719 04bc 77f6 21bc 8b4c e8bb 81d6 b33c
00000020: da55 4cbc da67 953c fcea c93c 2e5a 80bb
00000030: 20ae 0b3c 4936 6cbb bc30 143c 2503 2d3c
00000040: 91b2 08bc 76e4 de3c 0fc4 ef3c bf58 0bbd
00000050: 6295 b33c 14b8 a6bc 855f 9abb fdb6 42bb
00000060: 6781 04bc 0c75 9d3a fc22 fa3c 16e4 db3c
00000070: a93c 863d db0b a03c 9007 8c3c 7261 fc3b
00000080: 11ee e43c 9f80 ea3c 892f 323b 3ef2 3c3d
00000090: 4351 033d e8d0 fdbc 042d 15bc fa58 f1bb
000000a0: aaca 81bc a8c0 f53b c7f2 e6bc 3a69 383d
000000b0: 218a 263c 4614 233d d9c7 213c 147b 89bc
000000c0: 4214 05bc 1e57 d2bb 4c0f 91bc 18fc 943b
000000d0: ccb1 63bc 55b1 9e3b e479 70bc 6c23 0e3c
000000e0: 3a9c c2b9 3cca 303c 65c2 87bc 5f6a 8cbc
000000f0: 785d f33c 052e 5dbc 95c2 b33c e43f beba
00000100: 5f70 01bc 7215 21bc 3a21 e73b ab67 75bc
00000110: 9243 96bb 5513 083d c5c0 73bd 7687 563c
00000120: 8fb4 59bb 658e 6b3a 6c98 943c c55e 8e3a
00000130: f137 ffbc 71b2 d1ba 28cf d5bb cea5 123c
00000140: 2cc1 1f3d 00fc a3bb 4bc1 2b3c 40b6 f6bb
00000150: 864b 833c 8a1f 0c3c f5e8 adbc cafa 293d
00000160: 5154 6b3b 6d2a b53c e423 003d 1fc5 453b
00000170: 07c1 e7bb 72f6 d8bb ac81 ff3b f8b5 f0bc
00000180: 5ea1 2f3c 6e88 d1bb 0e08 28bc 3b92 f13a
00000190: e343 04bb 60da 4e3c d28a 60bc 0088 4e3c
000001a0: 1b54 69bc b5f6 953c d965 943c 4a21 04bd
000001b0: 6d0c 2fbc 7e14 03bd da21 bbbc f05b 11ba
000001c0: 8f43 a23c 8a2f e93b d2c7 683c bc76 283b
000001d0: d1b8 8c3c 93af 323c e606 f93c 0756 193d
000001e0: 7caa 433c 856d 2a3c 3e3b 963c a16f 963c
000001f0: 87bc bb3c fb8b 093a bff3 ecbc 61dd 3bbd
00000200: 214d 59bd 5732 1ebd 0fde aabc 842f 53bd
00000210: 31e5 76bc 406d 3fbd 4588 26bd d57d 6dbd
00000220: 0ed9 dfbc 44c4 76bd ff7d 2abd b3c8 39bd
00000230: 92c9 023c cb31 74bd 2f06 01bd 94be 6bbc
00000240: d4fb 4fbd a692 93bd 7f48 19bd 1e07 2abd
00000250: 3867 a9bc db17 5cbd b9ea a9bd 5432 7bbd
00000260: df91 35bd 5b85 fcbb d519 78bd f1dc cfbc
00000270: 6864 9bbd 6eaf 3dbd bca6 15bd 4c7b 3cbd
00000280: 0299 b0bc 8661 b1bd 68f3 2fbd abfb 56bd
00000290: d1ef 04bd 5dba 7cbd 43e2 76bd 6618 6ebd
000002a0: 02fb 7ebd 2075 a1bc beae 88bd 498a 11bd
000002b0: 8c18 43bd 0049 3fbd ab72 a6bd a25f 98bd
000002c0: 1d7f 89bd 5ff0 55bd 9198 94bd 2f1e a9bd
000002d0: 26a5 7fbd eddc c2bc 7dbd 6cbd 6c6a a0bd
000002e0: 4963 83bd c842 80bd 3d1d 54bd 124a 48bd
000002f0: e6c2 a5bc 8e33 87bd 58d6 aabd 996f 38bd
00000300: e0a4 ecbc fbd9 85bd b60c 6fbd 7bed 74bd
00000310: bfa1 2abd 2e12 0ebd 5637 7fbd 2f95 b0bd
00000320: 3564 a2bd 4f23 50bd cc05 8fbc e704 16bd
00000330: 4a22 57bd 442f 63bd e326 65bd 05eb 5fbd
00000340: ad00 7abd 456b 97bd cd8e d3bc e8de acbd
00000350: 79f7 84bd b28f ecbc 7814 05bc a113 deba
00000360: cf11 e7bc 4e7b 75bd 5803 9dbd db4e 6bbd
00000370: 379e 9bbd 3c7a c5bc 7521 bebc 411b 4dbd
00000380: 4adf 92bd 95fa 53bd 5353 c0bd 6466 4abd
00000390: e3c2 23bd a111 05bd 64a0 7abd eff3 c0bc
000003a0: 5a42 65bd 766e 99bd 9691 72bd efb9 4dbd
000003b0: 276f 86bc df4b e6bd 9b11 36bd b6f9 e6bb
000003c0: 80f2 28bc 1941 5cbd 7cca 84bd 9196 61bc
000003d0: ddd0 41bd 7aae 37bd 113a 13bd 6fdb 0ebd
000003e0: 68a2 90bc cae1 8abc 72a2 a4bc 707b 04bd
000003f0: 44ac 0ebd 3dc1 fbbc e772 17bd eb35 a2bc
0.00087660167 0.0077546 -0.015620194 0.023249397 -0.0080626225 -0.009885422 -0.0070892028 0.02195287
-0.0124716405 0.018237997 0.024648182 -0.0039170003 0.008525401 -0.0036043099 0.009044822 0.010559832
-0.008343355 0.027208548 0.029268293 -0.03402018 0.021921817 -0.020351447 -0.004711094 -0.002971112
-0.008087493 0.0012013032 0.03053426 0.026842158 0.06554539 0.019536903 0.01709345 0.007702046
0.02794555 0.028625784 0.0027188978 0.046129458 0.03205992 -0.030983403 -0.009104971 -0.007365343
-0.015843708 0.007499773 -0.028191937 0.045022227 0.010164768 0.039814256 0.009874308 -0.016782321
-0.008122506 -0.0064190766 -0.01770749 0.0045466535 -0.013897371 0.004842917 -0.0146774985 0.008675437
-0.0003711896 0.010790404 -0.016572187 -0.017140565 0.029707655 -0.013499741 0.02194337 -0.001451489
-0.0079003265 -0.009831773 0.0070535215 -0.01497833 -0.0045856917 0.03322156 -0.05951001 0.01309382
-0.0033219194 0.0008985757 0.018139087 0.0010861984 -0.031154605 -0.0015998614 -0.006524939 0.008950664
0.039002582 -0.005004406 0.010483096 -0.00752905 0.016027223 0.008552441 -0.021229247 0.041498937
0.003590841 0.022114957 0.031284228 0.0030177308 -0.007072571 -0.0066211754 0.0077974405 -0.029383644
0.010719625 -0.0063944375 -0.010255827 0.0018430421 -0.0020182065 0.012625307 -0.013704972 0.012605667
-0.014241244 0.018306116 0.018114971 -0.03225831 -0.010684115 -0.032001965 -0.02284329 -0.0005545011
0.019807605 0.007116263 0.014207797 0.0025705537 0.017177971 0.010906118 0.030398797 0.037435558
0.011942502 0.010402088 0.018338796 0.018363776 0.022917045 0.0005246994 -0.028924821 -0.04586542
-0.05305207 -0.038622227 -0.020857839 -0.051558986 -0.015069292 -0.04673505 -0.0406573 -0.05798133
-0.02732518 -0.060245767 -0.041624065 -0.045357417 0.007982628 -0.0596178 -0.031500038 -0.014388699
-0.05077727 -0.07205705 -0.037422653 -0.041510694 -0.020679101 -0.053733688 -0.08296723 -0.061327294
-0.044328567 -0.007706327 -0.06057151 -0.025373908 -0.0758751 -0.04630988 -0.036535963 -0.046016023
-0.021557335 -0.08661179 -0.04295674 -0.052486103 -0.03245527 -0.061701167 -0.060274374 -0.058128737
-0.0622511 -0.01970917 -0.066739544 -0.03553227 -0.04763083 -0.046700478 -0.0812734 -0.074401155
-0.06713698 -0.05223119 -0.07255662 -0.0825771 -0.062413357 -0.023786986 -0.057797898 -0.07832798
-0.064154215 -0.062627375 -0.051785696 -0.048898764 -0.020234536 -0.0660163 -0.08341664 -0.045028303
-0.028887212 -0.06535717 -0.05836173 -0.05979679 -0.04165816 -0.034685306 -0.06230863 -0.086222045
-0.07929269 -0.050814923 -0.017458819 -0.03662577 -0.052522935 -0.055464998 -0.05594529 -0.05466749
-0.0610358 -0.07393507 -0.025824929 -0.084409535 -0.06492514 -0.028877113 -0.008122556 -0.0016943106
-0.028206734 -0.059932046 -0.076666534 -0.05744825 -0.075985365 -0.024106137 -0.023209313 -0.05007482
-0.07171495 -0.051752646 -0.09390893 -0.049414054 -0.03998078 -0.032487515 -0.061188117 -0.023553817
-0.05597148 -0.07491772 -0.059220873 -0.05022615 -0.016410423 -0.1124494 -0.044450384 -0.007048811
-0.010311723 -0.05377302 -0.06483933 -0.013768808 -0.04731833 -0.04484413 -0.03594405 -0.034877237
-0.017655566 -0.016953368 -0.020096991 -0.03234428 -0.034832254 -0.030731792 -0.036974814 -0.0198011

linear1.bias f4 [4]
00000000: b45a 01bc b3ca 313c f40c 653b 5b97 3fbc
-0.0078951605 0.01085155 0.0034950348 -0.011693801
